pretrained/saved_model_dim4.pt (torch, 12518 bytes, 20 tensors)

weight f4 [8, 4]
000000 5a 31 90 3e 27 5f b8 bd 2a f4 cc 3e 02 35 4f bf
       0.28162652 -0.09002524 0.40030032 -0.8094026
000010 fc ba 5c be 84 37 83 bf e9 ca 81 3e ec 1b 94 bf
       -0.21555704 -1.0251317 0.2535012 -1.1571021
000020 f6 45 4d 3e ea 56 7f be 92 ec 05 3f af 21 87 bf
       0.20046219 -0.24935499 0.523141 -1.0557154
000030 dd 4c b4 be 73 bd c0 bf 61 5b 28 3f 0b 0a 01 c0
       -0.35214892 -1.5057815 0.65764433 -2.016238
000040 09 1e 11 3d 63 4f 30 bf 73 10 1e 3f 1d 26 b7 bf
       0.035429034 -0.68871135 0.6174385 -1.4308506
000050 e0 d8 ab be 23 02 dd bf 09 82 53 3f 9a da 1b c0
       -0.335639 -1.7266277 0.8262029 -2.4352174
000060 01 ca 02 3e ee c2 78 be 02 eb 36 bf c6 07 aa bf
       0.12772371 -0.2429311 -0.71452343 -1.3283622
000070 5e d6 08 40 f8 a8 be 3f b3 d3 99 3f 3e 4f dd 3e
       2.138084 1.4895315 1.201773 0.4322452

weight f4 [4, 8]
000000 d5 8e b7 3c d6 a6 ae 3d 50 ef 93 3d 99 e4 06 3d
       0.022406975 0.08527915 0.072233796 0.03293285
000010 b2 ad e8 3c f3 6c 09 bd 99 08 e8 bd f6 d8 d3 bb
       0.028403137 -0.033551168 -0.11329765 -0.0064650727
000020 84 ce 20 bd 64 fd ae 3d 3e 10 e4 bd 19 51 7f 3c
       -0.03925945 0.08544424 -0.111359105 0.0155833
000030 4e 9c 5e 3d a5 ff 11 3d 60 36 fd bd 3a da 00 bc
       0.054348283 0.035644192 -0.12363887 -0.007864529
000040 55 df 16 3d 5f 9c 00 3d b1 8e 63 be 7d ed 25 bd
       0.03683408 0.031399127 -0.22222401 -0.04050969
000050 6e da a8 bd 47 0d 4f be 00 26 c4 be f9 f5 0b 39
       -0.08244787 -0.20219909 -0.38310242 0.00013347705
000060 da cf 87 bc 92 e9 83 3d 61 5c fa 3e ab 8a 8c 3e
       -0.016578604 0.064410344 0.48898605 0.27449545
000070 2b 61 44 3e b6 e9 46 3e 3e 72 08 3f 6f f5 d6 b8
       0.19177692 0.19425091 0.5329932 -0.00010250031

bias f4 [4]
000000 0f e0 ef 3d 00 59 17 be 60 67 c3 be cf c0 61 3f
       0.11712658 -0.14780045 -0.38164806 0.8818483

weight f4 [4, 2]
000000 dd dc 5f 3d cc 39 bb bf e6 c6 43 bb ce 69 de 3e
       0.05465399 -1.4627013 -0.0029873191 0.43440098
000010 51 b4 5b bd 7a be aa 3e 51 25 98 3c 24 cf bf 3f
       -0.05363876 0.33348447 0.018572481 1.4985089

bias f4 [4]
000000 30 4f 95 3e 14 ad 0f bf 48 78 9a be b1 86 11 bf
       0.29161978 -0.5612347 -0.30169892 -0.5684615

weight f4 [4, 16]
000000 fb 32 85 3c 47 87 34 3f 16 8b 8c 3d 47 7d 45 be
       0.016259661 0.70518917 0.06862466 -0.19286071
000010 77 5b 0f 3f 4b c9 d3 3e a0 76 0f be 66 88 9a 3e
       0.5599894 0.41364512 -0.14010096 0.3018219
000020 e3 7d 1d 3f 07 bf 08 3f 37 31 02 3e 2f d8 c5 3e
       0.6152021 0.53416485 0.12714086 0.38641497
000030 57 af 2b 3f be 22 fd 3e a5 e7 62 3e 50 64 81 bc
       0.6706442 0.4944057 0.22158678 -0.015794903
000040 ae be a2 be 28 dc 78 3f 5f 15 f3 be b9 d5 80 3e
       -0.31786102 0.9721093 -0.47477242 0.25163057
000050 59 6b 95 3e 60 4f b9 3e b1 a9 e7 3d 7d c1 71 3e
       0.29183462 0.3619337 0.11311663 0.23608966
000060 3e 6e 15 3f ec bc 3e 3f 21 56 ce 3e b5 8f 98 3e
       0.5837134 0.7450702 0.40300086 0.2979714
000070 b7 6c a1 3e 89 f9 21 3f 4a 09 c4 3e 02 93 a0 3e
       0.31528255 0.63271385 0.38288337 0.31362158
000080 16 a8 a8 3e 0e 6e cc 3b 5d 51 86 be dc cf bc bd
       0.3294074 0.0062387055 -0.2623395 -0.092193335
000090 0d 0d 67 3e e3 5c 8d 3e e9 65 80 bd 74 50 a2 3d
       0.22563572 0.2760993 -0.06269438 0.079255015
0000a0 a3 2c 4c 3f 19 5f 88 3f fd d3 8a 3e ce 3d 1f bd
       0.7975561 1.0654022 0.2711486 -0.0388773
0000b0 01 4a fe 3e 13 48 11 3f 4f bb 3d 3e 3f b1 53 3d
       0.49665835 0.567506 0.18528484 0.051682707
0000c0 bd d7 28 3d 1e b8 ed 3e 67 34 7b be f0 fa a3 3e
       0.04122137 0.46429533 -0.24531709 0.32027388
0000d0 be d9 30 3f fd 8b 9f 3f 45 ec 81 3e 9b 00 b7 be
       0.6908225 1.2464596 0.25375572 -0.3574265
0000e0 44 ab 0b 3d 9a d7 2f 3e 10 5f 90 3e 30 fe cd 3e
       0.03409888 0.17172089 0.28197527 0.40232992
0000f0 60 6a 24 3f 0a d8 26 3f 23 9f 83 3e 81 0b d6 3e
       0.64224815 0.651734 0.2570735 0.41805652

bias f4 [4]
000000 01 10 04 3e 8d ed 07 3d fb 50 7c be ef 7a 80 be
       0.1289673 0.03318553 -0.24640267 -0.2509379

weight f4 [4, 16]
000000 77 34 74 3e 0f aa 10 3f 67 b9 9d bd ed ca 87 3f
       0.23848139 0.5650949 -0.07701378 1.0608803
000010 43 5d 2f 3e 93 38 95 3d f4 07 d5 3e e3 5b d8 be
       0.1712542 0.07286181 0.4160763 -0.42257604
000020 1a 02 ee 3e 49 d8 f4 3e c1 2d 76 3d 01 a4 24 3f
       0.46485978 0.47821262 0.060102228 0.6431275
000030 35 6f af 3e 5a 1f 4d 3e d2 2e 08 3f a4 32 1f be
       0.34264532 0.20031491 0.5319644 -0.15546662
000040 41 c5 d3 3e 1d 7d cd 3e 2b 59 15 be 2c 8c f9 3e
       0.4136143 0.40134516 -0.14584796 0.48739755
000050 c8 96 e1 3e e5 24 00 3e f2 1a 56 3e 93 d3 f5 be
       0.4406035 0.12514074 0.20908716 -0.4801298
000060 ab c1 27 3f 75 1c b1 3e 6a 52 7e bd 68 f3 87 3e
       0.6552989 0.34592023 -0.062090315 0.26552892
000070 4b db 01 3f f8 fc 39 3e e9 dd 66 3e cf fc a7 be
       0.5072524 0.18162906 0.2254559 -0.32810065
000080 a4 8d e7 3e c0 13 08 3e c9 f7 25 3e f7 8c 1c 3f
       0.4522525 0.13288784 0.16207804 0.61152595
000090 6f bb bb 3e b6 93 e4 bb 23 de ed 3e 5e 20 8e be
       0.36666438 -0.0069756163 0.4645854 -0.2775907
0000a0 d5 b7 06 3f 8c 5c 40 3d fa f9 43 3e cf d9 d0 3e
       0.52624255 0.04696326 0.19138327 0.40791175
0000b0 ac 72 d5 3e d2 92 66 bc 93 f4 e6 3e a8 a3 27 be
       0.4168905 -0.014073091 0.4510847 -0.16371024
0000c0 90 a8 68 3e af a1 59 3f 8b cf 4c bf 2a 50 2e 3c
       0.22720551 0.85012335 -0.80004185 0.01063923
0000d0 7e 24 f8 3e b6 c4 35 3f a2 ff 0a be 0d 53 63 bf
       0.4846534 0.7100328 -0.13574079 -0.887986
0000e0 e6 78 3b 3f b9 e6 87 3f 04 64 3d bf fa 5e aa bd
       0.7323135 1.0617286 -0.73980737 -0.083188966
0000f0 2a 3f 19 3f bf 4b 66 3f 37 a4 3c be 93 19 04 bf
       0.59862006 0.8995933 -0.18422018 -0.51601523

bias f4 [4]
000000 e6 e8 09 bf 47 45 3f be f6 fe 9c 3c c8 95 69 be
       -0.53871 -0.18678771 0.019164544 -0.22811043

weight f4 [8, 16]
000000 5a 42 5d be 66 8b 92 be 28 40 9c 3d 58 12 4f bf
       -0.21607342 -0.28621978 0.07629424 -0.80887365
000010 0b fa 96 3e 9c 57 2c 3e 7b d9 cf 3e 8c 2c c3 be
       0.29487643 0.16830295 0.40595612 -0.38119924
000020 74 42 4b be 17 6d d0 bd 6c ce 19 3e 50 bf 3b bf
       -0.19849569 -0.10177057 0.1502015 -0.73338795
000030 80 28 a1 3d 55 89 01 3e a6 3f 84 3e ae 83 e0 be
       0.07869053 0.12650044 0.2582981 -0.43850464
000040 eb a1 5e 3e 89 90 9c 3e 99 b6 77 3e 9d a5 26 3f
       0.21741454 0.30579022 0.24190749 0.65096456
000050 c3 07 df be 18 ed 50 bb 95 c0 c5 bd e2 2d 5f 3e
       -0.4356061 -0.00318796 -0.09655873 0.21794847
000060 a4 6c 74 3d ab 08 0d 3e 6d ec 14 bd 3f 07 f1 3e
       0.05967392 0.13772838 -0.036358286 0.4707584
000070 76 2b 90 be df 11 d9 3c 60 b6 94 bb 8c 35 af 3e
       -0.28158158 0.02649778 -0.0045383424 0.3422054
000080 71 68 2a bf c3 22 b6 be 19 17 cd 3c 5a 00 3d bf
       -0.66565615 -0.35573396 0.025035428 -0.7382866
000090 48 04 0d 3f e2 b3 d5 3e 52 09 bf 3e 06 d1 ea 3d
       0.5508466 0.41738802 0.37311798 0.11465649
0000a0 a7 ef e1 be 85 60 47 be c4 0d ed 3d 40 e3 1a bf
       -0.44128153 -0.19470413 0.11574891 -0.60503006
0000b0 52 3d 0a 3f e7 c6 e8 3e 4e e0 ec 3e 3e 30 dc 3d
       0.5399982 0.4546425 0.4626488 0.10751389
0000c0 78 bb 07 b8 c1 8e 12 b7 6a 7a 5a b8 02 d1 5f 37
       -3.2361102e-05 -8.735516e-06 -5.2089257e-05 1.3340499e-05
0000d0 7d 17 38 b8 39 c8 57 b7 0b 1a 4e b8 7c 0d fc 37
       -4.3890894e-05 -1.2861617e-05 -4.913848e-05 3.004702e-05
0000e0 a2 fb 3e b8 99 44 a4 b7 af f7 80 b8 b5 9e 92 37
       -4.553388e-05 -1.9582267e-05 -6.14965e-05 1.747846e-05
0000f0 14 fa 44 b8 8f 7f 7f b7 7d 2b 58 b8 8d 10 e0 37
       -4.6962945e-05 -1.5228884e-05 -5.1538915e-05 2.6710588e-05
000100 fa e8 08 b3 91 1a 11 b3 45 11 6f b4 07 ca 9c 33
       -3.187686e-08 -3.3784605e-08 -2.2264892e-07 7.3010646e-08
000110 e3 9f 2e b3 8c e4 5a b3 71 7e 54 b4 57 53 3e 33
       -4.0657948e-08 -5.0964942e-08 -1.9790038e-07 4.431362e-08
000120 2e 6f 32 b2 6a 11 17 b2 ac bf 3a b4 d9 6d a9 33
       -1.0386243e-08 -8.793316e-09 -1.739233e-07 7.889657e-08
000130 15 0c 0a b3 da a0 03 b3 cb 07 41 b4 46 ac 4e 33
       -3.2141617e-08 -3.0647108e-08 -1.7977361e-07 4.8119794e-08
000140 e7 1e c8 3e 7d ed 15 3f 99 c1 f4 3e c5 39 87 3f
       0.39086077 0.58565503 0.47803953 1.0564505
000150 52 f6 19 bd c5 d3 4b 3e da bf 1e 3e c7 56 3a 3f
       -0.037588425 0.19905002 0.15502873 0.7278866
000160 60 03 97 3e 37 aa ed 3e 9a a9 d7 3e 53 86 7b 3f
       0.29494762 0.46418926 0.42121583 0.9825184
000170 26 32 7b 3d 5b c6 9e 3e cb 73 92 3e 10 d3 4e 3f
       0.061327122 0.31010708 0.28603968 0.80790806
000180 5f fd db 3e fd 09 a1 3e 20 96 fa 3d 1c c2 c7 3d
       0.42966744 0.31452933 0.12235665 0.0975382
000190 64 99 08 3f f8 cf df 3e 25 8b b5 3e 62 f0 61 3e
       0.53359056 0.43713355 0.3545772 0.22064355
0001a0 3d 8c c0 3e b8 33 66 3e 19 0d 9f 3e 46 93 11 3d
       0.37606993 0.22480667 0.3106468 0.03554084
0001b0 a8 e5 c4 3e 82 e5 a1 3e bd 68 a0 3e 30 29 f5 3d
       0.38456464 0.31620413 0.3132991 0.119707465
0001c0 fb fa e2 3e 5d c7 ab 3e 69 a3 00 3f 6b f7 43 3e
       0.44332108 0.3355054 0.50249344 0.19137351
0001d0 31 7c 23 3f 28 32 d7 3e d3 43 7b 3e 20 41 80 3e
       0.63861376 0.42030454 0.24537592 0.25049686
0001e0 ee 10 96 3e 58 c0 4b 3e a9 b0 be 3e 68 2d 2a 3e
       0.2930979 0.19897592 0.37244156 0.16618884
0001f0 35 9e d1 3e a8 99 f2 3e ba cc ab 3e cb 9c 64 3e
       0.40941015 0.47382855 0.3355463 0.22325437

bias f4 [8]
000000 3f 36 1f 3f 56 02 c7 3d 86 47 b8 3f 7a 0e 1a b9
       0.6219215 0.097172424 1.4396827 -0.00014691977
000010 c3 6b 17 b6 28 de a1 bd 4d 1b 1b bf e2 07 45 be
       -2.256348e-06 -0.07903701 -0.6058853 -0.19241288

weight f4 [4, 12]
000000 96 c1 68 3d 60 a9 8a 3d af 76 7d be ba 10 42 36
       0.056825243 0.06770587 -0.24752305 2.8917989e-06
000010 3a 65 db b1 68 59 97 3d b4 c1 f8 3d 1b ff 38 3d
       -6.385247e-09 0.073901 0.12146321 0.045165163
000020 ce 61 a3 be 7c ad f7 3d 9a 7e 92 3d c9 44 dc 3e
       -0.31910557 0.120936364 0.071530536 0.4302123
000030 38 10 33 3f 22 f4 12 be d7 9f 2d 40 91 25 34 b7
       0.6994662 -0.14350942 2.7128808 -1.0737583e-05
000040 78 b4 8f b3 0b 59 cd bc 04 90 2a 3e ec 1b 9e 3e
       -6.6917835e-08 -0.025066873 0.166565 0.30880678
000050 88 05 e2 be 02 7e 30 be 05 55 7a be c1 c6 a4 3e
       -0.44144845 -0.17235568 -0.24446495 0.32182887
000060 c0 9e 2f be 5b b1 6e 3d e6 e4 9f 3d 1d 9d e5 36
       -0.17150402 0.058274608 0.07807331 6.843022e-06
000070 d8 00 44 33 da 6c 46 3e 0d a3 7d 3e b5 36 6a 3e
       4.5635574e-08 0.19377461 0.2476923 0.22872432
000080 0a 6c c5 3e 21 ae f8 bd 87 b1 e4 bd 25 3b d0 be
       0.3855899 -0.121425875 -0.11166673 -0.40670124
000090 fd 02 37 be a4 42 63 3e e6 5e 3e bf c0 4a c0 32
       -0.17872234 0.2219339 -0.74363554 2.2385734e-08
0000a0 45 75 f8 b3 f8 90 9c 3f 36 b1 0c 3f 39 44 7b 3f
       -1.1569731e-07 1.2231741 0.549579 0.98150975
0000b0 8f ac b8 be 63 6c 24 3c fb 54 a0 ba 04 dc da 3c
       -0.36069152 0.010035607 -0.0012232357 0.02671624

bias f4 [4]
000000 0f ae 94 3b 2c f0 7d 3f fa 09 b2 bd 54 a0 36 be
       0.004537351 0.991946 -0.08693309 -0.17834598

weight f4 [4, 4]
000000 a3 43 0e bf f9 cc 25 bc 26 9a e4 be 0e 76 07 3f
       -0.55571955 -0.01011967 -0.44648856 0.5291451
000010 37 95 1f 3e b4 4b ac bf 7b 2d 89 3e d7 2c 9b 3c
       0.15584265 -1.3460603 0.2679251 0.01894228
000020 e6 5d 2d 3e d2 57 24 3e e7 44 2d 3e ea 2b 80 3f
       0.1693035 0.16049126 0.16920815 1.0013402
000030 4e e0 74 be d5 c9 85 bf 94 70 90 be 5d f4 d8 bf
       -0.2391369 -1.0452219 -0.2821089 -1.6949574

bias f4 [4]
000000 69 bc 06 be 79 7f 18 bf b9 6d 56 3d 52 c8 82 be
       -0.1315781 -0.5956951 0.052350733 -0.25543457

weight f4 [6, 4]
000000 36 c8 59 3a 92 9b f1 3b 9e 89 65 bc a7 9c da 3c
       0.0008307727 0.0073732818 -0.014009861 0.026686026
000010 1d 66 e7 3c 1b 9e cd bd a8 f5 2e bd 2b 56 3e 3c
       0.028246934 -0.10039922 -0.042714745 0.011617224
000020 65 d6 19 bf 10 e7 06 40 21 3f 6b 3f ba b5 3c bf
       -0.60092765 2.107853 0.918932 -0.7371479
000030 db 92 7b bf 7c 3d 97 bf 4f ff 99 be 30 9f e5 3e
       -0.9827096 -1.1815639 -0.30077597 0.44848013
000040 13 3c 13 3f 82 44 86 bd 7e 6b 25 3e 25 2d 39 be
       0.5751354 -0.065560356 0.16154286 -0.18083628
000050 19 b5 a9 bb 5e ad c5 3c 78 61 b0 bc 8b 45 32 3d
       -0.005179059 0.02413052 -0.021530852 0.043523353

bias f4 [6]
000000 72 82 49 ba 20 56 fa 3c 71 43 d3 be 95 a4 e9 3d
       -0.00076869794 0.030558646 -0.4126239 0.11408345
000010 11 74 5e 3e 98 68 6e bb
       0.21723963 -0.003637826

weight f4 [4, 12]
000000 76 be da 3e b4 1c 59 3f 37 40 f0 be 64 5b 11 b8
       0.42723435 0.8480942 -0.46923992 -3.4655808e-05
000010 f5 03 a9 34 f8 9e 9f bc 33 14 0f bf 2f b1 f5 be
       3.1481582e-07 -0.019484982 -0.55890197 -0.47986743
000020 36 39 e6 be 0c 9c c2 3d a4 2f 18 3e 4f ce c2 3e
       -0.44965523 0.0950242 0.14861923 0.38048026
000030 2e 6f 89 be 2d 40 5a bf 63 48 b1 3e 66 b0 55 ba
       -0.26842636 -0.85254174 0.3462554 -0.00081515906
000040 c4 1a 8d b4 42 c1 9d be e0 4c 2f 3e 1f d3 82 3e
       -2.628277e-07 -0.30811507 0.17119169 0.25551698
000050 72 75 af be 26 94 d9 3e 34 47 83 3e d9 64 ca 3e
       -0.3426929 0.4249584 0.2564026 0.39530066
000060 6b c5 3e bf 44 20 aa 3e d9 b8 9e be 35 db 81 ba
       -0.74519986 0.33227742 -0.31000403 -0.0009907248
000070 b0 e6 c9 b4 7a d7 99 3e 8c ac b4 3e ac 6e cd 3e
       -3.7607015e-07 0.30047208 0.35287893 0.40123498
000080 5c 6d 20 3d e8 24 a0 bd 86 b1 83 3e 9f 77 0b be
       0.039166793 -0.07819539 0.25721377 -0.1361985
000090 dd 12 70 bf 81 7a 27 3e 6b a2 30 be 15 c8 4d 39
       -0.93778783 0.16355325 -0.17249458 0.0001962486
0000a0 69 81 1f b5 d9 32 08 3f b1 2c b5 3e 66 64 99 3e
       -5.942043e-07 0.5320259 0.3538566 0.2995941
0000b0 56 3d 27 be 05 67 4b be 50 04 28 be 31 84 17 bd
       -0.16331992 -0.19863518 -0.16407895 -0.036991302

bias f4 [4]
000000 66 fa 85 bb 31 bc 1c bf f8 6c 49 3e b2 0a d8 be
       -0.0040886877 -0.6122466 0.19670475 -0.4219566

weight f4 [1, 4]
000000 97 97 36 bf a5 97 30 3f 2b 76 0e bf e3 b4 fa 3e
       -0.7132506 0.6898139 -0.5564906 0.4896613
