pretrained/saved_model_dim64.pt (torch, 395942 bytes, 20 tensors)

weight f4 [8, 64]
000000 be c6 92 3c 76 5e 10 3c 2b f5 1b 3e d8 63 7e 39
       0.017917033 0.008811584 0.15230243 0.00024260522
000010 7a d3 cd 3d 08 97 52 bc 1f 6d bc 3d fe 83 3c 3b
       0.100501016 -0.0128533915 0.09200501 0.0028765197
000020 77 f1 19 3e db cb d1 bc 36 6f b3 3b 0a d3 98 bb
       0.15033518 -0.025609901 0.005475904 -0.0046638297
000030 ac 5e 3d bb 3e fa 21 3e 84 85 a1 3b b9 ee f1 ba
       -0.002889554 0.15818116 0.0049292464 -0.0018457986
000040 ba f2 31 3e 88 7f 3b bd f3 b0 87 3c dc 3f 2b bd
       0.17377749 -0.04577592 0.016563868 -0.041808948
000050 b7 4d 00 3d cd fe ca 3d d3 2e 7a 3c a0 59 52 3d
       0.031324115 0.09911881 0.015269953 0.051355004
000060 62 e2 c9 be 44 58 07 be 0b 1f b1 bb 04 bf 0d 3e
       -0.3943053 -0.13217264 -0.005405312 0.13842398
000070 a6 c4 66 bc 99 f2 0f 3c ba 27 25 3c ac d3 b6 bd
       -0.014084971 0.008785867 0.010080272 -0.08927092
000080 0b bf 7c 3b 09 1a 27 3d 7e 4b 02 be 59 9d be 3c
       0.003856602 0.040796313 -0.1272411 0.023268389
000090 e6 e8 84 bd 82 5b b8 3c 56 8d 27 bb 2a ff de bd
       -0.06489734 0.022504572 -0.002556642 -0.108885124
0000a0 b5 e0 b1 3d 48 e4 14 bb e9 eb 58 3b cd f2 fc 3c
       0.086854376 -0.0022719074 0.0033099598 0.030877495
0000b0 9f 8e 0a 3d 79 be e1 bd 85 cf 49 bd 74 8e 91 be
       0.03382742 -0.11022658 -0.04927017 -0.28428996
0000c0 d8 36 2d bd c2 8d f1 3a f7 30 c2 3d d6 83 c9 3a
       -0.04228863 0.0018429088 0.094819956 0.0015374373
0000d0 76 c9 26 3d ee 36 a8 3a 1c e9 79 bd 82 9f 4c 3d
       0.040719472 0.0012833753 -0.061013326 0.049956806
0000e0 51 ea 08 3a b4 64 20 3d 23 0d 0a bd 10 8d 30 3c
       0.0005222904 0.039158538 -0.033703934 0.010775819
0000f0 78 d6 f7 3a 51 14 8a bd 0c dc 3e bb be f0 04 3c
       0.0018908521 -0.06742156 -0.0029122857 0.008114038
000100 1e 50 1c 3d c2 68 ca bb 43 90 03 3e 2e fb 06 bb
       0.038162343 -0.006177039 0.12848 -0.0020596492
000110 23 77 00 3e a7 50 90 bc 48 bf fe 3d 2f 20 40 3b
       0.12545447 -0.017616583 0.12438828 0.0029316058
000120 1f 4d 89 be b2 9c bc bc 94 78 00 3d 1f 7c 8c bb
       -0.2681665 -0.023023937 0.031364992 -0.0042872573
000130 d5 c6 40 3b f9 a1 95 3e 98 61 1e 3c 39 f1 89 ba
       0.0029415388 0.29225138 0.009666823 -0.001052416
000140 39 cd 21 3e 2d 06 7c bd 49 32 06 be 40 2c 3f bd
       0.15800942 -0.061529327 -0.1310512 -0.04667306
000150 fc 39 fd 3c 78 e4 36 bd db ea 06 3d 50 4a ca 3d
       0.030911438 -0.04465148 0.03293882 0.09877455
000160 98 25 ba be d8 b6 2b be 99 4a 84 bc 42 73 92 3d
       -0.36356807 -0.16768968 -0.016148852 0.0715089
000170 4c dd d4 bc 74 5f ca 3c ac a9 38 3c 57 85 2e be
       -0.025984429 0.024703719 0.011270922 -0.17043053
000180 2f 60 15 3c af 54 95 3d ab fd 40 be 60 f6 3d 3d
       0.00911717 0.07291543 -0.18846767 0.04637754
000190 86 19 5b bd e7 8d dd 3c ec 7d 79 bb ca a8 a8 3c
       -0.053491138 0.027045203 -0.003806944 0.020588297
0001a0 f0 1d e6 3d 3b 27 f4 ba 16 a6 0e 3c 12 c2 bc 3d
       0.11236179 -0.0018627414 0.00870659 0.092167035
0001b0 c6 39 45 3d ac d4 0a be 7d b9 85 bd 57 6f c6 be
       0.0481508 -0.1355769 -0.0652952 -0.3875682
0001c0 3b 4b ad bc eb f2 1d 3d 4f ec 86 bd 7a fd 2e bb
       -0.021154037 0.038561743 -0.06588041 -0.0026701377
0001d0 38 2b 17 3e 6e 03 bc 3b 29 56 52 bd 1f ae 26 3d
       0.1476258 0.0057377135 -0.0513517 0.0406934
0001e0 80 9a ff 3b 64 08 52 bd 3a e8 30 bd 6a db 88 bc
       0.0078004003 -0.051277533 -0.04319022 -0.016706187
0001f0 da 97 6b 3b eb 59 f0 bd ab 0b c1 bc 43 31 55 3d
       0.0035948665 -0.117359005 -0.023565134 0.052048933
000200 2b e5 f7 3c ec 44 64 3d fe 96 fa 3e a2 57 73 3b
       0.030260643 0.05572979 0.48943323 0.003713109
000210 fa 78 89 3e 04 d3 38 bd ab 0c 89 3e 08 78 17 bc
       0.2685011 -0.045123115 0.26767477 -0.009244926
000220 5c e2 e0 3e 06 33 45 3b 07 aa 2c 3b 8c 17 b6 3c
       0.43922698 0.0030090227 0.0026346461 0.022228025
000230 61 d0 ee bb 3b 74 35 3f 1f ec 73 3c fd ee 22 bc
       -0.0072880243 0.7088048 0.014887839 -0.009944675
000240 41 83 14 3f 95 fa 60 be 18 09 9f 3d 87 b4 67 be
       0.5801278 -0.2197059 0.07765406 -0.2262746
000250 12 96 3b 3c 21 4d a7 3d 83 d9 0a 3d 00 13 fb 3d
       0.011449354 0.08169008 0.03389884 0.12259483
000260 76 03 a3 bf 17 1e cd be 6b 70 0d 3d cd 5e 06 3f
       -1.2735431 -0.4006202 0.03453104 0.52488405
000270 b8 46 27 3c dc b1 55 bd 5e b6 2c 3c d2 fa 6b be
       0.010209732 -0.052171573 0.010541527 -0.23044899
000280 bf d0 3c 3c 4d 27 8a 3d 95 dd 9f be 76 68 a8 bc
       0.011524378 0.06745777 -0.3122374 -0.020557623
000290 0f cb 2d be a2 33 68 3c b0 13 b3 bb f8 f8 ab be
       -0.16971992 0.0141724665 -0.0054649934 -0.33588386
0002a0 62 2c 72 3e 98 9e 05 bb a5 a6 3b 3b 40 13 60 3d
       0.23649743 -0.0020388719 0.0028633263 0.05470586
0002b0 72 8b 71 3d 73 b3 b3 be 59 b9 19 be 5e 10 67 bf
       0.058970876 -0.35097846 -0.15012111 -0.9025935
0002c0 52 8c 93 bd dc 7b 17 bd 59 64 b9 3e d3 4b 2e 3c
       -0.07204498 -0.036983356 0.36209372 0.010638195
0002d0 34 b1 94 3d d0 04 ff bb fb ec 33 be 49 33 0e 3e
       0.07260361 -0.007782556 -0.1757087 0.13886751
0002e0 f8 7c 4c bb 1b 0f 58 3d 3e 4e 05 bc 91 b3 1c 3d
       -0.0031202417 0.05274878 -0.00813633 0.038257185
0002f0 5e 4f ab 3b 8f 48 21 be 85 e5 4c 3c 6d 44 08 bd
       0.005227967 -0.15750335 0.012505894 -0.03326838
000300 97 02 92 3d fd eb a5 3c 61 46 23 3e 02 cc a8 39
       0.071294 0.02025413 0.15944816 0.00032195455
000310 1e e9 8e 3e 0b 40 50 bd 9f 3a 9d 3e b7 c6 04 bb
       0.2791223 -0.050842326 0.30708787 -0.0020260045
000320 17 9c 41 bf 30 6f 06 bc b6 b6 5a bd 08 b2 1b bc
       -0.756288 -0.00820522 -0.053396903 -0.009502895
000330 bc b8 c7 ba eb 88 28 3f 9f 63 3d bb f6 55 92 3a
       -0.001523755 0.6583392 -0.002889849 0.0011164534
000340 24 64 86 3e de ae 6c be 8d 25 b9 be 6b b8 09 be
       0.26248276 -0.23113582 -0.3616146 -0.13449256
000350 9b 0a 52 3d ab ad 91 be 7f a3 18 3d 4e f8 48 3e
       0.051279645 -0.2845281 0.037265297 0.1962597
000360 ba d6 3b bf 4e fe c0 be 03 1b 11 bc 0c 6a b9 3d
       -0.7337452 -0.3769402 -0.008856538 0.0905343
000370 a5 ad 6f bc 5e f9 c5 3b 12 56 e3 bb ea 79 e4 be
       -0.014628802 0.00604169 -0.0069377506 -0.44624263
000380 81 b4 cb bb e8 ef fc 3d b7 57 ae be 05 c3 13 3d
       -0.006216586 0.12350446 -0.34051296 0.036074657
000390 f4 ab 2a be 26 f1 21 3d fa f5 1a bb c1 54 d9 3d
       -0.16667157 0.039536618 -0.0023645149 0.10611869
0003a0 9f 68 22 3e e3 19 9a ba d5 ce 12 3c 2a 29 2f 3e
       0.15860222 -0.0011756982 0.008960445 0.17105547
0003b0 41 dc a7 3d 61 33 94 be 86 7f 14 be 09 5e 32 bf
       0.08196307 -0.2894545 -0.14501771 -0.69674736
0003c0 2a 81 ad bc b3 89 11 3c 77 12 02 be 8a fa 3d 3b
       -0.021179754 0.008882928 -0.12702356 0.0028988444
0003d0 e5 07 db 3e 50 6a 6c 3b 55 7d e6 bd 8f f0 85 3d
       0.4277946 0.003607411 -0.11254374 0.065400235
0003e0 88 00 06 3b eb 8a 52 be cc ed fa bc db bc e8 bb
       0.0020447094 -0.20560805 -0.030630969 -0.0071025915
0003f0 63 5a d7 3a f4 8c 2f be 32 65 a3 ba df 79 12 3e
       0.0016430136 -0.17143613 -0.0012466072 0.14304303

weight f4 [64, 8]
000000 af 89 9d ba f4 d9 65 bd 88 b3 d2 3c 6b 5f 89 3d
       -0.0012019182 -0.05611606 0.025720373 0.06707653
000010 8f 5e e9 3b ff dd 19 3d b1 46 7b bb fd 79 80 3b
       0.007121868 0.037565228 -0.0038341696 0.003920792
000020 5d d0 3b bb 15 e6 81 3d 9a ec e7 bd ff a5 d7 bd
       -0.002865813 0.06342713 -0.11324425 -0.10529708
000030 36 49 58 3d b4 b7 a1 3d 92 e6 fc 3c ad b4 e5 bc
       0.052804194 0.07896367 0.030871663 -0.028040254
000040 28 5f c5 3a 04 d5 db 3c de 7d b0 be 0a 26 73 3c
       0.0015058266 0.026834972 -0.3447103 0.014840612
000050 18 fa 2b 3d 30 fa 8c be c7 69 a1 bd ac 84 7b bb
       0.041986555 -0.27534628 -0.078815036 -0.003837864
000060 7c b0 10 bb 5c d9 2e 3c 1e 76 88 bd 12 04 4d 3d
       -0.002207785 0.01067194 -0.06663154 0.05005271
000070 b4 0a 8e bd d4 1c 37 3d 15 31 3f 3c c7 97 07 bc
       -0.06935635 0.044705227 0.011669417 -0.008275933
000080 28 6e 58 3b b7 82 03 3e 99 0c 41 3c 17 49 84 bd
       0.0033024643 0.12842833 0.011782789 -0.06459253
000090 92 74 9d be 6e d1 4c bd f8 99 e4 3c 50 bd 95 3c
       -0.30753 -0.050004415 0.02790545 0.018278748
0000a0 c6 69 04 bb 6a ff 45 bd e8 07 73 3d 1e 1f 28 3c
       -0.0020204647 -0.048339285 0.05933371 0.010261325
0000b0 91 c8 01 3d 32 74 59 3b e7 5c 05 be ad 0c 91 bc
       0.031685416 0.003318083 -0.1302372 -0.01770624
0000c0 e9 fa 37 3c fc cd 96 be 23 73 46 be 6b 24 1d 3e
       0.011229255 -0.2945403 -0.19379859 0.15345924
0000d0 c3 16 0b 3e 65 9e 02 be 8b 22 5b be 8d 40 d6 3c
       0.13582902 -0.12755735 -0.21399896 0.026153827
0000e0 dd 3b c7 ba 8c 99 00 bb 14 a8 34 bb 0e 2d fc 3a
       -0.0015200336 -0.001962277 -0.0027566003 0.0019239502
0000f0 ce 5c 64 3c a2 27 00 3a 50 4e 03 bb 2b a9 05 bc
       0.013938142 0.0004888718 -0.0020035692 -0.008158009
000100 27 f6 44 3b 1c 8f 03 3e bd 15 65 bd c3 8f 0a be
       0.0030053945 0.1284756 -0.055928934 -0.13531403
000110 3f 03 9e bd 50 a5 02 bd e7 25 cb bb 69 08 d5 bd
       -0.07715463 -0.031895936 -0.0061995867 -0.10401995
000120 1b 43 c0 ba aa 75 85 3e f1 cf 10 bf f5 7d 8c 3e
       -0.0014668436 0.26066333 -0.56567293 0.27439848
000130 79 b4 e9 3e 69 c9 ea be f7 09 25 3e 26 4d c6 3b
       0.45645502 -0.4585679 0.16117083 0.0060516773
000140 90 7e 6b 3b d0 aa c3 bd 05 7c 6e be 85 3a 38 3e
       0.0035933591 -0.09554064 -0.23289497 0.17991073
000150 23 f4 14 bc 2a 81 e1 bd e2 96 87 3e 08 05 88 3c
       -0.00909141 -0.11010964 0.26482302 0.016603962
000160 2e ae bd ba 5b e0 d6 bd 36 a5 3f bd d6 12 5c be
       -0.0014471465 -0.10492011 -0.046788417 -0.2149156
000170 d3 5f d0 3e 12 82 22 3e 05 d7 80 be f2 9a b6 bc
       0.40698108 0.1586993 -0.25164047 -0.02229068
000180 68 a6 a7 bb b0 d6 db bb 6e 28 58 bc c6 40 f5 b9
       -0.0051162727 -0.0067089424 -0.013193233 -0.00046778301
000190 01 89 c6 bb a4 ce c4 3b 8e 0d d6 3c d8 28 ab bb
       -0.0060588126 0.006006079 0.02612951 -0.005223375
0001a0 d0 e3 a2 3a fb 96 bc be 78 f9 af 3d 97 3d f0 bc
       0.0012427513 -0.3683394 0.08592504 -0.029326243
0001b0 df c9 96 bd 6b c0 43 3e 11 62 11 3e 34 84 e0 bc
       -0.073627226 0.1911637 0.14197566 -0.02740679
0001c0 4a 9d 78 bb fb 77 b5 bd 02 23 a4 bd 7a c8 b7 3e
       -0.0037935548 -0.08860775 -0.0801449 0.3589514
0001d0 df d2 6b 3e 68 68 69 be ef cb 76 be 07 c8 85 bc
       0.2302966 -0.22793734 -0.24101232 -0.016330732
0001e0 8e 61 01 ba f5 53 a7 bc 66 ca 2b bd e9 ab 4a 3c
       -0.0004935496 -0.020425776 -0.04194107 0.012370088
0001f0 94 72 2c bd 70 84 97 3c ad 7c a9 3d cb af 95 b9
       -0.042101458 0.018495768 0.08275733 -0.0002855047
000200 4f 01 f7 bd 84 cc d8 bd 38 91 2f 3d 38 2a f4 3d
       -0.120607965 -0.10585883 0.0428631 0.11922115
000210 dc e2 13 3d 7e fb cd 3d 3c 5b d7 3d 96 91 01 bd
       0.03610502 0.10057734 0.105154485 -0.031632982
000220 df 14 01 bc 20 44 7f be 91 ab db 3e 04 91 21 3f
       -0.007878511 -0.24928331 0.42904332 0.631119
000230 93 d4 73 3e 02 09 99 be 70 e2 1c bf 61 52 92 bc
       0.2381156 -0.29889685 -0.61283016 -0.017861547
000240 2e aa 2e 3a f5 68 81 bd 98 bd a2 3e e6 9a a3 be
       0.0006662932 -0.06318847 0.31785274 -0.31954116
000250 d1 f2 98 be 0f ad 7e 3e 7b eb a7 3e 99 41 08 bd
       -0.29872754 0.24870704 0.32796845 -0.033265684
000260 f4 54 c6 ba 47 04 96 be dc b4 1c 3f e9 9e c7 be
       -0.0015131519 -0.29300138 0.6121347 -0.38988426
000270 29 cc bc be 6f c1 04 3f 4c 5c 26 3d 76 36 80 3b
       -0.36874512 0.51857656 0.040615365 0.0039127422
000280 42 4c 25 bb 54 9e 89 3e a6 7e 81 3e 8c f3 52 3e
       -0.0025222455 0.26878607 0.25291938 0.20600718
000290 9d e9 11 bf 17 28 d1 be 39 fb 1a 3e be 08 c8 3c
       -0.5699709 -0.408509 0.15134896 0.024418231
0002a0 df 13 cc ba 97 e5 b9 3d 04 6b e7 bc 51 b0 24 be
       -0.0015569887 0.09076994 -0.028249271 -0.16082884
0002b0 b6 b6 e8 3d 2f fe 14 be a1 df 85 be f4 20 a6 3a
       0.11362974 -0.14550088 -0.26147178 0.0012674616
0002c0 c5 85 03 bb 74 4c 3e be 61 7f 86 3d 5b be 18 3d
       -0.0020068747 -0.18583852 0.06567264 0.037290912
0002d0 d0 1d 4d 3e 43 33 02 3e a8 12 47 be c3 1d 83 bc
       0.20030904 0.12714867 -0.1944071 -0.016005402
0002e0 0f 4d af bc e7 50 2f 3e c8 11 40 3e 6a 04 12 be
       -0.02139905 0.17120706 0.18756783 -0.14259496
0002f0 f8 80 8d be 9c fa ce bd 59 7a 1c be 2b 74 c6 3c
       -0.27637458 -0.10106394 -0.15281047 0.024225315
000300 3e 58 68 bb ae 46 88 bd 84 ae f8 3d 0e d9 8c 3d
       -0.0035452987 -0.06654106 0.12142661 0.068773374
000310 cf 59 5e 3e 73 cd b8 3e a9 68 1b 3d 91 cf 15 3d
       0.21713947 0.36094245 0.03794161 0.036574904
000320 76 de f1 ba f8 77 7e 3e ec 45 ae be c7 55 84 bd
       -0.0018453139 0.24850452 -0.3403772 -0.06461673
000330 e2 d3 5f 3e 6f 11 29 bd 16 26 0f 3e 2a 0b 9c 3c
       0.2185817 -0.04127639 0.13979372 0.019048292
000340 25 a6 3e 3a 67 ce e7 bd 4a 72 09 be 94 35 82 be
       0.0007272682 -0.11318665 -0.13422504 -0.25431502
000350 2c 93 aa 3e c4 14 c9 3e 29 e6 81 be 18 28 c5 bc
       0.33315408 0.39273655 -0.2537091 -0.02406697
000360 55 e7 3e ba f6 38 e3 bd 07 11 54 3e bf ac b7 bd
       -0.0007282396 -0.11094849 0.2070962 -0.089684956
000370 db 94 97 bd 8f b2 c6 3d 12 17 6f 3e 00 ad 24 bd
       -0.07401439 0.09702026 0.23348644 -0.04020405
000380 ea 90 10 3b 57 b3 96 3d 33 01 5e be 51 ad c1 be
       0.0022059032 0.07358425 -0.21680145 -0.37827542
000390 a0 96 4b 3e f0 d1 a5 3e 42 74 bf 3d 8b 10 a9 bc
       0.19881678 0.32386732 0.09348346 -0.020637771
0003a0 f5 76 71 bb 97 26 a6 3d 3a 5f 79 3e b8 a9 d9 3e
       -0.0036844586 0.08112829 0.24352732 0.42512298
0003b0 b4 c1 cf be 09 ef f2 be 57 c7 39 3e ce dc c2 3c
       -0.4057747 -0.47447994 0.18142448 0.023786929
0003c0 58 8c b5 bb 5d 11 84 bd bb 3a 7a 3e c8 ba c6 3d
       -0.005540412 -0.06448624 0.24436466 0.097035944
0003d0 75 a8 7d 3e 1c bd c1 bd 82 db dd be e9 c0 2b bc
       0.24771293 -0.09459898 -0.43331534 -0.010483005
0003e0 12 b9 0f bc 94 4d ad be 89 7d c3 3e 41 36 77 3e
       -0.008772152 -0.3384825 0.38181713 0.2414179
0003f0 88 4e a6 3d 79 68 48 3e 6c 99 9f bd ef 83 06 bd
       0.081204474 0.19571103 -0.07792935 -0.032840665

bias f4 [64]
000000 59 22 73 bd 9f 54 2b 3e 7b b1 e4 be c4 5b 8a 3c
       -0.05935893 0.16731499 -0.44666657 0.01688946
000010 f6 1e 89 be 71 c9 31 3c 81 dd df be 6d 83 7a 3b
       -0.26781434 0.01085125 -0.43723682 0.0038225309
000020 92 70 84 be 51 28 3e 3d c4 fd 74 3c ed 0f 91 3c
       -0.25867134 0.046425167 0.014953081 0.01770779
000030 fd fa b4 3b 33 7c 5a bd 55 d8 53 3d 95 14 b4 3a
       0.005523084 -0.0533411 0.051719982 0.0013739044
000040 df f6 ed 3d 39 83 29 3d 2e 94 c0 3d 20 33 b9 3d
       0.116193525 0.04138491 0.09403263 0.090429544
000050 0f 50 a0 bc 2f f1 88 be 66 8f a9 bd d3 80 86 be
       -0.019569425 -0.26746508 -0.08279304 -0.2627016
000060 c7 88 0d 3f f5 15 28 3d 10 5c 8c 3b 28 97 79 3e
       0.5528683 0.041036565 0.0042834356 0.24374068
000070 2e c9 c7 3b fc a0 24 3d bc 32 80 bd 0d 58 b8 3e
       0.0060969805 0.04019259 -0.06259677 0.36004677
000080 67 b1 b5 bc f3 cf 0d be 0b eb d3 bd 4a 2e 65 bb
       -0.022179319 -0.13848858 -0.10347565 -0.0034970217
000090 ec 09 4c 3d 08 14 bf bd 57 d4 a8 bb fc da 41 3e
       0.04981415 -0.093299925 -0.005152266 0.18931192
0000a0 a5 0d 3d be 75 37 cd ba ee fa 0a 3c 6a 3b 30 be
       -0.18462236 -0.0015656786 0.008482678 -0.17210165
0000b0 17 94 62 be a3 ca 9f 3d b9 b6 f9 3d fe b2 06 bd
       -0.22126804 0.07802322 0.12193055 -0.032885544
0000c0 98 77 d1 3e 73 f6 9b bb 6e 70 9e be 5b dc 46 bc
       0.40911555 -0.0047596036 -0.30945152 -0.012137498
0000d0 8b 99 9b be 0a 69 c0 3c fc 28 18 3e 14 92 30 bd
       -0.3039058 0.023487587 0.14859384 -0.04310806
0000e0 3b 8d 8a bb 3c c0 1d 3e 2c 24 41 3d 4f c4 28 3d
       -0.0042282618 0.15405363 0.047153637 0.04120284
0000f0 bd d8 8f 3b 6f aa 6c 3e 20 ec b2 3d 06 16 31 be
       0.004389851 0.2311189 0.087364435 -0.17293558

weight f4 [64, 2]
000000 ce fd 3b bc 0d 56 79 3a b1 c4 71 bc da 57 84 ba
       -0.011474086 0.0009511419 -0.014756368 -0.0010096983
000010 2c 48 1f bc 0f ac 01 b9 b7 27 8b bb b1 4a 89 ba
       -0.009721797 -0.00012366496 -0.0042466777 -0.001047453
000020 36 db ef 3b 38 d1 14 3b 29 83 95 3b 39 3c 9a 3a
       0.007319833 0.0022707712 0.0045627546 0.0011767215
000030 dc b5 b0 bc 93 bb d7 bc a6 7c 80 bc c2 7e ea ba
       -0.021571092 -0.02633456 -0.015684437 -0.001789056
000040 39 cf 1a bb 8b 55 dc b9 fe af fb 3b f9 0f 82 3b
       -0.002362205 -0.00042025404 0.007680892 0.0039691892
000050 79 f7 6d bb f0 e0 86 ba 27 4f 2f 3c fd bc 69 ba
       -0.0036310835 -0.0010290425 0.010700024 -0.0008916406
000060 6b cf 11 bd 35 22 10 3c 2e a8 76 bc ed d3 86 bb
       -0.0355982 0.008797218 -0.015054746 -0.004114619
000070 1b af 80 3c 95 cc db 3a d7 17 a0 3b e9 b1 c5 be
       0.015708497 0.0016769344 0.0048856544 -0.38612297
000080 6e f9 19 bb 8c a8 db b7 7c 9b 73 3c 97 c7 7a 3a
       -0.002349462 -2.618532e-05 0.014868613 0.00095664844
000090 26 17 2b bc 34 20 6e b9 22 01 76 bc df 56 33 bb
       -0.010442531 -0.00022709445 -0.0150149185 -0.0027365012
0000a0 16 94 66 bc 71 f7 9b bb d6 9d 39 bb a8 ae c5 be
       -0.014073392 -0.004759722 -0.0028322837 -0.38609815
0000b0 1b ca a6 3d a6 55 27 be 08 65 c3 3d 34 7c 4a bd
       0.08144017 -0.16341266 0.095407546 -0.049434856
0000c0 2c af 6e bc 75 2b b7 ba 95 6d a9 bb f3 cf c3 ba
       -0.014568131 -0.0013974743 -0.005170534 -0.0014939293
0000d0 a4 af 8b bb c7 a7 68 bb 0d 81 de bb c0 1d c5 ba
       -0.0042628814 -0.0035500394 -0.0067902864 -0.0015038773
0000e0 45 50 32 bc 11 9a 6a 3a 7f 06 4d 3a 5a 2d 37 3a
       -0.010883396 0.0008949349 0.00078210974 0.0006987654
0000f0 f2 2a 4d bb 87 2b 59 bb ba 14 97 3b 72 ff a7 3a
       -0.0031306115 -0.0033137517 0.004610625 0.0012817218
000100 3b f2 a7 3d b0 25 c1 bc 7e 56 fa 3b 79 cc 15 3b
       0.08200499 -0.023577541 0.007639705 0.002285747
000110 bb b6 89 bb 42 05 55 ba d4 13 ba bb 1e 63 8c bb
       -0.0042026914 -0.00081260887 -0.005678633 -0.0042842766
000120 4f 37 03 bc 82 cb 2c bb 29 d5 83 bb 28 f9 93 ba
       -0.008008792 -0.0026366417 -0.0040232134 -0.0011289464
000130 ac c4 e5 3c 3b 19 bb bd 45 00 28 bc 61 79 a4 39
       0.028047882 -0.09135672 -0.0102539705 0.00031370952
000140 89 e8 4d 3a 45 ed ad b9 d3 36 79 3b f7 d2 44 3a
       0.000785478 -0.0003317391 0.0038027063 0.0007508243
000150 6c b9 37 bc 05 34 68 3a 8e f5 1e bc ce 5f 9d bb
       -0.011213642 0.0008857849 -0.0097020995 -0.0048026806
000160 d8 76 2e 3d f4 55 8c be a7 58 64 3c 4c d2 32 3a
       0.042593807 -0.27409327 0.013937152 0.0006821498
000170 a2 9b 38 bd bf e5 98 3e b8 73 9c bb 9b c5 80 ba
       -0.045070298 0.29862782 -0.004774537 -0.0009824516
000180 31 0b 23 bc c5 4b 24 bb f0 de 0f bd fc af 33 3e
       -0.009951399 -0.0025069576 -0.03512472 0.17547601
000190 bf 33 5e 3c 9f f4 30 bb ed a9 ee bb c0 41 7d 3e
       0.013562142 -0.0027001274 -0.0072834403 0.24732113
0001a0 09 07 3d 3c b8 14 5a ba 5d b9 32 bc 8e fd 18 bb
       0.011537322 -0.00083191274 -0.010908452 -0.002334449
0001b0 98 25 9b bb 7a 1e c1 ba cf 6d 2e bc e4 1b 02 bf
       -0.004734706 -0.0014733814 -0.010646298 -0.5082381
0001c0 0d 1f 95 3b ae e9 8f 3a c0 df f2 3b 2d 60 11 3b
       0.0045508207 0.0010979676 0.007411927 0.002218257
0001d0 27 d7 03 3c 09 d9 b8 be f1 f6 96 3c 46 fa e7 3e
       0.008046902 -0.36103085 0.018428298 0.4530813
0001e0 bd 60 88 3b 6c 6f 50 3a 54 e2 43 3c 23 af 83 3a
       0.0041619227 0.00079511735 0.011955816 0.0010046702
0001f0 ea 86 db 3b 8b 12 85 3b f4 11 86 bc 33 49 bb be
       0.0066994326 0.0040610484 -0.016365983 -0.36579284

bias f4 [64]
000000 3b a8 9c bb fe 4d d4 bb 65 53 b0 bb 43 2a 86 bb
       -0.004780797 -0.006479024 -0.005381035 -0.0040943935
000010 14 a1 d6 3b d0 20 8d 3b 56 12 f6 bc 3d 85 e6 bb
       0.0065499637 0.00430689 -0.03003804 -0.007034926
000020 5f dc 5c bb bb 0b 0a 3c a7 ce 77 bb 4c a3 9b 3b
       -0.0033700687 0.008425648 -0.0037812383 0.004749691
000030 f1 0c 22 be 3e 0f 0e bc 49 ab e5 3b 51 08 f1 3d
       -0.15825249 -0.008670626 0.007008944 0.11769164
000040 e7 af 57 bb 57 40 d2 3b 58 08 b8 bb e7 7a 04 bc
       -0.0032911242 0.0064163613 -0.005616229 -0.008085943
000050 25 0c 1b bc 9c da d7 3d 6d fe c4 3e b0 0d c8 3e
       -0.009463345 0.10539743 0.3847536 0.39072943
000060 35 0f ee bb a8 26 b6 ba 7d 6e f3 bb ca ea a9 bb
       -0.0072649964 -0.0013897019 -0.0074289427 -0.0051854597
000070 20 d6 9c bb cc 61 b1 ba f5 ff e3 bb 00 5e 8b 3b
       -0.004786268 -0.0013533174 -0.0069580027 0.004253149
000080 82 e9 9e 3e 37 dc ca 3b 45 2f 8c bb 8c bd 06 bc
       0.31037527 0.0061908024 -0.004278096 -0.008223902
000090 7e ab b6 bb 11 e8 8b bb ee 91 41 3e e9 59 aa bb
       -0.0055746427 -0.004269608 0.18903324 -0.0051987064
0000a0 07 9b 16 3b 5b f0 84 3b fb 91 97 bb 72 4e 20 bc
       0.0022980587 0.004056973 -0.0046255565 -0.009784328
0000b0 d6 1b 88 3e da 4d c4 3b f7 e5 78 be cc 73 93 bb
       0.26583737 0.005990726 -0.24306475 -0.004499888
0000c0 07 8e f1 bb 48 4f 35 be 38 10 84 3d f1 03 29 be
       -0.0073716673 -0.17706025 0.06448406 -0.1650541
0000d0 5f f0 a9 3b f8 4b ff bb 68 3b 92 bb 9b f3 17 3e
       0.005186125 -0.0077910386 -0.004462648 0.14839022
0000e0 f3 2b 91 3b f3 33 cd 3b 56 f0 25 3e 86 db d5 bd
       0.004430288 0.0062622963 0.16204962 -0.104422614
0000f0 b3 99 89 3b ed a2 dc 3b 56 b7 08 3c a6 44 96 3d
       0.0041992306 0.0067332895 0.008344492 0.073373124

weight f4 [64, 256]
000000 c0 96 63 3d 2e bd 74 3d ec ec 1e 3b fb 47 b2 bc
       0.05556369 0.05975073 0.0024250103 -0.021762839
000010 32 7d 45 3d b4 d8 bd bc b5 62 cf 3d d7 08 8b 3c
       0.0482151 -0.023174621 0.10126249 0.016971989
000020 10 8a 18 bd fe 7f 01 3c 43 ee 97 3c 64 3d 73 3d
       -0.03724104 0.007904051 0.01854623 0.05938472
000030 9c 40 69 bc a6 c2 ba bc 33 96 22 3c 5c 1a 0f bc
       -0.0142365955 -0.022797894 0.009923506 -0.008734312
000040 73 2e 11 3d 86 f0 84 bd 20 94 aa bd d9 a9 92 bc
       0.035444688 -0.06491189 -0.08329034 -0.017903255
000050 d2 59 7c bd e7 c5 ed 3b fa 7a bb 3d be cb 4d bd
       -0.061609097 0.007256258 0.09154315 -0.05024313
000060 e8 cc 11 bd a9 fe 87 bd ff 63 85 3d e2 3a 7a bc
       -0.035595804 -0.066403694 0.06513213 -0.015272828
000070 f6 09 42 3d cb 53 4a bd 0a bd d2 bc 12 1e da bd
       0.04737278 -0.049396317 -0.025724906 -0.10650267
000080 d0 06 16 3d 64 02 b8 3c 1c 22 b1 bd 9d 18 b8 3c
       0.03662759 0.022462077 -0.08649084 0.022472674
000090 3d 30 36 3c f3 d1 4b 3c 56 c2 1a bb fa 2c 93 bc
       0.011119899 0.0124401925 -0.0023614368 -0.017965782
0000a0 9c 19 97 3d 87 06 dc ba 29 e3 77 3c 1b 50 bd 3d
       0.073779315 -0.0016786613 0.015129843 0.092437945
0000b0 7f 34 88 3c ae 8a 92 bd 19 66 36 bd c7 22 c7 bc
       0.016626595 -0.07155357 -0.04453096 -0.024308575
0000c0 da db 4d bc 2b c7 8b 3b b8 55 30 3d 63 a8 de 3b
       -0.012564624 0.004265686 0.043050498 0.0067949756
0000d0 38 5f 1a bb a6 86 19 bd 84 22 b8 bc 71 7c 57 3c
       -0.002355529 -0.037481926 -0.022477396 0.013152228
0000e0 c7 55 05 3d 5b d4 0c 3d 05 4a 4c 3d 4f e4 ab 3b
       0.032552507 0.034382205 0.049875278 0.0052457224
0000f0 dc 9d 6f ba af fb 92 bd f9 09 7d bc 75 e6 d7 3d
       -0.00091406493 -0.07176911 -0.015444272 0.10542003
000100 b5 e3 1c bd 06 8e 87 bc fe 12 bb bc a9 9f bc bc
       -0.038303096 -0.016547214 -0.022836205 -0.02302535
000110 27 96 c7 3d 48 1a 40 3d 40 0d 17 be 60 af 2a 3c
       0.09745436 0.046900064 -0.14751148 0.010417789
000120 58 c3 00 3e db d3 40 be d4 ee 3b be e8 73 80 bd
       0.12574518 -0.18830816 -0.18352824 -0.06272107
000130 3e 97 9f bc 75 bd 06 be eb c3 e9 bd d7 74 35 bd
       -0.019481298 -0.1315821 -0.114143215 -0.04430088
000140 8a 23 af bc 5b db 21 bd 2b 91 dd 3d ec f0 07 3e
       -0.021379251 -0.039515834 0.10818704 0.13275498
000150 5d c7 91 3e a7 11 aa 3d c7 0a 65 bd f1 ff 73 3e
       0.28472415 0.08304148 -0.05591848 0.23828103
000160 fd cd f2 bd 26 a0 fb bc 6d d0 ac bd 8a 99 0a bd
       -0.118556954 -0.030716013 -0.084381916 -0.033837833
000170 0f a3 3b bd 56 09 20 3e ac f0 b2 3c 17 5d a5 bd
       -0.0458098 0.15628561 0.021843277 -0.08074396
000180 72 81 1e bd bf f8 83 3d 6c 92 07 3d 92 d8 24 3e
       -0.038697667 0.06443929 0.033098623 0.1609824
000190 fe 80 60 be 49 0d 0a 3e 95 9d 07 3c a4 85 1c 3d
       -0.21924207 0.1348163 0.008277317 0.038213387
0001a0 93 fe c7 bd a1 93 2f 3c c2 9c 44 bd e0 da 2a be
       -0.09765353 0.01071635 -0.04800106 -0.16685057
0001b0 96 40 bb 3d 5c 1d 5b 3d 88 50 06 3e f5 b0 88 bd
       0.09143178 0.053494796 0.13116658 -0.06674377
0001c0 a6 f3 04 bd a8 4c 64 3b 59 89 f0 bd 0c a4 88 3c
       -0.032458924 0.003483573 -0.11744947 0.016679786
0001d0 42 5b 64 3e 50 ac 65 bd 14 82 ea 3c fd 33 32 3e
       0.22300437 -0.056072533 0.02862648 0.17402644
0001e0 47 fa 95 bd 32 d8 e1 3c ef 83 48 be 16 2e b9 3d
       -0.07323127 0.02756891 -0.19581579 0.09041993
0001f0 a1 7a 6c bc 87 23 0d 3e d6 6a 9c bc c1 b5 2b bd
       -0.014433534 0.13783084 -0.019093912 -0.04192138
000200 7a 58 d1 bb f0 f6 16 be d3 9d 9b 3d b1 45 91 3c
       -0.006388721 -0.14742637 0.07598462 0.017733427
000210 77 14 dc 3d d5 88 5c bd f2 59 11 3d b6 2c b3 bb
       0.10746091 -0.05384143 0.03548617 -0.0054679764
000220 f0 eb df 3d 49 93 d0 3d 68 cb 28 3e 92 f4 a7 be
       0.109336734 0.101843424 0.16483843 -0.3280378
000230 b2 fc 0c 3c 48 a8 05 be a7 ba a6 3a 19 a1 d4 3c
       0.008605169 -0.13052475 0.0012720422 0.025955724
000240 d8 7b 4a bb f3 2d 66 3c 04 5e d6 3c bf 80 c3 bd
       -0.003089657 0.014049041 0.026167877 -0.09546041
000250 e5 47 e3 3e 06 b3 2d 3d 2a b4 2a be af 6c 04 3e
       0.4439079 0.04240706 -0.1667029 0.12932085
000260 07 76 93 bd 0b 2c bf 3c b2 e5 cc be c7 ee aa bd
       -0.07200246 0.023336431 -0.40018994 -0.083463244
000270 01 e0 84 be 03 9e eb 3e cd ff fc bd 42 21 17 be
       -0.2595215 0.4601899 -0.123534776 -0.1475878
000280 2a ac 81 be 76 57 33 3d 2f d2 6d be fc b8 17 3f
       -0.25326663 0.04378458 -0.2322471 0.5926664
000290 6d 1f 6f be da 1d 9e bd b4 0f ff bb 9c 4f 10 bd
       -0.23351832 -0.077205375 -0.0077838544 -0.03523217
0002a0 06 f7 8a 3d 5d 9d e5 bb c3 42 61 3c 75 e6 00 3d
       0.06785397 -0.0070072846 0.013748827 0.03146978
0002b0 11 bb cf 3c b3 a3 69 3d fb ba 1c be 1e b5 4b bd
       0.025357755 0.05704088 -0.15305702 -0.049733274
0002c0 43 5d 9a be 72 af 17 3e d1 ee d7 bd 16 3b e0 ba
       -0.30149278 0.14813021 -0.105435975 -0.0017107453
0002d0 cf a2 05 bd 23 ce 9b 3d 46 cd be bc 95 14 f0 bb
       -0.03262597 0.07607677 -0.023291241 -0.0073266723
0002e0 48 8a ac 3c 0e a8 24 3e f9 c2 29 be 97 38 bc bd
       0.021062031 0.16079733 -0.16578282 -0.09190481
0002f0 e7 eb fd 3b b0 ed 55 3d 34 3a 88 3e 70 b9 1d 3d
       0.007749069 0.05222863 0.26606905 0.038506925
000300 71 37 97 bc ee 02 1b bd 6e d7 1d bb df f5 83 3d
       -0.018459054 -0.03784459 -0.0024084705 0.064433806
000310 09 46 0e 3e 5d 67 0e bd 05 53 e0 bd 99 d9 f4 3b
       0.13893904 -0.034766544 -0.10953335 0.0074722287
000320 80 97 6d 3d 72 62 6b bb 0b 49 81 3d e5 7b 9f be
       0.05800581 -0.0035916832 0.0631276 -0.31149212
000330 ac 43 6c 3c 56 6f 0d be 3b c1 a0 bc 2d dd bd 3c
       0.014420431 -0.13812003 -0.01962339 0.023176754
000340 b3 f9 a7 bd dd b1 b8 bc 5c 84 22 3d 38 fe 0b bd
       -0.08201923 -0.02254575 0.03967701 -0.03417799
000350 8f 13 f5 3e 02 cf 68 bd 08 dc 31 be b8 66 d9 3d
       0.47866485 -0.056838043 -0.17369092 0.10615295
000360 13 e4 a5 bd 1e c2 c8 bc d6 a6 a8 be 07 1c 87 bd
       -0.08100142 -0.024506625 -0.32939786 -0.06597143
000370 5a 1c 61 be 4c 66 d2 3e da b5 03 be f8 e2 fc bd
       -0.21983472 0.4109367 -0.1286234 -0.12347978
000380 68 53 63 be 58 ff 5b 3d b4 37 3a be b8 a7 04 3f
       -0.22199786 0.05371031 -0.18185312 0.5181842
000390 7d b1 9f be 57 ce 26 bc 64 2b 3a ba 9e a5 55 3d
       -0.311901 -0.010181031 -0.00071018026 0.052159898
0003a0 27 5e f7 bc 4b 35 36 bb 97 5b cc 3c fd a3 b6 bd
       -0.030196263 -0.0027802761 0.024946017 -0.08917997
0003b0 f0 08 01 bd ab 33 22 3d f8 37 4a bd e3 78 4a 3d
       -0.031502664 0.039600056 -0.049369782 0.049431693
0003c0 21 9b 0b be 85 84 a9 3d 9d 32 0e be 45 6d 21 bc
       -0.13633396 0.08277229 -0.13886495 -0.009852712
0003d0 0a da a6 3c 07 ce 94 3d cd 8f 08 3d bc e4 a7 3d
       0.020367641 0.07265859 0.033340264 0.081979245
0003e0 22 ae 1e bc 84 5e 51 3e a0 0a 67 be c1 81 2b 3b
       -0.009685071 0.20446211 -0.22562647 0.0026169869
0003f0 07 01 81 3b fe db 0a 3e 9f 02 7b 3e 7e eb 15 3d
       0.00393689 0.13560483 0.24512719 0.036601536

bias f4 [64]
000000 3b 8c 29 be 41 d9 10 3d 4c 79 e3 bd d5 0c 53 bc
       -0.165574 0.03536344 -0.1110712 -0.012881477
000010 61 79 8b bd e8 a9 1a be e7 bc f6 bc 4d 67 11 bc
       -0.068102606 -0.15103877 -0.030119373 -0.0088747265
000020 83 62 3e bd d3 41 97 bb 91 7e 7c bc c8 84 a8 bd
       -0.046480667 -0.004616001 -0.015411035 -0.08228451
000030 3f 2e b8 bc eb 10 52 3e 59 61 a7 bd 20 48 ed bd
       -0.02248299 0.20514266 -0.081728645 -0.115860224
000040 2e fd d6 3c dd 89 9b bd fd a6 58 bd b4 b4 76 bc
       0.026243772 -0.07594655 -0.052893627 -0.015057731
000050 3c 96 46 be 52 d4 0b bd ad 2d 73 be ab 39 8b bd
       -0.19393247 -0.03413803 -0.23747893 -0.06798109
000060 85 2e 90 bd 2c b3 85 bd 65 87 4e 3e 83 5e 65 3d
       -0.07040123 -0.06528315 0.20168836 0.055998337
000070 d8 71 93 bd 67 13 7d bb 61 71 a0 bd 5d 01 97 be
       -0.07199448 -0.00386163 -0.07834125 -0.29493228
000080 ca 17 18 3d 2b d1 3b bd b0 f1 fc bc 27 e6 2c bd
       0.037132062 -0.045853775 -0.030876964 -0.042211678
000090 7c 36 8c bc 94 2a 2c ba 59 ea 29 bc 11 b0 41 bc
       -0.017115824 -0.0006567624 -0.010370814 -0.011821763
0000a0 4b 99 a3 bc ee 42 25 be 05 19 43 bc 9a b9 5c bc
       -0.019970557 -0.16138813 -0.011907821 -0.013471985
0000b0 54 03 f4 bc ba d2 e8 bc 09 a6 35 bc 8b 82 0b bd
       -0.029786743 -0.028420795 -0.011086949 -0.034060042
0000c0 03 74 8e bd 5e 00 84 3e e7 a9 ba bc e3 41 3c bd
       -0.06955721 0.2578153 -0.022786094 -0.045961272
0000d0 92 e5 e9 3d 34 02 52 bd 6e 13 9a bb af 2b 0c be
       0.1142074 -0.051271632 -0.004702023 -0.13688539
0000e0 8c a1 3d bd dd 60 2e bb 86 d0 a9 bd 07 86 b5 bc
       -0.04629664 -0.0026608028 -0.08291726 -0.022158636
0000f0 e6 87 5a bd a0 bb e4 bc 69 47 8b bd 7a 38 99 bc
       -0.05335226 -0.027921498 -0.0680073 -0.018703688

weight f4 [64, 256]
000000 ea c9 c5 36 e1 92 45 36 3a 1e 30 33 c3 7d 31 35
       5.8945634e-06 2.9440782e-06 4.1005684e-08 6.6120646e-07
000010 09 d2 93 b7 38 4b 5b 34 92 c5 0b 32 c8 7d 39 b2
       -1.762157e-05 2.0423329e-07 8.135787e-09 -1.0797017e-08
000020 8a a5 22 b2 6d 9c dc 31 06 54 d1 b1 c7 7b 1e b3
       -9.46728e-09 6.4206263e-09 -6.092253e-09 -3.6899817e-08
000030 22 ab a7 32 fa fc 9d 36 72 21 f4 b3 96 0c b7 34
       1.9519181e-08 4.708415e-06 -1.1368219e-07 3.4095564e-07
000040 b7 d7 40 b6 0b 82 85 32 2e 13 4b b4 45 3a b9 b2
       -2.8735792e-06 1.5542374e-08 -1.8912826e-07 -2.1563332e-08
000050 f1 98 c6 34 bf ee 31 33 98 69 40 b6 d4 c5 b4 32
       3.6991653e-07 4.1428162e-08 -2.8671693e-06 2.104472e-08
000060 ea 83 83 31 1c cc dd b2 40 5b 91 36 00 6f bb 35
       3.8275987e-09 -2.5820604e-08 4.3319596e-06 1.3964891e-06
000070 42 a3 02 31 cc a8 a0 af 20 60 bf b3 17 da e2 35
       1.9010291e-09 -2.9223768e-10 -8.9116156e-08 1.6901785e-06
000080 50 b1 8b 35 aa 97 a5 35 3b 84 87 32 2f f3 8c b3
       1.0407912e-06 1.2337598e-06 1.57762e-08 -6.563493e-08
000090 ea 6f c0 b1 6e 1a b8 ae 40 ce b0 30 5a 41 f4 b0
       -5.6006586e-09 -8.372046e-11 1.2864305e-09 -1.7771911e-09
0000a0 e0 e9 bd b1 4c 07 96 34 80 19 14 2f a4 1a bd 30
       -5.5272125e-09 2.7944986e-07 1.3469581e-10 1.3759132e-09
0000b0 aa 30 ad 35 44 52 72 b2 ca 80 99 b1 ec da be 32
       1.2903668e-06 -1.4104959e-08 -4.4675277e-09 2.2218465e-08
0000c0 33 68 71 34 e2 7f f6 34 88 36 a1 30 5f 58 6a b2
       2.2482782e-07 4.5914118e-07 1.172979e-09 -1.3640686e-08
0000d0 94 99 49 b3 e3 f3 64 36 dd 2d f2 b0 1d 6f 9f 35
       -4.6938638e-08 3.4116608e-06 -1.7620853e-09 1.1878761e-06
0000e0 b6 19 54 b1 ae 4b 35 b1 26 14 d6 31 bc 76 8a 32
       -3.0864675e-09 -2.6381985e-09 6.2305103e-09 1.6119309e-08
0000f0 78 6e 15 32 3e 88 a6 31 63 c4 aa b2 38 9a fe b1
       8.698059e-09 4.846725e-09 -1.9879911e-08 -7.4099056e-09
000100 f0 20 64 36 55 8f 3c 36 2e eb 7a b3 6a f3 a4 35
       3.399382e-06 2.8097613e-06 -5.8421556e-08 1.2289795e-06
000110 6a df 87 b7 80 71 e5 33 6c b9 00 32 49 cc ff b1
       -1.619729e-05 1.0684289e-07 7.492741e-09 -7.4447013e-09
000120 20 d7 d0 31 a6 97 e3 31 3f 40 fc b1 86 5f 0e b3
       6.0780536e-09 6.62381e-09 -7.341469e-09 -3.314883e-08
000130 65 da 18 32 a2 4b e3 35 fd 9b fd b3 e5 46 83 35
       8.897222e-09 1.693483e-06 -1.1809605e-07 9.780894e-07
000140 af 90 06 b7 be ed 79 32 59 b2 05 b4 4e 55 62 b2
       -8.020709e-06 1.4547764e-08 -1.2451473e-07 -1.3174327e-08
000150 72 c8 d6 34 5d 77 58 33 6b e1 3c b6 6f de 12 33
       4.000645e-07 5.039998e-08 -2.8145394e-06 3.4195576e-08
000160 40 07 4e 2f 7c bf a4 b2 4f 45 51 b7 15 ff b3 35
       1.8738167e-10 -1.917919e-08 -1.2473508e-05 1.3410778e-06
000170 48 01 22 31 90 a9 72 af f3 87 3a b3 a5 44 95 b7
       2.357483e-09 -2.2070012e-10 -4.3430145e-08 -1.779415e-05
000180 0f 7e d1 33 f5 7a 47 b4 f8 b3 48 b1 54 66 4a b3
       9.755251e-08 -1.8578051e-07 -2.920613e-09 -4.7124857e-08
000190 33 01 a8 b1 94 55 aa ae 56 73 b1 31 d5 07 a4 b1
       -4.88958e-09 -7.745907e-11 5.16449e-09 -4.7739186e-09
0001a0 d4 a0 af b1 c2 55 28 b4 e6 6d d4 30 6a f2 19 31
       -5.1114544e-09 -1.5677418e-07 1.5456265e-09 2.2402227e-09
0001b0 0b 89 9d 34 65 f1 72 b2 ac da 89 b1 4a 7c 1f 32
       2.934324e-07 -1.4141141e-08 -4.012085e-09 9.283278e-09
0001c0 ec 24 31 35 10 ea 86 35 96 93 76 32 9b 71 66 b2
       6.5991367e-07 1.0051899e-06 1.4352642e-08 -1.3413593e-08
0001d0 72 f7 6e 34 6e 62 bd 36 6d 6f dd b0 d6 c9 92 35
       2.2255497e-07 5.6440977e-06 -1.6111535e-09 1.093659e-06
0001e0 c5 ee 35 b1 00 80 a9 aa 33 96 34 32 74 31 40 b2
       -2.6474691e-09 -3.0109248e-13 1.051153e-08 -1.1187115e-08
0001f0 55 d2 ee 31 bb 91 bd 32 e0 f7 38 32 00 15 b6 b0
       6.9506236e-09 2.2068766e-08 1.076657e-08 -1.3248211e-09
000200 81 53 ab 36 97 09 49 36 6a 37 a8 b2 f5 c8 94 35
       5.1059183e-06 2.9956916e-06 -1.9582973e-08 1.1085345e-06
000210 45 38 92 b7 da 33 44 33 d5 35 0c 32 6c 54 04 b2
       -1.7430759e-05 4.5681965e-08 8.1613125e-09 -7.7026066e-09
000220 a0 f9 d4 31 aa 90 e1 31 04 f3 d6 b1 82 c2 09 b3
       6.198391e-09 6.5648083e-09 -6.2558474e-09 -3.2074702e-08
000230 16 2f a2 32 6c eb 99 36 27 d0 02 b4 39 1e 22 35
       1.8880694e-08 4.587162e-06 -1.2182919e-07 6.039368e-07
000240 31 db 15 b6 b2 03 71 32 08 75 15 b4 4e 0e 73 b2
       -2.2330316e-06 1.40288865e-08 -1.3919282e-07 -1.4147714e-08
000250 27 60 d2 34 27 4c 47 33 8d 9b e7 35 e2 cd cc 32
       3.9185508e-07 4.640256e-08 1.7256112e-06 2.384235e-08
000260 88 59 6b 30 ac 5f b4 b2 a4 23 fd b5 0f 01 b9 35
       8.5619734e-10 -2.0998264e-08 -1.8860342e-06 1.3783882e-06
000270 c5 d2 e4 30 d4 66 9f af b2 39 47 b3 32 4c 64 b7
       1.6649088e-09 -2.8994995e-10 -4.638577e-08 -1.36076e-05
000280 f6 6a 9b 35 0e 68 06 36 fe 6a 2c b2 7e 96 4b b3
       1.157953e-06 2.0028124e-06 -1.0036045e-08 -4.7401493e-08
000290 e5 ce 97 b1 00 0e c1 ae ab ba 7a 31 14 ea d1 b1
       -4.4181996e-09 -8.779111e-11 3.6485897e-09 -6.109312e-09
0002a0 58 86 b2 b1 6f 90 86 b3 4a bc e1 30 78 7a d0 31
       -5.195755e-09 -6.2661336e-08 1.642442e-09 6.06752e-09
0002b0 56 8d b0 34 0d 00 6a b2 46 7b 95 b1 56 5c 15 32
       3.288539e-07 -1.3620604e-08 -4.3504853e-09 8.693936e-09
0002c0 6e 64 28 35 2e 0e 88 35 40 3c 8f 32 e5 6e 77 b2
       6.273102e-07 1.0136916e-06 1.667479e-08 -1.4402507e-08
0002d0 e8 9c 81 b3 3a c5 ab 36 7e 7d d9 b0 aa 41 98 35
       -6.035572e-08 5.1191573e-06 -1.5824495e-09 1.1343993e-06
0002e0 38 4a e5 b0 e2 5e 04 b1 0b 10 f7 31 f9 1b 46 b2
       -1.6683037e-09 -1.9262463e-09 7.19047e-09 -1.1531477e-08
0002f0 ce 3c 28 32 d7 19 d8 32 2e 14 7c 32 ec b7 0d b1
       9.792712e-09 2.515746e-08 1.4672919e-08 -2.0622748e-09
000300 8a 19 72 36 ff 93 3f 36 33 1d 21 b3 29 81 a0 35
       3.6075676e-06 2.8547363e-06 -3.751229e-08 1.195852e-06
000310 d8 00 82 b7 da b5 33 b2 a8 0f 09 32 a8 5e 0d b2
       -1.54976e-05 -1.046052e-08 7.978009e-09 -8.2288025e-09
000320 b4 a2 63 32 b2 37 d6 31 2e c4 bf b1 2c c7 05 b3
       1.3250133e-08 6.2345515e-09 -5.5811347e-09 -3.114762e-08
000330 62 c5 55 32 ea 90 31 36 c5 03 e1 b3 6f 97 64 35
       1.2443111e-08 2.6459406e-06 -1.04780646e-07 8.5156984e-07
000340 7a d8 fc b6 1e 0d 75 32 92 92 0c b4 88 2f 7d b2
       -7.5353864e-06 1.4263859e-08 -1.3091838e-07 -1.4737346e-08
000350 80 a4 da 34 2f f2 54 33 44 11 8c b5 dd 1b e1 32
       4.0725354e-07 4.958036e-08 -1.0435838e-06 2.6206118e-08
000360 78 e9 a3 30 85 60 b1 b2 bb a3 30 b7 d1 a6 b2 35
       1.1926167e-09 -2.0649404e-08 -1.0528539e-05 1.3310583e-06
000370 0b 64 1b 31 91 c8 88 af ec 47 4d b3 7d 8a 0f b8
       2.2612336e-09 -2.4880767e-10 -4.7795695e-08 -3.4222834e-05
000380 8a 41 72 b2 38 22 aa 31 42 f5 7b b2 08 a1 4f b3
       -1.4101156e-08 4.9515414e-09 -1.4665888e-08 -4.83424e-08
000390 0e 78 25 b1 7a 12 9d ae 3a 87 c0 31 ae 63 c2 b1
       -2.4078903e-09 -7.1428155e-11 5.603309e-09 -5.6574754e-09
0003a0 e6 6a a8 b1 4a 9c 3d b4 08 7c 41 31 52 2b 10 32
       -4.9015965e-09 -1.7658854e-07 2.81557e-09 8.391753e-09
0003b0 10 93 63 34 08 6c 71 b2 78 36 60 b1 d4 70 ee 31
       2.1194523e-07 -1.405261e-08 -3.2627252e-09 6.9395387e-09
0003c0 c0 82 0d 35 95 b5 93 35 f9 95 a6 32 a1 64 7f b2
       5.271686e-07 1.1005201e-06 1.9393143e-08 -1.4865834e-08
0003d0 eb f1 bb b4 aa 2f bb 36 4f 4c d3 b0 5d 8c 92 35
       -3.5007483e-07 5.578583e-06 -1.5373959e-09 1.0918699e-06
0003e0 2a 5b e8 b0 43 f8 18 b1 e4 24 d7 31 92 76 32 b2
       -1.6906132e-09 -2.2260032e-09 6.2615175e-09 -1.0387923e-08
0003f0 67 49 19 32 18 41 cb 32 3d 3d 01 33 06 03 ee b0
       8.922462e-09 2.3661912e-08 3.009085e-08 -1.7317638e-09

bias f4 [64]
000000 30 df 39 b8 fe 2a 31 3e 5f 32 ab ba 2b 7e eb bb
       -4.4315297e-05 0.17301556 -0.0013061276 -0.0071866713
000010 88 de 2d 3e bc f9 99 b9 dc 3d 25 3e 5d 98 0c be
       0.1697942 -0.000293685 0.16136879 -0.13729997
000020 38 94 66 bb b9 e7 82 3b fb 06 1f bd e3 6e ea 3d
       -0.003518356 0.0039949086 -0.038825016 0.11446931
000030 fe 7d 82 bb ae 9d 1b bd a3 91 02 ba fb 5e a0 3d
       -0.0039823046 -0.037992172 -0.0004980808 0.07830616
000040 b2 b4 05 bd 7f 53 ca b5 01 fb c2 bc 53 b8 dc bc
       -0.032643028 -1.5074473e-06 -0.023801329 -0.026943361
000050 d7 94 72 bb 31 0b 4b be 00 d7 46 ba b5 8c 9f ba
       -0.0037014985 -0.19828488 -0.0007585138 -0.0012172671
000060 99 db cc bd f3 e9 1d b7 0f d4 ed bc 17 31 dd bc
       -0.100028224 -9.4124e-06 -0.029031781 -0.027000947
000070 3d 62 03 3e 27 cd 87 bc a9 48 af bb f6 c3 c7 bb
       0.12830444 -0.016577316 -0.005349238 -0.0060963584
000080 48 f6 6b bd aa 98 9f bc 12 d8 ea bd aa 1d 8a bc
       -0.05760792 -0.019481976 -0.114669934 -0.016859848
000090 c2 16 c7 bc 74 cc 1b b7 fe 6b fc bb 1c 74 ce 3c
       -0.024302844 -9.286323e-06 -0.0077033034 0.02520185
0000a0 18 cd e4 3c ad 6e 52 bc 74 e5 2d bb 28 a8 d7 3e
       0.027929828 -0.01284377 -0.002653447 0.4212048
0000b0 f9 0f d9 ba 3d 9d 5b 3e 5f 91 31 be bb ba dd 3e
       -0.0016560546 0.214467 -0.17340611 0.43306527
0000c0 bc ab 45 b9 a5 4e 0b bb b4 41 a3 ba f1 1b 20 bb
       -0.0001885136 -0.0021256593 -0.0012455494 -0.0024430717
0000d0 42 14 81 b9 02 a1 1d bd 18 e8 57 3e 6f 44 49 3e
       -0.0002461989 -0.038483627 0.2108463 0.19655012
0000e0 49 81 ab bd af e1 37 bc e0 2f 4b ba e3 98 87 ba
       -0.083742686 -0.011223241 -0.00077509694 -0.0010345246
0000f0 f1 a3 b6 bb 50 31 2a 3e e2 dc 79 bd d5 82 4c bb
       -0.0055737426 0.16620374 -0.061001666 -0.0031205912

weight f4 [128, 256]
000000 9e bc b1 31 ea 23 84 b7 f0 dd 81 34 ab 5e ad b5
       5.1728213e-09 -1.575235e-05 2.4189603e-07 -1.2917056e-06
000010 f0 24 a9 b8 f2 f4 36 b3 96 2a ca b8 66 10 00 ba
       -8.065428e-05 -4.2597954e-08 -9.640043e-05 -0.0004885256
000020 6b eb 96 34 f0 b2 60 38 3f e8 d7 38 ea 10 9d 38
       2.8110966e-07 5.357241e-05 0.00010295258 7.489494e-05
000030 9e f0 38 b5 65 00 b7 b7 b4 51 4a 33 f0 c4 88 38
       -6.8895486e-07 -2.1815484e-05 4.71061e-08 6.521668e-05
000040 32 fa b9 b7 82 02 5d ae 8e 79 9f b7 ec d6 94 35
       -2.2170225e-05 -5.025181e-11 -1.901088e-05 1.108941e-06
000050 7d 07 a0 36 74 3b 8c b7 18 8b 0f 38 02 17 c0 b4
       4.7692433e-06 -1.6716986e-05 3.4223398e-05 -3.5779527e-07
000060 7c 2b 9c b5 03 7e 85 31 ce 4b 62 36 e5 cb 9e 38
       -1.1635561e-06 3.8851353e-09 3.3720748e-06 7.5720054e-05
000070 56 ac 76 b8 8c 82 74 b7 a2 1b f0 b5 a8 78 75 35
       -5.881147e-05 -1.4573929e-05 -1.7889436e-06 9.144519e-07
000080 b3 2e a8 b7 98 bf 58 b7 74 6d d7 b8 0c b4 84 36
       -2.0048907e-05 -1.2919212e-05 -0.00010272386 3.9548668e-06
000090 d4 c7 32 38 f9 5e 97 b2 d9 b3 ab 36 8e 7e 38 b8
       4.262461e-05 -1.7621902e-08 5.117134e-06 -4.398688e-05
0000a0 5c 37 ab b5 28 91 0b 36 dd f2 8c b6 94 8f 6e 37
       -1.2756605e-06 2.0797106e-06 -4.200598e-06 1.4219335e-05
0000b0 44 bc b6 b4 84 e3 df b9 d1 07 8a b8 95 05 38 b8
       -3.4037123e-07 -0.00042703387 -6.581809e-05 -4.3874217e-05
0000c0 9f 51 94 34 0d 6d aa b4 78 e6 bd 33 7b 9b 04 b5
       2.7626535e-07 -3.1744312e-07 8.84292e-08 -4.9400086e-07
0000d0 d4 02 06 b5 55 52 b5 b7 c4 32 4e b8 5a dd 0d b9
       -4.9923005e-07 -2.161522e-05 -4.9161506e-05 -0.00013529268
0000e0 e7 47 b2 b8 d5 05 48 b7 88 02 03 b5 57 8b f9 b4
       -8.501094e-05 -1.1922287e-05 -4.8804986e-07 -4.6481247e-07
0000f0 f7 3d 3f b6 a9 7c 2a b8 4c 12 dd b8 37 25 20 34
       -2.8497286e-06 -4.0647257e-05 -0.00010541509 1.49147e-07
000100 b3 c6 32 32 e5 7a 3e b8 a6 ff 99 34 c9 c1 b5 b5
       1.0406143e-08 -4.5413984e-05 2.868448e-07 -1.354195e-06
000110 26 83 73 b8 e9 26 7c 33 8a a2 d0 b8 ce 12 3e b8
       -5.8057856e-05 5.870871e-08 -9.948488e-05 -4.5317043e-05
000120 18 70 be 33 ad 1a 66 38 f1 5d 01 39 cb 31 a9 38
       8.867954e-08 5.4861117e-05 0.00012337395 8.067823e-05
000130 44 e8 38 b5 49 ca f4 b7 21 9d 67 33 c5 64 76 38
       -6.888333e-07 -2.9181263e-05 5.3926787e-08 5.874482e-05
000140 15 bb b6 b7 6c f2 f2 af 89 34 84 b7 50 13 1a 35
       -2.1783208e-05 -4.4191795e-10 -1.576009e-05 5.7397574e-07
000150 bc 5f 2f 36 76 b7 7e 37 d0 f0 3f 37 2e 56 d9 b4
       2.6132757e-06 1.5182295e-05 1.1440556e-05 -4.0482104e-07
000160 8e fb 51 37 00 f7 4b 31 11 89 50 36 f5 fc c9 38
       1.251594e-05 2.9680791e-09 3.1074198e-06 9.631544e-05
000170 3a 3c 59 b8 ae 26 3d b7 72 5d 62 36 0b 7b 65 35
       -5.1792922e-05 -1.1274284e-05 3.3731017e-06 8.54882e-07
000180 e6 87 d6 b6 88 92 ae b7 e3 af 2c b9 9a b4 86 36
       -6.3935177e-06 -2.081065e-05 -0.00016468721 4.014536e-06
000190 d1 16 26 38 9f b3 22 b2 aa 61 b6 36 c8 96 14 37
       3.9598734e-05 -9.470482e-09 5.4353923e-06 8.856594e-06
0001a0 88 38 51 b4 b4 30 12 36 ff dc ca b6 24 37 e7 b7
       -1.9485208e-07 2.1784044e-06 -6.0457965e-06 -2.7563023e-05
0001b0 e3 61 db b4 41 cc b5 b9 ff 50 96 b8 d7 78 66 b8
       -4.086315e-07 -0.0003467519 -7.167644e-05 -5.4948814e-05
0001c0 89 9e af 34 0a 53 55 b4 83 31 e5 33 b4 11 f6 b4
       3.271164e-07 -1.986738e-07 1.06726496e-07 -4.583395e-07
0001d0 9a 2b de b4 ce 76 8d b7 0e de f2 b7 de 27 db b8
       -4.1382447e-07 -1.6863833e-05 -2.895205e-05 -0.000104501596
0001e0 ad b0 36 ba 86 2c 22 b7 71 c8 d6 b4 ae bb 0c b5
       -0.0006969076 -9.666319e-06 -4.0006447e-07 -5.2427174e-07
0001f0 07 84 db b5 2e b7 d0 b7 0a 83 f9 b8 50 ce 06 34
       -1.6355197e-06 -2.4880832e-05 -0.00011897653 1.2554779e-07
000200 f0 39 20 32 08 2d bd b7 a5 39 8d 34 64 0e b2 b5
       9.326399e-09 -2.2551525e-05 2.6305239e-07 -1.3266222e-06
000210 34 f4 ad b8 ea b6 81 b2 e3 39 cb b8 6b 42 9a b9
       -8.294769e-05 -1.5100756e-08 -9.6905766e-05 -0.00029422654
000220 21 5b 67 34 bd ca 63 38 03 08 ec 38 28 c8 9e 38
       2.1546704e-07 5.4309832e-05 0.00011254849 7.571309e-05
000230 aa 7a 39 b5 2a 81 c9 b7 48 61 54 33 d2 16 85 38
       -6.909637e-07 -2.4021214e-05 4.9448573e-08 6.346185e-05
000240 8b aa c1 b7 bc 12 14 af 55 a9 95 b7 1f 95 99 35
       -2.3086808e-05 -1.3467177e-10 -1.7841036e-05 1.1442788e-06
000250 4b 10 88 36 4f f6 7a b6 87 12 e2 37 cd a0 bd b4
       4.0550126e-06 -3.7396273e-06 2.6949927e-05 -3.532099e-07
000260 19 27 3f 37 3a 32 7c 31 54 30 5d 36 25 14 a9 38
       1.139359e-05 3.6699377e-09 3.2959697e-06 8.0623e-05
000270 5c 2c 7b b8 8c 06 5f b7 99 b4 a0 b5 62 ba 72 35
       -5.9884376e-05 -1.329336e-05 -1.197349e-06 9.042325e-07
000280 0a 0d a8 b7 8e fd 1c b7 13 5d 24 b9 a4 02 7e 36
       -2.0033232e-05 -9.35736e-06 -0.00015674932 3.7850486e-06
000290 70 2d 32 38 24 c2 a2 b2 4d 52 b0 36 35 12 55 b8
       4.2480824e-05 -1.8947567e-08 5.25479e-06 -5.0800114e-05
0002a0 1b ab b8 b5 d5 b8 0f 36 64 c7 9b b6 10 2d 17 37
       -1.3758867e-06 2.1416247e-06 -4.642572e-06 9.010793e-06
0002b0 b7 cd be b4 4a 78 e1 b9 fc c7 8c b8 7a a9 34 b8
       -3.5539935e-07 -0.00043004967 -6.71297e-05 -4.307318e-05
0002c0 8a 18 9a 34 e4 0c 94 b4 f6 30 d3 33 97 7b 02 b5
       2.870259e-07 -2.7576527e-07 9.834359e-08 -4.860862e-07
0002d0 fe f3 fb b4 94 e6 a4 b7 ab 13 61 b8 39 80 0a b9
       -4.692992e-07 -1.9657695e-05 -5.3662498e-05 -0.00013208472
0002e0 e4 55 00 b9 ff b5 42 b7 0d 97 fa b4 f9 36 fb b4
       -0.00012239028 -1.1605675e-05 -4.6676033e-07 -4.679239e-07
0002f0 c9 a8 24 b5 f1 f9 31 b8 4e 12 e6 b8 b7 88 21 34
       -6.1340376e-07 -4.2432865e-05 -0.00010970664 1.504403e-07
000300 d4 9e 3c 32 7a 30 29 b8 00 66 7d 34 a8 45 bb b5
       1.0979154e-08 -4.0337887e-05 2.3599569e-07 -1.3952858e-06
000310 8a 68 5d b8 4b 13 d2 33 8b e7 cb b8 9a f9 ad b8
       -5.2787866e-05 9.7823964e-08 -9.7229226e-05 -8.295775e-05
000320 ce 29 a9 33 01 92 69 38 96 69 fc 38 c0 24 a6 38
       7.87728e-08 5.5687506e-05 0.00012035963 7.922342e-05
000330 fe 0f 39 b5 51 f2 e7 b7 b5 96 69 33 c3 55 83 38
       -6.894114e-07 -2.7650183e-05 5.4386607e-08 6.262541e-05
000340 f4 2e be b7 64 67 48 b0 db b5 89 b7 7d ee 4d 35
       -2.267163e-05 -7.2906503e-10 -1.6416356e-05 7.67155e-07
000350 fc 6f 6c 36 ee 0a 1d 37 29 0f 88 37 97 0e cb b4
       3.5231924e-06 9.360474e-06 1.6219523e-05 -3.7822312e-07
000360 1d 8c 12 37 fe 84 57 31 a4 8d 53 36 20 84 bf 38
       8.734901e-06 3.1362215e-09 3.1523896e-06 9.1322e-05
000370 54 bb 5b b8 c8 14 47 b7 8a ce d8 35 1b 7c 67 35
       -5.238813e-05 -1.1866163e-05 1.6153365e-06 8.6234803e-07
000380 a4 3a ec b6 c9 43 a8 b7 c8 08 1f b9 e2 06 83 36
       -7.0401748e-06 -2.0058726e-05 -0.00015166693 3.9049055e-06
000390 06 6d 2a 38 24 a1 2b b2 ac 9f b3 36 28 cb ae b5
       4.0632694e-05 -9.990149e-09 5.353204e-06 -1.3023136e-06
0003a0 9e 54 09 b5 4f 61 0e 36 b6 9b bd b6 f7 27 ec b7
       -5.115961e-07 2.121629e-06 -5.650766e-06 -2.8152002e-05
0003b0 96 08 d2 b4 cf 0f c1 b9 c4 de 91 b8 2b c2 5f b8
       -3.9121795e-07 -0.00036823607 -6.955632e-05 -5.3348176e-05
0003c0 8c 5d ac 34 ae 80 70 b4 d4 7e dc 33 c4 9c fa b4
       3.210556e-07 -2.2398555e-07 1.0267618e-07 -4.668019e-07
0003d0 3b fa e9 b4 8d 7b 90 b7 cf 5e fb b7 17 a1 de b8
       -4.35817e-07 -1.722367e-05 -2.996568e-05 -0.0001061579
0003e0 bb 3f f0 b9 21 bb 2e b7 20 d7 e0 b4 80 93 01 b5
       -0.0004582385 -1.04147775e-05 -4.1879775e-07 -4.8270886e-07
0003f0 8b 0c 0a b4 1b 5c e4 b7 91 5b f5 b8 d3 a9 03 34
       -1.2856815e-07 -2.7222608e-05 -0.00011699566 1.2262107e-07
