pretrained/saved_model_dim16.pt (torch, 37356 bytes, 20 tensors)

weight f4 [8, 16]
0.5054647 -0.28673226 -0.06906046 -0.07040233 -0.38170806 -0.23460022 -0.18489102 -0.011332693
-0.38878903 0.008543277 0.16839595 0.34778228 -0.17688641 -0.0017286857 -0.053861476 -0.52584195
0.23955245 -0.117438264 -0.036179114 -0.03259187 -0.11960896 -0.1113564 -0.03516302 0.013430709
-0.090672344 -0.06009089 -0.010657734 0.03543141 -0.04214694 -0.009241015 -0.0137072215 -0.26251325
1.0547892 -0.52357334 -0.11481391 -0.19593959 -0.7046724 -0.4896019 -0.18928452 -0.079230316
-0.56841356 -0.19733971 0.17806019 0.4619713 -0.2696577 0.028606629 -0.08469797 -1.1686518
1.1560671 -0.5703853 -0.051038828 -0.3181583 -0.1759896 -0.5701992 0.2886308 -0.014932161
-0.3971832 -0.7554009 -0.17209494 -0.7484961 -0.26662257 -0.1427373 0.21353474 -1.166494
1.4925439 -0.6800147 -0.26126108 -0.26007357 -0.60281837 -0.6985749 0.063563354 -0.058896437
-0.6575678 -0.81562704 0.00040539584 0.036889628 -0.17551845 -0.069648966 0.26394248 -1.4952831
1.6433326 -0.7807451 -0.23319428 -0.27476782 -0.38757733 -0.79631394 0.32415435 -0.036992606
-0.59628767 -1.062522 -0.20080973 -0.7119656 -0.28829044 -0.0709194 0.3401545 -1.6422249
-0.05447027 -0.20254691 0.06866072 0.2513808 -0.17918254 -0.0407819 -1.2937005 0.08582774
-0.6724881 -0.06391939 0.2894856 0.017288389 -0.8015191 -0.05187858 0.9251704 0.12794895
-0.78594136 0.3940504 -0.7276459 0.34395355 -1.8317837 -0.074173145 0.2616105 0.0868579
-0.026136424 0.5253599 0.10732761 1.4025308 0.9004831 -0.17615762 -0.75138056 -0.024863003
00000000: 2266 013f 92ce 92be 926f 8dbd 192f 90bd
00000010: 3d6f c3be 0a3b 70be 1254 3dbe c2ac 39bc
00000020: 5b0f c7be 1af9 0b3c fd6f 2c3e 8510 b23e
00000030: b621 35be 1195 e2ba da9d 5cbd 949d 06bf
00000040: 3d4d 753e 7983 f0bd 8d30 14bd 0d7f 05bd
00000050: 8bf5 f4bd d30e e4bd 1907 10bd 7a0c 5c3c
00000060: 6cb2 b9bd dd21 76bd c79d 2ebc 8720 113d
00000070: 45a2 2cbd a067 17bc 4194 60bc 2368 86be
00000080: 5503 873f e708 06bf 8e23 ebbd 63a4 48be
00000090: 6965 34bf 1aad fabe cdd3 41be 8143 a2bd
000000a0: 8d83 11bf 6c13 4abe 6955 363e 8187 ec3e
000000b0: 9310 8abe 7358 ea3c 2176 adbd 6296 95bf
000000c0: 02fa 933f c504 12bf 170e 51bd a5e5 a2be
000000d0: 9e36 34be 93f8 11bf 6bc7 933e 06a6 74bc
000000e0: 995b cbbe f461 41bf a839 30be 719d 3fbf
000000f0: c182 88be ba29 12be daa8 5a3e ad4f 95bf
00000100: ae0b bf3f 7215 2ebf 03c4 85be 5d28 85be
00000110: 4e52 1abf ced5 32bf 812d 823d 643d 71bd
00000120: 5d56 28bf efcc 50bf 4f8b d439 9419 173d
00000130: 1cbb 33be 1ea4 8ebd 7823 873e 7065 bfbf
00000140: b958 d23f e9de 47bf 7bca 6ebe 5eae 8cbe
00000150: 8970 c6be 3bdb 4bbf 8ff7 a53e 8f85 17bd
00000160: 4fa6 18bf b900 88bf 11a1 4dbe 6143 36bf
00000170: ce9a 93be 313e 91bd bb28 ae3e 6d34 d2bf
00000180: 381c 5fbd 7568 4fbe fe9d 8c3d fcb4 803e
00000190: a17b 37be ec0a 27bd fa97 a5bf 74c6 af3d
000001a0: 2e28 2cbf 2be8 82bd 7537 943e 61a0 8d3c
000001b0: 5b30 4dbf a27e 54bd f8d7 6c3f 0d05 033e
000001c0: 7433 49bf f9c0 c93e 0047 3abf ae1a b03e
000001d0: e377 eabf 17e8 97bd d0f1 853e 8ee2 b13d
000001e0: 0e1c d6bc fd7d 063f 94ce db3d 2186 b33f
000001f0: 0f86 663f aa62 34be 7a5a 40bf 7fad cbbc

weight f4 [16, 8]
0.14308059 -0.18747559 -0.048726115 -0.11265085 -0.112048894 -0.09163707 0.1725435 0.009740959
0.18758607 0.06348605 -0.23948196 -0.03281723 0.062375534 -0.007937053 -0.035056874 -0.0012855139
-0.021599483 0.30515146 -0.046333484 0.07387633 0.08902033 -0.04945168 0.33384797 -0.00043538306
-0.009316776 0.2610457 -0.424085 0.7438983 0.43218255 -0.8351421 -0.10494688 -0.01009486
0.029844012 -0.06616371 0.32757267 0.24633203 0.027041493 -0.11169873 0.32551244 0.043460175
0.01679082 0.26189852 0.2287149 -0.43547216 -0.10348928 0.11716032 0.3326076 -1.9019744e-05
0.00892378 0.5177287 -0.53969455 0.23334901 0.3162742 -0.62765574 -0.77441436 0.032133512
0.007841281 -0.08611274 0.4705938 0.6936414 -0.40509844 0.18530679 -1.0564014 -0.00010421763
-0.011003114 -0.1601859 0.12618251 0.37537923 0.18507972 0.3062141 0.3789538 -0.0123732835
-0.0024490887 -0.023146832 0.08470938 0.15940465 -0.06475739 -0.00018652715 -0.06645029 -0.031110259
0.0020924467 0.24110158 -0.862917 0.3396208 0.43786767 -0.6930336 -0.11041176 -0.004262665
-0.011650534 0.137838 0.14494762 0.037784755 0.05755559 -0.06915559 -0.19355427 -0.1060117
0.010445605 -0.13016091 0.36938328 -0.022244008 -0.34635705 0.092021674 -0.11505883 -0.007500677
-0.025966516 0.7281164 -0.54097897 -0.0765936 0.49640808 -0.2807017 0.21969156 -0.004533298
0.021716306 -0.015328118 -0.078714766 0.028049283 -0.22487055 -0.17368235 -0.26272246 0.017831896
0.13017993 -0.026229149 0.022300199 -0.22179624 -0.013137034 -0.11808357 -0.2169854 0.014983072
00000000: b883 123e 9af9 3fbe 0995 47bd 7db5 e6bd
00000010: e479 e5bd 37ac bbbd 3eaf 303e 8b98 1f3c
00000020: 9016 403e f904 823d c23a 75be 5c6b 06bd
00000030: 7d7d 7f3d 6a0a 02bc cc97 0fbd b07e a8ba
00000040: 66f1 b0bc d03c 9c3e 2ec8 3dbd 794c 973d
00000050: 4a50 b63d d88d 4abd 1fee aa3e 2044 e4b9
00000060: 64a5 18bc c8a7 853e ab21 d9be 1e70 3e3f
00000070: 0847 dd3e dfcb 55bf 64ee d6bd e964 25bc
00000080: 6e7b f43c d780 87bd 9bb7 a73e 773e 7c3e
00000090: 1f86 dd3c 4ec2 e4bd 91a9 a63e 4c03 323d
000000a0: e78c 893c 9017 863e 3d34 6a3e 35f6 debe
000000b0: 30f2 d3bd c0f1 ef3d 8b4b aa3e 978c 9fb7
000000c0: 0c35 123c de89 043f 6c29 0abf 0bf3 6e3e
000000d0: b1ee a13e 0cae 20bf 0540 46bf 6e9e 033d
000000e0: b778 003c e05b b0bd acf1 f03e 7c92 313f
000000f0: 1069 cfbe 10c1 3d3e 2938 87bf 6a8f dab8
00000100: 6846 34bc c607 24be fd35 013e b531 c03e
00000110: 8a85 3d3e 18c8 9c3e 3c06 c23e 50b9 4abc
00000120: e480 20bb 6d9e bdbc 1d7c ad3d f93a 233e
00000130: 869f 84bd 8096 43b9 1717 88bd f1da febc
00000140: 6e21 093b 55e3 763e 21e8 5cbf c7e2 ad3e
00000150: 3130 e03e a66a 31bf 901f e2bd d3ad 8bbb
00000160: e2e1 3ebc 6825 0d3e 266d 143e 30c4 1a3d
00000170: 69bf 6b3d 72a1 8dbd 1733 46be aa1c d9bd
00000180: 0b24 2b3c e748 05be ce1f bd3e 1139 b6bc
00000190: b655 b1be dc75 bc3d f7a3 ebbd 3dc8 f5bb
000001a0: bbb7 d4bc d665 3a3f 997d 0abf 1bdd 9cbd
000001b0: 3329 fe3e 22b8 8fbe d3f6 603e 0f8c 94bb
000001c0: 65e6 b13c c922 7bbc 3535 a1bd 9cc7 e53c
000001d0: 7744 66be c9d9 31be 8f83 86be 3214 923c
000001e0: e34d 053e 83de d6bc e8ae b63c 8e1e 63be
000001f0: b73c 57bc ccd5 f1bd 6c31 5ebe 8f7b 753c

bias f4 [16]
-0.033258166 -0.13441588 0.36494264 0.10448607 0.38484886 0.34385765 -0.13538212 -0.094544604
0.5816302 0.26188874 -0.21122274 -0.26269156 0.12991431 0.21456452 -0.20215714 -0.30541047
00000000: b739 08bd 51a4 09be c3d9 ba3e cbfc d53d
00000010: e90a c53e 1c0e b03e 9ca1 0abe 9aa0 c1bd
00000020: b7e5 143f 4816 863e c64a 58be 827f 86be
00000030: 4208 053e cdb6 5b3e 4802 4fbe c35e 9cbe

weight f4 [16, 2]
0.0029860626 -0.006525957 -0.004309156 0.005763637 -0.0039801984 0.32471907 0.008208357 -0.0017461741
-0.050741967 0.42598975 -0.011698267 0.007714559 0.010857696 -0.10250498 -0.020867605 -0.5227685
-0.006443448 -0.0036872674 0.010560523 -0.010290146 0.016752904 0.57563585 -0.009795941 -0.0075493446
0.012909991 -0.012087702 -0.008179733 -0.4548853 0.0040539284 0.30705422 0.01614285 -0.011908238
00000000: d1b1 433b b2d7 d5bb d233 8dbb e4dc bc3b
00000010: 536c 82bb 9441 a63e 587c 063c e1df e4ba
00000020: cfd6 4fbd 541b da3e 17aa 3fbc 69ca fc3b
00000030: 7ae4 313c 22ee d1bd 8af2 aabc 28d4 05bf
00000040: 8f23 d3bb 15a6 71bb 0b06 2d3c 0098 28bc
00000050: 633d 893c df5c 133f 287f 20bc 7e60 f7bb
00000060: 6d84 533c 7f0b 46bc 4904 06bc bae6 e8be
00000070: d1d6 843b 3636 9d3e 033e 843c c51a 43bc

bias f4 [16]
-0.0012180235 1.635202e-05 -0.026390158 -0.0025813968 0.026999848 0.0022176919 0.04374309 0.119857885
-0.0011427709 -0.0020146002 -0.14895622 0.021805257 -0.002058399 0.12201948 -0.049514465 -0.002401707
00000000: 16a6 9fba b22b 8937 2c30 d8bc a72c 29bb
00000010: c92e dd3c b256 113b f42b 333d 0d78 f53d
00000020: 07c9 95ba 6207 04bb fb87 18be f0a0 b23c
00000030: 34e6 06bb 59e5 f93d aecf 4abd f565 1dbb

weight f4 [16, 64]
-0.21544562 -0.09931849 0.0010989264 0.110708304 -0.10957788 0.0028631461 -0.09511234 -0.17081611
-0.035057668 0.17847781 0.13233103 0.39336118 0.06450319 0.06494797 -0.17918217 0.13681275
0.06898386 0.16473383 -0.051852725 -0.3426599 -0.26244873 0.091265336 -0.1612668 -0.47399637
-0.09270839 -0.16910584 -0.0060392367 0.08362077 -0.12929492 0.009258194 0.025790796 0.07557002
-0.05962821 0.06095912 0.08743331 -0.2779978 -0.16444552 0.19350956 0.030528717 -0.56323683
-0.07866161 -0.032301508 0.0031306942 0.25292158 -0.032751974 0.19880278 -0.24221377 0.040116843
-0.06945625 0.10696376 0.113691665 -0.24617001 -0.238047 0.14483164 -0.09279797 -0.6144896
0.087229006 -0.030814987 0.06904514 0.08300679 -0.1258873 0.16285235 -0.18853089 0.07173972
0.12686478 0.15934542 -0.16403612 0.102041714 -0.048896603 -0.030161224 0.14701511 0.037725255
-0.2004567 -0.08255321 0.0032550388 -0.014284383 0.15682322 -0.12768464 0.026143458 0.1319659
-0.2799798 -0.30773613 0.18359655 -0.057132073 0.5335245 -0.066370316 0.28977266 0.080718644
0.12598808 -0.2359773 -0.25355643 -0.9793863 -0.18850331 -0.1924598 0.23006858 0.061183333
-0.03892942 0.076749474 -0.052840542 0.031525943 0.14031662 0.049056005 0.09642064 -0.1541169
0.19175202 -0.0043299585 -0.09937417 -0.3422181 0.14322875 0.045832835 -0.14872634 0.035371736
-0.06384497 0.00083051826 -0.10043379 -0.04515157 0.32530463 -0.004157983 0.40712115 0.017307244
0.030865839 -0.09494212 -0.06838672 -0.6471002 0.06718495 -0.1889619 0.06288759 0.16107973
0.11937975 -0.44958544 -0.01800751 -0.15642755 0.26158816 -0.35526 0.48703378 -0.11262159
-0.0408808 -0.49054864 -0.2278962 -1.1605542 -0.31015024 -0.16846484 0.30654803 -0.2563234
-0.1375924 -0.042109154 -0.018283574 0.013240381 0.08679082 -0.06424796 0.18793653 -0.025547747
0.035530042 -0.10056136 0.0751869 -0.27749982 0.012987873 0.015964607 -0.058986902 0.048139293
0.10451139 0.095837 0.04089367 -0.037140917 0.39934337 0.25962093 0.23759021 -0.011312857
0.24756667 0.17546497 -0.13109994 -0.5171311 0.09003695 -0.043309167 -0.06222608 0.15167695
-0.12414752 -0.13276038 -0.04443658 -0.10380335 0.15822433 -0.0649675 0.26584193 -0.015629712
-0.032322563 -0.26128724 -0.03188883 -0.48349407 0.008698263 -0.03374889 0.032317627 0.057664502
-0.2627649 -0.0014535987 -0.09657079 0.08057803 -0.19060957 -0.08812589 -0.07968454 -0.11539589
0.073424354 0.30234182 0.116381325 0.34280157 0.06807114 -0.03431725 -0.31091386 0.001028452
-0.06004318 0.065909296 -0.038309842 0.12575746 -0.07341297 -0.1650122 -0.06736146 0.054035004
0.26703647 0.110861085 -0.036655936 0.03853961 0.024679441 -0.10083509 -0.11444386 -0.08565684
-0.035001494 0.14628293 -0.12168745 0.048379935 -0.11961336 -0.0890745 0.1541724 0.17161863
0.04786277 0.15831527 0.00076924573 0.23079541 0.11166702 -0.16036654 -0.12223597 0.06336141
-0.070555314 0.060169768 0.037658326 0.16973756 0.033908498 -0.022989705 -0.054083783 0.061615247
0.38155833 0.22051354 -0.038753353 0.03458511 0.04997254 -0.058543723 -0.15809573 -0.030036315
00000000: c79d 5cbe 7e67 cbbd da09 903a 09bb e23d
00000010: 5e6a e0bd 9fa3 3b3b 42ca c2bd 6bea 2ebe
00000020: a198 0fbd e3c2 363e c981 073e a366 c93e
00000030: 401a 843d 7103 853d 887b 37be a418 0c3e
00000040: 6947 8d3d fcaf 283e 8663 54bd 1e71 afbe
00000050: ae5f 86be 52e9 ba3d 2023 25be a7af f2be
00000060: e5dd bdbd 152a 2dbe cae4 c5bb 5e41 ab3d
00000070: e365 04be aeaf 173c 3847 d33c 74c4 9a3d
00000080: b63c 74bd 45b0 793d 3c10 b33d ba55 8ebe
00000090: 6864 28be 5f27 463e 5c17 fa3c 4a30 10bf
000000a0: 5719 a1bd 964e 04bd 552c 4d3b f07e 813e
000000b0: ef26 06bd f592 4b3e e306 78be 8f51 243d
000000c0: 143f 8ebd d10f db3d 2dd7 e83d fe13 7cbe
000000d0: 98c2 73be bf4e 143e dd0c bebd 314f 1dbf
000000e0: 1fa5 b23d b66f fcbc 8a67 8d3d 77ff a93d
000000f0: 9ae8 00be c4c2 263e 3e0e 41be 46ec 923d
00000100: d7e8 013e 722b 233e 16f9 27be 3ffb d03d
00000110: ce47 48bd ac14 f7bc 218b 163e cc85 1a3d
00000120: 8544 4dbe a811 a9bd 7d52 553b 0b09 6abc
00000130: 4496 203e c3bf 02be ce2a d63c 1222 073e
00000140: 8359 8fbe 978f 9dbe bc00 3c3e 5203 6abd
00000150: 1095 083f 29ed 87bd 155d 943e d14f a53d
00000160: 0503 013e 09a4 71be 26d2 81be 10b9 7abf
00000170: 0307 41be 2f14 45be 1997 6b3e 609b 7a3d
00000180: 7574 1fbd d42e 9d3d 536f 58bd 5921 013d
00000190: 29af 0f3e f3ee 483d 2f78 c53d d2d0 1dbe
000001a0: a45a 443e 53e2 8dbb af84 cbbd 3637 afbe
000001b0: 8faa 123e 36bb 3b3d b84b 18be f4e1 103d
000001c0: 27c1 82bd 23b7 593a 3bb0 cdbd daf0 38bd
000001d0: 548e a63e b13f 88bb 2f72 d03e ecc7 8d3c
000001e0: 5bda fc3c 0471 c2bd 560e 8cbd 5ca8 25bf
000001f0: 4398 893d 3a7f 41be 35cb 803d 16f2 243e
00000200: 5f7d f43d 1030 e6be 7c84 93bc 8b2e 20be
00000210: e2ee 853e a4e4 b5be 7e5c f93e 26a6 e6bd
00000220: a072 27bd 3129 fbbe 9f5d 69be 0a8d 94bf
00000230: 03cc 9ebe 0c82 2cbe ddf3 9c3e d23c 83be
00000240: 06e5 0cbe a67a 2cbd 6fc7 95bc 2fee 583c
00000250: 63bf b13d 6f94 83bd 6f72 403e 8249 d1bc
00000260: f387 113d 1df3 cdbd 97fb 993d 7514 8ebe
00000270: 16cb 543c 35c8 823c 409c 71bd b52d 453d
00000280: 110a d63d 3046 c43d 1f80 273d 1321 18bd
00000290: bc76 cc3e 09ed 843e d94a 733e 9059 39bc
000002a0: 1e82 7d3e 17ad 333e 103f 06be b462 04bf
000002b0: 4b65 b83d f464 31bd c6e0 7ebd 3451 1b3e
000002c0: 0e41 febd 56f2 07be 2203 36bd da96 d4bd
000002d0: 8f05 223e ae0d 85bd 6f1c 883e e209 80bc
000002e0: aa64 04bd 71c7 85be dd9d 02bd 898c f7be
000002f0: 2983 0e3c 473c 0abd 7d5f 043d 9d31 6c3d
00000300: 1f89 86be ae86 beba e8c6 c5bd 1806 a53d
00000310: 282f 43be 597b b4bd a631 a3bd ae54 ecbd
00000320: 825f 963d 8ccc 9a3e 5559 ee3d b083 af3e
00000330: e268 8b3d 3f90 0cbd 1a30 9fbe 1fcd 863a
00000340: d6ef 75bd 74fb 863d c8ea 1cbd 90c6 003e
00000350: 8a59 96bd f5f8 28be cef4 89bd cf53 5d3d
00000360: 01b9 883e 230b e33d 8924 16bd b6db 1d3d
00000370: 8a2c ca3c a182 cebd 8b61 eabd da6c afbd
00000380: ba5d 0fbd 31cb 153e 4537 f9bd 0a2a 463d
00000390: d9f7 f4bd b16c b6bd 5fdf 1d3e cbbc 2f3e
000003a0: c00b 443d 661d 223e 35a7 493a a255 6c3e
000003b0: aeb1 e43d 2037 24be da56 fabd a0c3 813d
000003c0: 4e7f 90bd 9374 763d 9e3f 1a3d afcf 2d3e
000003d0: a3e3 0a3d e854 bcbc f586 5dbd 4560 7c3d
000003e0: 9d5b c33e 4dce 613e d6bb 1ebd 1ea9 0d3d
000003f0: 02b0 4c3d 8bcb 6fbd d9e3 21be b80e f6bc

bias f4 [16]
-0.12965812 0.0042833476 -0.268112 0.045026064 -0.00081186084 0.081802 0.12338997 -0.1408045
-0.19446252 0.17093298 -0.14476359 0.040135384 0.33554253 -0.031887118 -0.1478105 0.20507112
00000000: 19c5 04be 535b 8c3b fa45 89be 406d 383d
00000010: 0fd3 54ba cf87 a73d e1b3 fc3d 0e2f 10be
00000020: 2f21 47be 0e09 2f3e e83c 14be 0065 243d
00000030: 3bcc ab3e 119c 02bd a35b 17be 2afe 513e

weight f4 [16, 64]
0.26260886 -0.093489476 -0.10895597 -0.04417777 -3.2236905e-05 0.012842996 -0.16678162 0.3740674
-0.26286232 -0.081068784 -0.1300482 0.09338913 0.032744966 0.29255965 0.4323421 -0.2144311
0.2142125 -0.18248431 -0.061532453 -0.09679251 -0.0004663631 -0.11150601 -0.26305598 0.29318878
-0.20255227 -0.1159863 -0.07081587 0.10381408 -0.0722694 0.44445246 0.36788574 -0.24916165
0.2727172 -0.12727676 -0.060083408 -0.044420633 -0.00041822265 -0.10219632 -0.14674233 0.35502377
-0.1461467 -0.023747638 -0.10364519 0.109742485 0.05547673 0.35906664 0.48424044 -0.2767195
0.2992194 -0.11262248 -0.06030449 -0.06962033 -0.00047502067 -0.17433015 -0.20741503 0.28672993
-0.12824258 -0.021407682 0.013988154 0.10180282 0.052857213 0.4070206 0.44133624 -0.27017784
-0.0032936682 0.4500477 0.33905154 -0.03362571 -5.2863437e-05 -0.013113198 0.094153404 -0.10892709
0.067763634 -0.24112421 -0.5326084 0.16118439 0.0045858715 -0.038597386 0.09330335 0.388699
-0.13083707 0.28252262 0.5030948 -0.16095701 0.0003105557 -0.22171104 0.09929478 -0.23311402
0.10922312 -0.07592129 -0.077267155 -0.069319464 -0.16758701 -0.06671279 -0.10522848 0.29424337
0.036249664 0.3227584 0.49657834 -0.0679204 0.00013551323 0.05667258 0.064650536 -0.15636156
0.09892822 -0.16007073 -0.49455354 0.12556107 0.06765115 0.035266317 0.12300361 0.39263362
-0.0723979 0.32219037 0.50790095 -0.20213106 0.00027237905 -0.1237957 0.07918509 -0.31876233
0.14244205 -0.082528204 0.0006702289 -0.076151446 -0.2114723 -0.018784143 -0.1538638 0.26670185
-0.13291644 -0.68093663 -0.4749496 0.014146285 -6.907424e-05 -0.01849572 0.03566648 -0.20086028
-0.11433617 -0.13202074 -0.3848529 0.14082861 0.5249209 -0.109021746 -0.20724016 0.11208727
-0.0069368244 -0.33908945 -0.31266883 0.106777154 -7.340952e-05 -0.20445831 0.032033097 -0.17837621
0.13241075 -0.12857494 -0.11751468 0.22736454 0.51073 -0.11242149 -0.13873678 0.012433242
0.059722565 -0.20551272 -0.50440097 0.17243528 -9.2511604e-05 -0.05625567 0.06503326 -0.13646
0.06048284 -0.06689025 -0.030287081 0.32648176 0.6557964 -0.11294149 -0.07887012 0.09687844
-0.0316029 -0.21494165 -0.39742765 0.10799791 -7.55971e-05 -0.26257667 0.06800056 -0.21422613
-0.014641989 -0.11466304 0.061308116 0.21455015 0.6411036 -0.14049193 -0.12142638 0.03943883
-4.6818823e-05 -6.586106e-05 -0.000293477 -0.00016353744 -4.8663868e-08 -9.295624e-05 -5.1480994e-05 -3.112914e-05
-6.4653796e-05 -0.00022722557 -0.00065747777 -9.159542e-05 -0.0005429053 -0.00012750413 -0.0001173758 -0.00016190688
-0.00011586224 0.00023757499 -0.00011268793 -6.465061e-05 -9.810815e-09 -0.00011365582 -5.1513027e-05 -6.3684674e-05
-0.0002899978 -7.989484e-05 -0.00047751295 -3.419211e-05 -0.00049235456 -8.254915e-05 -8.069248e-05 -0.00011677941
-2.8071618e-05 -0.00027254946 -0.00028506658 -0.00012008467 -1.4019126e-08 -0.00010355151 -5.8291567e-05 -3.336147e-05
-0.00013057799 -0.00023053138 -0.000508984 -2.1288637e-05 -0.0005050123 -0.00013868228 -9.2283866e-05 -0.00015089662
-0.00012920462 -1.531901e-06 -0.00013542977 -7.050824e-05 5.7168155e-09 -0.00011927253 -5.2905634e-05 -5.870183e-05
-0.00029034502 -9.971769e-05 -0.0006491137 -4.182628e-05 -0.00045390526 -8.636527e-05 -8.193186e-05 -0.000110178094
00000000: ab74 863e 6977 bfbd 4f24 dfbd c0f3 34bd
00000010: 1d36 07b8 6e6b 523c cdc8 2abe c385 bf3e
00000020: e495 86be 6407 a6bd 5b2b 05be cd42 bf3d
00000030: 961f 063d 61ca 953e f25b dd3e d493 5bbe
00000040: 865a 5b3e 2bdd 3abe 7409 7cbd 273b c6bd
00000050: 3282 f4b9 435d e4bd 46af 86be d71c 963e
00000060: dd69 4fbe 3a8a edbd e907 91bd 7a9c d43d
00000070: fb01 94bd 468f e33e 855b bc3e 3b24 7fbe
00000080: 97a1 8b3e d754 02be 051a 76bd 69f2 35bd
00000090: e544 dbb9 4e4c d1bd 9f43 16be adc5 b53e
000000a0: 7ba7 15be 688a c2bc ee43 d4bd abc0 e03d
000000b0: 913b 633d 95d7 b73e 5dee f73e 2eae 8dbe
000000c0: 4933 993e 9da6 e6bd d701 77bd 1b95 8ebd
000000d0: 320c f9b9 9a83 32be 9b64 54be 44ce 923e
000000e0: 0652 03be 2a5f afbc 922e 653c ff7d d03d
000000f0: ce80 583d 0165 d03e d3f6 e13e c054 8abe
00000100: 95da 57bb a76c e63e 2a98 ad3e 1dbb 09bd
00000110: afb9 5db8 bdd8 56bc 80d3 c03d 2b15 dfbd
00000120: a9c7 8a3d 44e9 76be 0659 08bf 850d 253e
00000130: 1445 963b 4b18 1ebd d415 bf3d 8e03 c73e
00000140: 27fa 05be cea6 903e d2ca 003f ead1 24be
00000150: 15d2 a239 3808 63be 105b cb3d 71b5 6ebe
00000160: 5fb0 df3d 9f7c 9bbd 3e3e 9ebd 5df7 8dbd
00000170: ee9b 2bbe b7a0 88bd 0882 d7bd 11a7 963e
00000180: 877a 143d 9740 a53e 843f fe3e da19 8bbd
00000190: 8e18 0e39 8221 683d 8067 843d 3f1d 20be
000001a0: e19a ca3d 95e9 23be 1f36 fdbe 1593 003e
000001b0: b08c 8a3d 6a73 103d 51e9 fb3d 4607 c93e
000001c0: 5a45 94bd 23f6 a43e cc05 023f 72fb 4ebe
000001d0: 19ce 8e39 9a88 fdbd cb2b a23d d134 a3be
000001e0: 54dc 113e 8c04 a9bd 4db2 2f3a 4af5 9bbd
000001f0: 328c 58be 34e1 99bc 798e 1dbe 258d 883e
00000200: 3f1b 08be dd51 2ebf 982c f3be d2c5 673c
00000210: f3db 90b8 5684 97bc 0417 123d 51ae 4dbe
00000220: 1529 eabd 7230 07be 700b c5be 6035 103e
00000230: 3761 063f cb46 dfbd c436 54be 038e e53d
00000240: 4d4e e3bb 229d adbe 2116 a0be fbad da3d
00000250: 70f3 99b8 855d 51be 2335 033d 41a8 36be
00000260: af96 073e 26a9 03be 89ab f0bd 40d2 683e
00000270: 34bf 023f 3d3d e6bd 0411 0ebe ccb4 4b3c
00000280: a69f 743d ed71 52be 6c20 01bf e092 303e
00000290: ca02 c2b8 586c 66bd 2830 853d 2cbc 0bbe
000002a0: dbbc 773d c1fd 88bd 9d1c f8bc 9e28 a73e
000002b0: 46e2 273f de4d e7bd a886 a1bd 3468 c63d
000002c0: 0b72 01bd aa19 5cbe a37b cbbe 022e dd3d
000002d0: e289 9eb8 7370 86be e143 8b3d 185e 5bbe
000002e0: f4e4 6fbc 75d4 eabd 381e 7b3d 09b3 5b3e
000002f0: 5e1f 243f 1edd 0fbe 65ae f8bd 9c8a 213d
00000300: 545f 44b8 e31e 8ab8 d1dd 99b9 3f7b 2bb9
00000310: 7d02 51b3 80f1 c2b8 4ced 57b8 a990 02b8
00000320: be96 87b8 6643 6eb9 965a 2cba eb16 c0b8
00000330: c251 0eba a1b2 05b9 a727 f6b8 8cc5 29b9
00000340: 11fb f2b8 8d1d 7939 df52 ecb8 0895 87b8
00000350: 6c8c 28b2 815a eeb8 b10f 58b8 738e 85b8
00000360: d90a 98b9 378d a7b8 b45a fab9 8069 0fb8
00000370: 5b11 01ba 3d1e adb8 7239 a9b8 78e7 f4b8
00000380: 577b ebb7 f8e4 8eb9 fd74 95b9 f7d5 fbb8
00000390: c5d8 70b2 cb29 d9b8 187e 74b8 9bed 0bb8
000003a0: c3eb 08b9 ccba 71b9 576d 05ba 0095 b2b7
000003b0: cd62 04ba 3e6b 11b9 8688 c1b8 013a 1eb9
000003c0: 1a7b 07b9 b89b cdb5 2702 0eb9 d3dd 93b8
000003d0: a46d c431 f421 fab8 fee6 5db8 9c36 76b8
000003e0: 7339 98b9 871f d1b8 4829 2aba a06e 2fb8
000003f0: 22fa edb9 001f b5b8 d5d2 abb8 6a0f e7b8

bias f4 [16]
-0.02422345 0.24537084 0.51876456 -0.00024581142 -0.020041566 0.24509785 0.031143824 -0.20227265
-0.078450255 -0.14539018 -0.0011060674 -0.05346754 -0.00013289112 -0.027542436 0.25538608 0.3206575
00000000: 4270 c6bc 7e42 7b3e c1cd 043f 40e0 80b9
00000010: 362e a4bc eefa 7a3e 5521 ff3c 9020 4fbe
00000020: 87aa a0bd 2ae1 14be 77f9 90ba c700 5bbd
00000030: b058 0bb9 ada0 e1bc f7c1 823e 382d a43e

weight f4 [32, 64]
-2.6850968e-05 -0.00032612807 -0.00028078633 3.3955098e-07 -5.4401564e-05 -1.1340706e-05 -9.193586e-05 -0.0009178689
-0.0003977131 3.222587e-05 1.8604838e-05 1.4047639e-06 1.3999019e-09 2.4399409e-05 -0.00030445625 -0.00018181007
-3.1995267e-05 -0.00011610251 -0.00018686178 2.7875845e-07 -7.8876146e-05 -1.2138866e-05 -0.00016724227 -0.0006744557
-0.0004202855 2.2725166e-05 6.393067e-06 -1.2062899e-05 -2.4344784e-08 1.7912205e-05 -0.0002333637 -0.00016475943
-3.0036126e-05 -0.00028078703 -0.00029168767 3.1607527e-07 -7.911035e-05 -1.15696685e-05 -0.0001266261 -0.00079929765
-0.00040988534 2.5989031e-05 1.8361354e-05 1.7284588e-06 2.5912565e-08 2.4794232e-05 -0.00030292093 -0.0001752
-3.5867015e-05 -0.0001646562 -0.00022816486 2.97701e-07 -8.4282554e-05 -1.1391385e-05 -0.00016440506 -0.0007031255
-0.00041439835 1.924721e-05 8.33599e-06 -9.900268e-06 3.5728082e-08 1.8829289e-05 -0.00024559797 -0.00016922352
0.046173573 -0.09300244 0.03260731 -1.4144305e-05 0.052716944 0.05911691 0.06969982 0.00462129
-0.040482763 0.02944788 0.0050228233 -0.0064774156 -4.1581535e-07 0.00750529 -0.115314156 0.04105714
0.100371264 -0.089047976 0.02727791 -9.825837e-06 0.04621544 0.038309515 0.062975846 -0.014709095
-0.023842687 0.0837004 0.04112155 0.029253915 -1.8701164e-06 0.047836613 -0.11975514 -0.008624076
0.08107059 -0.12543401 0.04833431 -1.3633753e-05 0.056982294 0.057884615 0.074317075 -0.021846903
-0.04304265 0.082807496 0.04672193 0.02818857 -1.4945606e-06 0.045500495 -0.11637378 0.012877982
0.105078116 -0.10689305 0.035591908 -9.559393e-06 0.053341866 0.043409757 0.06938861 -0.027703816
-0.040677175 0.1021717 0.054309044 0.038267817 -1.9768597e-06 0.05969802 -0.12798639 -0.02482891
0.2610408 -0.14183986 0.20078854 -1.7197723e-05 0.0018424713 0.037656628 -0.02460537 0.026199903
0.08196115 0.24509403 0.16862965 0.12257407 -2.581174e-06 0.19312407 -0.014738442 0.044963587
0.24221091 -0.054422755 0.1992853 -1.9688632e-05 0.04035891 0.0089814225 -0.044456203 -0.013097329
0.10813081 0.21250468 0.079018384 0.057931177 -4.7421217e-06 0.16476549 -0.012628735 0.034622353
0.2342508 -0.16030191 0.13119817 -2.5850295e-05 0.0055661965 0.04199754 -0.045071315 -0.02887262
0.057868056 0.22559556 0.15888648 0.11403798 -3.3694487e-06 0.16990712 -0.047620215 0.027548091
0.24400717 -0.089840196 0.16422339 -1.5512298e-05 0.021935992 0.019416038 -0.053628877 -0.062087703
0.07134786 0.21690404 0.087300144 0.061384387 -3.0400772e-06 0.16969028 -0.04425852 -0.0010212729
0.009592883 0.31098264 0.064345464 -0.00016624975 -0.2467978 -0.06489574 -0.27917594 -0.18081228
-0.14443576 0.06171973 0.06448656 0.10498675 -1.0774451e-06 -0.025302052 0.40872708 0.4248507
0.08429115 0.25525147 0.08631765 -0.000307013 -0.2655016 -0.11695044 -0.23026532 -0.14751191
-0.13290858 0.08502082 0.02099998 0.049046103 1.2550283e-06 0.053050227 0.42982268 0.35986996
0.04355281 0.31430474 0.016150981 -0.00035869383 -0.2173152 -0.10108836 -0.21284503 -0.044789597
-0.06126332 0.046972815 -0.0018513416 0.037293393 6.3718073e-07 -0.004945738 0.38561818 0.36394194
0.008752518 0.28805 -0.0029200083 -0.0004747353 -0.18957978 -0.10503869 -0.18323867 -0.03355117
-0.017577874 0.019125447 -0.029981215 -0.019532375 1.0454152e-06 -0.037077308 0.3443816 0.33538592
00000000: 043e e1b7 2bfc aab9 8136 93b9 884b b634
00000010: 3c2d 64b8 f643 3eb7 b0cd c0b8 249d 70ba
00000020: 2684 d0b9 442a 0738 9611 9c37 528b bc35
00000030: ab66 c030 55ad cc37 6d9f 9fb9 45a4 3eb9
00000040: a832 06b8 0f7c f3b8 54f0 43b9 45a8 9534
00000050: 4f6a a5b8 08a8 4bb7 c15d 2fb9 f5cd 30ba
00000060: c459 dcb9 eca1 be37 0784 d636 c261 4ab7
00000070: bf1e d1b2 2b42 9637 17b3 74b9 46c3 2cb9
00000080: 17f6 fbb7 9936 93b9 a8ed 98b9 0eb1 a934
00000090: 0ce8 a5b8 591b 42b7 efc6 04b9 f587 51ba
000000a0: e1e5 d6b9 0503 da37 b506 9a37 64fd e735
000000b0: 5596 de32 35fd cf37 5cd1 9eb9 e4b5 37b9
000000c0: ea6f 16b8 90a7 2cb9 8a3f 6fb9 b7d3 9f34
000000d0: dac0 b0b8 a01d 3fb7 2664 2cb9 f451 38ba
000000e0: 9b43 d9b9 1275 a137 ceda 0b37 5419 26b7
000000f0: 7173 1933 97f3 9d37 9ac3 80b9 9871 31b9
00000100: 8020 3d3d 1078 bebd 3e8f 053d 544d 6db7
00000110: b9ed 573d 9324 723d c7be 8e3d 316e 973b
00000120: 41d1 25bd ae3c f13c 7f96 a43b 8040 d4bb
00000130: 3a3d dfb4 f0ee f53b d429 ecbd 882b 283d
00000140: 738f cd3d c95e b6bd ec75 df3c a6d9 24b7
00000150: 674c 3d3d 70ea 1c3d 7bf9 803d 6afe 70bc
00000160: bd51 c3bc 1e6b ab3d 126f 283d e8a5 ef3c
00000170: b600 fbb5 53f0 433d 2f42 f5bd ff4b 0dbc
00000180: 5608 a63d c671 00be 33fa 453d 86bc 64b7
00000190: 4466 693d 6b18 6d3d 8d33 983d 47f8 b2bc
000001a0: 7d4d 30bd fa96 a93d 7f5f 3f3d b7eb e63c
000001b0: b698 c8b5 ba5e 3a3d 6055 eebd 2cfe 523c
000001c0: 3233 d73d beea dabd d2c8 113d 4861 20b7
000001d0: 007d 5a3d 6ece 313d 9e1b 8e3d 1df3 e2bc
000001e0: 1c9d 26bd 653f d13d 2973 5e3d b7be 1c3d
000001f0: 31aa 04b6 e985 743d dd0e 03be 0066 cbbc
00000200: 24a7 853e 783e 11be 839b 4d3e d443 90b7
00000210: 147f f13a d63d 1a3d 3391 c9bc 2ea1 d63c
00000220: 3fdb a73d eef9 7a3e 40ad 2c3e 1d08 fb3d
00000230: 3b38 2db6 51c2 453e 8279 71bc bd2b 383d
00000240: 2306 783e 65ea 5ebd 7211 4c3e 0429 a5b7
00000250: 624f 253d d126 133c b517 36bd 2e96 56bc
00000260: b073 dd3d d49a 593e 64d4 a13d 3e49 6d3d
00000270: 841e 9fb6 49b8 283e c1e8 4ebc 2bd0 0d3d
00000280: 71df 6f3e 2f26 24be d058 063e 16d9 d8b7
00000290: a464 b63b 9d05 2c3d b39c 38bd 4686 ecbc
000002a0: 0e07 6d3d 8602 673e 23b3 223e bf8c e93d
000002b0: b01e 62b6 22fc 2d3e 6a0d 43bd 89ac e13c
000002c0: 04dd 793e 23fe b7bd 2d2a 283e 6820 82b7
000002d0: 1cb3 b33c 620e 9f3c f4a9 5bbd ad4f 7ebd
000002e0: d41e 923d 181c 5e3e 6bca b23d 326e 7b3d
000002f0: 2104 4cb6 4ac3 2d3e 6c48 35bd 3bdc 85ba
00000300: 782b 1d3c 1e39 9f3e 8ec7 833d 5453 2eb9
00000310: 90b8 7cbe 0fe8 84bd 26f0 8ebe db26 39be
00000320: f8e6 13be d4cd 7c3d 8811 843d 4b03 d73d
00000330: bb9c 90b5 4046 cfbc ad44 d13e 0886 d93e
00000340: d7a0 ac3d 52b0 823e 4fc7 b03d 96f6 a0b9
00000350: d3ef 87be b683 efbd acca 6bbe 5d0d 17be
00000360: 3019 08be 651f ae3d 2608 ac3c 91e4 483d
00000370: 7272 a835 324b 593d b811 dc3e e040 b83e
00000380: 6e64 323d 8dec a03e 104f 843c 120f bcb9
00000390: e087 5ebe 6a07 cfbd 0cf4 59be 4c75 37bd
000003a0: 3fef 7abd 9166 403d b7a8 f2ba f5c0 183d
000003b0: ba0a 2b35 db0f a2bb bf6f c53e 9956 ba3e
000003c0: b966 0f3c 4a7b 933e 9c5d 3fbb e5e5 f8b9
000003d0: 3421 42be 861e d7bd eba2 3bbe f46c 09bd
000003e0: 79ff 8fbc f8ac 9c3c 2a9b f5bc 5c02 a0bc
000003f0: 3150 8c35 60de 17bd c952 b03e b4b7 ab3e

bias f4 [32]
-0.00015524642 0.06580049 0.05939361 0.03250673 -0.0011881479 -0.00045333285 8.473145e-06 -0.0859561
0.07480865 0.13051966 -0.053273913 0.037797004 -0.052603994 0.21719676 -0.0002476297 0.048947398
0.11174772 -0.009104082 -0.08978733 0.1336211 -0.13863757 -8.1445985e-05 0.1403773 0.080816865
-0.06698652 -0.0011640042 -0.15309946 -0.0056597153 -0.0017203689 -0.00025443107 -0.061917897 -0.023789538
00000000: a5c9 22b9 68c2 863d b746 733d c725 053d
00000010: a1bb 9bba 4ead edb9 e127 0e37 c009 b0bd
00000020: 4735 993d f2a6 053e bf35 5abd 08d1 1a3d
00000030: 4977 57bd d468 5e3e 4cd4 81b9 117d 483d
00000040: fddb e43d 4a29 15bc 6be2 b7bd f8d3 083e
00000050: 02f7 0dbe fbcd aab8 11bf 0f3e 5083 a53d
00000060: 3b30 89bd 8091 98ba 1bc6 1cbe 2275 b9bb
00000070: 007e e1ba 2965 85b9 9f9d 7dbd 47e2 c2bc

weight f4 [16, 48]
-0.0003377988 -0.025837487 -0.135464 -0.004646065 0.0019737897 -0.0010118546 -0.0002659286 0.5699591
0.07998682 -0.44653785 -0.04086549 -0.8831042 -0.2946801 -0.06623657 0.019794336 -0.0401007
-0.0051649828 8.2501174e-05 -0.24935713 -0.0014517669 0.7359686 -0.00014677417 -0.0004694994 -0.047472965
-0.020261647 -0.0030920643 0.52337927 0.01086167 -0.00025537345 0.0010806278 -0.77995974 -0.13296509
-0.0028665012 0.00087306096 0.055938747 -0.0029673316 0.07505443 0.0045666536 -0.0420107 0.015448895
0.0062285513 -0.000763941 -0.059670895 0.023298424 -0.0012641991 0.06328114 0.011373351 -0.0057467674
-0.00042072378 0.09829203 0.20709142 -0.3346072 0.002286418 0.00034061755 -0.00021596554 0.0022168544
0.42626843 -0.0842263 0.23585328 0.10508845 -0.06194969 0.31714404 -0.0022090632 0.15396091
-0.0123987915 0.035480972 0.24933188 0.050027445 -0.01972524 -0.0026736008 0.5149023 0.1981299
0.017137062 -0.012857995 -0.016047016 -0.0023154705 -0.0004069764 -0.0006433557 -0.1425863 -0.09955759
-0.0027154817 0.005684588 -0.24801813 0.005788536 -0.23635048 0.008193401 0.13645694 0.36134985
-0.002016369 -0.012154577 -0.3795021 0.029141597 -0.014065568 0.31715882 -0.24239615 -0.012128556
5.56589e-05 -0.075077474 -0.06291817 0.4588605 6.140164e-05 0.000118166274 0.00014663533 -0.03950795
-0.02079326 0.3034011 -0.011776733 0.14877573 0.14642276 0.023565765 -0.0001083688 -0.085389905
0.039619174 0.017755408 -0.06866163 0.025745152 0.40702498 0.00067177 -0.051934037 -0.105193816
0.008827997 0.0030835592 0.3220115 0.00013163942 -4.3800857e-05 0.00011799734 0.32478458 0.23025405
0.00505655 -0.003618276 0.04365637 0.00047803295 0.043227192 -0.031813763 -0.019423204 -0.045993283
-0.0104164565 0.016920673 0.02369538 -0.0054074638 0.021760533 -0.051023472 0.014958672 0.031852983
-5.810567e-09 -1.540202e-05 -0.00027707 0.00016483199 -6.3752283e-09 3.3065334e-08 -2.5078373e-07 -1.3250947e-05
-0.0002122603 3.7491632e-06 -0.00012003199 -0.00037471773 -0.000106451604 -0.0015601249 5.198901e-07 4.6792837e-05
-2.7442482e-05 -2.9993467e-05 -0.0006638198 -3.626136e-05 -0.00047422544 -4.619318e-07 -0.00020524065 -4.7600366e-05
1.0975981e-05 -5.9802815e-06 -0.00043169307 3.561714e-06 1.07290006e-07 -1.5847326e-07 -0.0001886497 -0.00028619048
1.1246406e-06 -3.2228303e-07 -0.00041470196 -5.2458887e-05 -0.00057082484 -1.34504335e-05 3.809152e-05 0.00048357886
8.820702e-06 6.2315944e-06 -0.00050017575 -2.1242524e-06 7.780804e-06 0.00048351396 -0.0004193218 6.8127188e-06
-3.9826158e-05 0.04930692 0.24144599 -0.047015097 -0.0001043419 -3.530977e-05 -7.462255e-05 -0.006255818
0.11489294 0.13014501 0.06592092 0.3280706 -0.002729329 0.1950029 -0.00024959893 0.1252017
-0.052932624 -0.018605823 0.07275749 -0.048968524 -0.6854556 -0.00023699731 0.1845159 0.068485506
-0.014589653 -0.0017546162 -0.5936588 -8.440536e-05 -0.00013738892 -0.00013407138 0.069279484 0.012204827
0.0046661366 -0.0016265691 0.0413352 0.018283576 0.05697601 0.023251878 -0.0074975765 -0.042549197
0.018808413 -0.0038656604 0.046420023 0.0050180587 -0.00689321 -0.030777063 0.02381217 -0.01902298
-5.2452893e-11 8.5576346e-07 -8.8568784e-05 -7.9595275e-06 -1.2285997e-10 3.319146e-10 1.426014e-09 -3.8566438e-07
-5.1791577e-08 -3.3279175e-06 -3.5868682e-06 2.6731666e-05 3.2518853e-06 -1.4994043e-06 -8.084169e-09 -1.9148293e-07
00000000: 961a b1b9 23a9 d3bc 13b7 0abe 053e 98bb
00000010: b25a 013b 35a0 84ba 556c 8bb9 d7e8 113f
00000020: 21d0 a33d 9ca0 e4be 9262 27bd 1e13 62bf
00000030: 4fe0 96be 0aa7 87bd bb27 a23c a240 24bd
00000040: 043f a9bb 7b04 ad38 7a57 7fbe 3749 beba
00000050: 7068 3c3f 64e7 19b9 2527 f6b9 0373 42bd
00000060: c1fb a5bc 3ba4 4abb 2ffc 053f 25f5 313c
00000070: a5e3 85b9 daa3 8d3a 71ab 47bf 0028 08be
00000080: e9db 3bbb 21de 643a 0720 653d 9077 42bb
00000090: 23b6 993d dea3 953b 6913 2cbd 5d1d 7d3c
000000a0: e018 cc3b 3643 48ba 7869 74bd 56dc be3c
000000b0: 7cb3 a5ba 8b99 813d 4b57 3a3c 614f bcbb
000000c0: 9794 dcb9 554d c93d c60f 543e a351 abbe
000000d0: bbd7 153b ea94 b239 cf74 62b9 a548 113b
000000e0: db3f da3e d77e acbd 8683 713e 9d38 d73d
000000f0: f5be 7dbd b460 a23e eec5 10bb eea7 1d3e
00000100: 4d24 4bbc 7f54 113d db50 7f3e 94e9 4c3d
00000110: d496 a1bc 9437 2fbb a3d0 033f 91e2 4a3e
00000120: 0663 8c3c 57aa 52bc 0875 83bc 26bf 17bb
00000130: 735f d5b9 dfa6 28ba 2502 12be dae4 cbbd
00000140: 39f6 31bb c845 ba3b 77f8 7dbe c2ad bd3b
00000150: dc05 72be 9d3d 063c 5ebb 0b3e d902 b93e
00000160: 0f25 04bb fe23 47bc 194e c2be 5cba ee3c
00000170: 4573 66bc a462 a23e b236 78be dab6 46bc
00000180: 4a73 6938 38c2 99bd 3edb 80bd c3ef ea3e
00000190: c1c4 8038 09d0 f738 1fc2 1939 17d3 21bd
000001a0: a056 aabc 6457 9b3e 33f3 40bc aa58 183e
000001b0: d9ef 153e fe0c c13c 0e44 e3b8 e7e0 aebd
000001c0: b747 223d ca73 913c 789e 8cbd 7fe7 d23c
000001d0: 9465 d03e b919 303a c9b8 54bd db6f d7bd
000001e0: 4ea3 103c 8a15 4a3b b1de a43e b008 0a39
000001f0: d0b6 37b8 5775 f738 2a4a a63e b8c7 6b3e
00000200: 6ab1 a53b 9920 6dbb 06d1 323d 7fa0 fa39
00000210: ff0e 313d 264f 02bd 691d 9fbc 7463 3cbd
00000220: c9a9 2abc 399d 8a3c d01c c23c 1831 b1bb
00000230: 2543 b23c fdfd 50bd 3815 753c 4678 023d
00000240: 4aa6 c7b1 9633 81b7 b543 91b9 c0d6 2c39
00000250: 1a0d dbb1 b803 0e33 74a3 86b4 6250 5eb7
00000260: 3192 5eb9 229a 7b36 afb9 fbb8 c375 c4b9
00000270: c53e dfb8 1b7d ccba 938e 0b35 6d43 4438
00000280: 4834 e6b7 7b9a fbb7 3104 2eba 5717 18b8
00000290: 76a1 f8b9 6cff f7b4 de35 57b9 81a6 47b8
000002a0: 7b25 3837 3aaa c8b6 dd54 e2b9 c805 6f36
000002b0: 4e67 e633 cc28 2ab4 45d0 45b9 d60b 96b9
000002c0: 5bf2 9635 3e06 adb4 5b6c d9b9 4d07 5cb8
000002d0: 68a3 15ba 2ca9 61b7 75c4 1f38 db88 fd39
000002e0: a0fc 1337 fd18 d136 3a1e 03ba 618e 0eb6
000002f0: 4c8a 0237 2580 fd39 6bd8 dbb9 cf98 e436
00000300: 030b 27b8 0ef6 493d 9e3d 773e e792 40bd
00000310: 22d2 dab8 9419 14b8 ad7e 9cb8 9bfd ccbb
00000320: fd4c eb3d bc44 053e 8c01 873d dff8 a73e
00000330: 8bde 32bb d7ae 473e 9adc 82b9 e034 003e
00000340: e1cf 58bd 3d6b 98bc e101 953d 3893 48bd
00000350: 057a 2fbf 7b82 78b9 bcf1 3c3e 2142 8c3d
00000360: 7109 6fbc 26fb e5ba 06fa 17bf c802 b1b8
00000370: 0f10 10b9 8395 0cb9 67e2 8d3d c1f6 473c
00000380: 64e6 983b 9a32 d5ba 194f 293d 70c7 953c
00000390: ad5f 693d b97a be3c 3bae f5bb 1148 2ebd
000003a0: 1a14 9a3c 0557 7dbb ec22 3e3d 876e a43b
000003b0: 70e0 e1bb 2e20 fcbc bd11 c33c 15d6 9bbc
000003c0: b5b0 66ae 9eb7 6535 01be b9b8 e989 05b7
000003d0: 0216 07af d478 b62f 68fd c330 4f0d cfb4
000003e0: 7171 5eb3 3055 5fb6 edb5 70b6 d13d e037
000003f0: f73a 5a36 243f c9b5 8de2 0ab2 6d9a 4db4

bias f4 [16]
-0.024126954 0.31838027 -0.053818695 -0.00010074755 0.19015598 3.923826e-07 0.036300458 -0.04981747
-0.048957717 0.1029526 0.13439122 0.14993954 9.973783e-09 0.13023278 0.09641247 -4.9057567e-06
00000000: e4a5 c5bc bd02 a33e fe70 5cbd 6e48 d3b8
00000010: 40b8 423e a7a8 d234 caaf 143d 670d 4cbd
00000020: e387 48bd d0d8 d23d da9d 093e c089 193e
00000030: 2959 2b32 be5b 053e e773 c53d 219c a4b6

weight f4 [16, 16]
-0.020969154 0.16792 0.40492722 -1.3865443e-05 0.24576469 -1.0442967e-06 0.115286395 0.0238641
0.19261436 0.08521329 0.5426833 0.53720075 -1.994342e-07 0.49689367 0.5097808 -5.669752e-06
-0.100332566 -0.14440624 -0.18346281 6.9511448e-06 -0.1344835 -4.55819e-07 -0.048766028 0.010952187
-0.105364226 -0.09295324 -0.25051966 -0.2507335 1.3207104e-07 -0.22760631 -0.21042372 4.938253e-06
0.46332467 0.0996667 -0.13234314 0.0010327296 -0.028836455 1.2617388e-05 -0.03568425 -0.033240825
0.06429956 0.044551272 -0.18596265 -0.033135552 1.7929389e-06 -0.018654266 -0.11129226 0.00028017772
-0.9544627 0.038596407 0.112367176 0.0034808828 -0.30690375 6.4466067e-06 -0.090661936 -0.038586654
0.07769649 0.14132316 -0.12733014 -0.009060142 -2.5826943e-05 -0.14342554 -0.042692095 -0.0010940923
0.023121268 -0.42588514 0.036779527 0.00012122833 -0.34029725 -3.5173393e-06 0.010037195 0.06294759
0.17603244 -0.34714463 -0.19186236 -0.23830798 4.0787378e-07 -0.18694669 -0.1584041 3.298003e-05
-0.078770794 -0.037050065 -0.17401497 -2.4244812e-06 -0.11247619 5.261675e-07 -0.07746207 -0.029623346
-0.09370824 -0.023697708 -0.24808677 -0.2595118 -1.17165555e-07 -0.23708953 -0.25712457 -1.3216754e-05
0.09606015 -0.3128329 0.18140534 0.0005394653 -0.16779467 -3.7029188e-06 0.053060982 0.05547065
0.15962857 -0.2899612 0.0452464 -0.005171191 2.8194063e-07 0.039743777 0.058969837 7.247607e-06
-0.010960069 -0.03323907 0.01989065 3.4888278e-06 -0.051025078 -5.5812455e-07 -0.0054727993 0.0001477631
0.010775959 -0.03123132 -0.04062099 -0.004771868 6.970406e-08 -0.020239515 -0.0059241555 2.3851449e-06
-0.08048598 -0.19446324 -0.088534586 1.8756953e-06 -0.27207243 -2.2169731e-06 -0.074641734 0.0014427169
0.025701739 -0.12146558 -0.22198904 -0.22491485 -1.6189789e-08 -0.2017469 -0.1972053 1.9248932e-06
-0.13289437 0.5021123 -0.38361102 0.0005359686 -0.12150426 -5.6081144e-06 -0.2089606 -0.15316825
-0.08561225 0.51094854 -0.34911948 -0.24922164 2.028391e-06 -0.14721869 -0.33288667 2.0629766e-05
0.023590384 0.20550218 -0.14511117 -1.4517877e-05 0.20276289 -4.122861e-07 -0.0005983779 -0.027867649
-0.12274512 0.18070212 -0.007379744 -0.010357944 -6.578361e-08 -0.007981421 -0.03487971 -1.7634582e-05
-0.25823247 0.3576051 -0.4927536 -0.004115051 0.6609829 -2.7476708e-06 0.039510638 0.020583894
-0.63315564 0.3628909 -0.024801707 -0.028487032 -1.1155814e-05 -0.05569505 0.022689119 3.6634826e-06
0.039768346 -0.38608688 -0.14019921 -0.0010436617 0.1328342 -6.4934047e-06 0.08328967 0.1322632
-0.18808392 -0.3479278 -0.08056042 -0.1377295 -1.670616e-06 -0.053169046 0.035540815 -5.2181713e-06
-0.79776 0.21696655 0.111076124 0.0027769895 -0.2871402 4.0032905e-06 -0.12784658 -0.0850857
0.0868907 0.26279196 -0.042402085 -0.04885569 5.7105526e-06 0.09648167 -0.017841041 -0.00074161997
-0.13275321 -0.48285156 0.077962115 -0.0027949114 0.0144124795 2.8006898e-05 0.10275518 0.20890114
0.06801223 -0.42350298 0.10595672 0.034634408 -2.201914e-06 0.08076269 0.24040107 -3.3899483e-05
-0.09296869 -0.36412048 -0.39754876 -1.3249844e-05 -0.27152723 -1.5578723e-06 -0.07402377 0.053957317
-0.14484361 -0.2535949 -0.5238943 -0.54031986 5.4144516e-07 -0.5387191 -0.46664053 2.635556e-05
00000000: 81c7 abbc 38f3 2b3e 9f52 cf3e a09f 68b7
00000010: bda9 7b3e c329 8cb5 461b ec3d a57e c33c
00000020: b33c 453e 4e84 ae3d 4bed 0a3f fd85 093f
00000030: 0e24 56b4 d968 fe3e ff80 023f cd3e beb6
00000040: 297b cdbd 3bdf 13be addd 3bbe e13d e936
00000050: 0bb6 09be 49b7 f4b4 e3be 47bd cd70 333c
00000060: 33c9 d7bd 455e bebd 1d44 80be 2460 80be
00000070: 69cf 0d34 a111 69be 5179 57be 45b3 a536
00000080: e438 ed3e 0e1e cc3d f684 07be a85c 873a
00000090: 6e3a ecbc 45af 5337 a629 12bd 8827 08bd
000000a0: 7daf 833d 657b 363d fe6c 3ebe 25b9 07bd
000000b0: e9a4 f035 d5d0 98bc 32ed e3bd d1e4 9239
000000c0: ab57 74bf 4417 1e3d c320 e63d 861f 643b
000000d0: 7d22 9dbe ee4f d836 f7ac b9bd 0a0d 1ebd
000000e0: 561f 9f3d 05b7 103e d562 02be fd70 14bc
000000f0: f0a6 d8b7 25de 12be e8dd 2ebd a567 8fba
00000100: d068 bd3c 9e0d dabe 21a6 163d f73b fe38
00000110: 713b aebe 6e0b 6cb6 0c73 243c abea 803d
00000120: d941 343e f1bc b1be 9177 44be 0207 74be
00000130: bff9 da34 f46e 3fbe af34 22be 0a54 0a38
00000140: 9552 a1bd cfc1 17bd fb30 32be 45b4 22b6
00000150: eb59 e6bd f53d 0d35 6fa4 9ebd a9ac f2bc
00000160: 1bea bfbd b221 c2bc 750a 7ebe bbde 84be
00000170: 729c fbb3 99c7 72be d5a5 83be 87bd 5db7
00000180: 2fbb c43d a22b a0be 52c2 393e e76a 0d3a
00000190: 5ed2 2bbe a97f 78b6 7956 593d 3135 633d
000001a0: ac75 233e cb75 94be 4a54 393d 1873 a9bb
000001b0: a05d 9734 5fca 223d 5b8a 713d 7830 f336
000001c0: dc91 33bc b125 08bd b7f1 a23c 9b21 6a36
000001d0: acff 50bd 07d2 15b5 2b55 b3bb dbf0 1a39
000001e0: a68d 303c d3d8 ffbc 3262 26bd 555d 9cbb
000001f0: 36b0 9533 57cd a5bc 6b1f c2bb 7a10 2036
00000200: d5d5 a4bd 5f21 47be 9f51 b5bd 66c0 fb35
00000210: 144d 8bbe 4fc7 14b6 c4dd 98bd 8c19 bd3a
00000220: 748c d23c f2c2 f8bd 1851 63be 1450 66be
00000230: b911 8bb2 bd96 4ebe 30f0 49be 6a2d 0136
00000240: 7615 08be 6f8a 003f aa68 c4be 3e80 0c3a
00000250: 3ad7 f8bd 562d bcb6 c4f9 55be 23d8 1cbe
00000260: 7a55 afbd 86cd 023f cabf b2be f533 7fbe
00000270: 7e1f 0836 7fc0 16be 1f70 aabe 160e ad37
00000280: 9f40 c13c 2a6f 523e 0698 14be cf91 73b7
00000290: 13a1 4f3e 2c58 ddb4 76dc 1cba b24a e4bc
000002a0: cb61 fbbd fa09 393e c8d1 f1bb 5eb4 29bc
000002b0: ec44 8db3 82c4 02bc 07de 0ebd faed 93b7
000002c0: 0c37 84be 0418 b73e 334a fcbe 8dd7 86bb
000002d0: 2d36 293f a064 38b6 e8d5 213d 8e9f a83c
000002e0: 7d16 22bf d6cc b93e f32c cbbc a35d e9bc
000002f0: db29 3bb7 7e20 64bd 88de b93c 27da 7536
00000300: 22e4 223d 2ead c5be 6290 0fbe 7acb 88ba
00000310: b005 083e ece1 d9b6 c693 aa3d 0170 073e
00000320: 1299 40be 9823 b2be ddfc a4bd f608 0dbe
00000330: ee39 e0b5 c9c7 59bd 3f93 113d c017 afb6
00000340: 003a 4cbf 7b2c 5e3e e17b e33d 27fe 353b
00000350: 0a04 93be 0154 8636 37ea 02be 6941 aebd
00000360: c0f3 b13d ab8c 863e cfad 2dbd e71c 48bd
00000370: 469d bf36 2f98 c53d 6027 92bc 4669 42ba
00000380: 75f0 07be 5238 f7be 9aaa 9f3d d52a 37bb
00000390: 5222 6c3c 5bf0 ea37 4f71 d23d 2eea 553e
000003a0: ff49 8b3d 62d5 d8be d6ff d83d cfdc 0d3d
000003b0: 98c4 13b6 e966 a53d b32b 763e 4b2f 0eb8
000003c0: 5e66 bebd 006e babe 838b cbbe a64b 5eb7
000003d0: 9e05 8bbe 1618 d1b5 c699 97bd 5902 5d3d
000003e0: e251 14be 31d7 81be f01d 06bf 6752 0abf
000003f0: d457 1135 7fe9 09bf 82eb eebe 2216 dd37

bias f4 [16]
0.09802522 -0.05900835 -0.004798287 -0.035109464 -0.0917059 -0.03665039 -0.03354063 -0.013063032
-0.07619758 -0.0445135 0.04196402 0.08359446 -0.014476174 -0.021290421 0.0025841724 -0.12539151
00000000: 72c1 c83d bdb2 71bd f33a 9dbb f1ce 0fbd
00000010: 4ed0 bbbd b81e 16bd e661 09bd 5406 56bc
00000020: 7a0d 9cbd ca53 36bd 77e2 2b3d 9233 ab3d
00000030: 792d 6dbc 4069 aebc 385b 293b a266 00be

weight f4 [6, 16]
-0.07354258 0.032007646 0.008075088 0.012881394 0.034192964 0.031715978 0.0011696734 0.0012844343
0.03242374 0.027618378 -0.0026089682 -0.011862254 0.010055562 0.0011030395 -0.0042691105 0.07751066
-0.07358645 0.032064218 0.008109469 0.012929118 0.0342504 0.03177178 0.0012491423 0.0013051346
0.032481443 0.027664253 -0.002677931 -0.011945475 0.010136454 0.0010862448 -0.0042121406 0.077557676
-0.101390585 -0.110615335 0.11714101 -0.09175675 -0.56287664 0.08249999 -0.5084942 -0.073660694
-0.18196936 0.8121892 0.33801875 0.67284113 -0.39666188 0.24575299 -0.85562056 -0.34161523
-0.040049937 0.015820779 0.55509126 -0.6874574 0.28050497 -0.11204042 0.2843417 0.040664364
0.088238806 -0.03483218 -0.20632057 -0.8237882 -0.12850098 -0.630426 -0.12999913 -0.07572135
0.024492731 -0.076361276 -0.34884647 -0.29117998 0.087211736 -0.14613485 0.082560286 -0.058053736
-0.1654818 -0.7013092 0.07005797 0.66326493 0.71486586 -0.5410904 0.73544216 0.0589435
0.2059514 0.03194933 -0.41390017 0.9763396 0.29105258 -0.10646449 0.17953385 0.04589006
0.116270095 -0.0825947 -0.2404625 -0.3784773 -0.14758994 0.93376297 0.30937076 -0.07634717
00000000: 7e9d 96bd 731a 033d 604d 043c 7b0c 533c
00000010: ec0d 0c3d 9de8 013d ba4f 993a 775a a83a
00000020: c1ce 043d f03f e23c 39fb 2abb e659 42bc
00000030: 15c0 243c dd93 903a e5e3 8bbb e9bd 9e3d
00000040: 7eb4 96bd c555 033d 94dd 043c a7d4 533c
00000050: 264a 0c3d 2023 023d 43ba a33a 0d11 ab3a
00000060: 430b 053d 25a0 e23c 3a80 2fbb f4b6 43bc
00000070: 5f13 263c 5460 8e3a ff05 8abb 8fd6 9e3d
00000080: dea5 cfbd 4b8a e2bd a0e7 ef3d f7ea bbbd
00000090: af18 10bf c1f5 a83d ad2c 02bf 6bdb 96bd
000000a0: 2d56 3abe a2eb 4f3f cb10 ad3e 513f 2c3f
000000b0: 4417 cbbe aca6 7b3e f309 5bbf 31e8 aebe
000000c0: 670b 24bd 949a 813c 761a 0e3f 35fd 2fbf
000000d0: 599e 8f3e 7375 e5bd 3c95 913e ad8f 263d
000000e0: 8cb6 b43d 30ac 0ebd b345 53be c9e3 52bf
000000f0: c395 03be 9963 21bf 7e1e 05be cc13 9bbd
00000100: fba4 c83c 4d63 9cbd 019c b2be 8b15 95be
00000110: 119c b23d 60a4 15be 5e15 a93d c1c9 6dbd
00000120: 1074 29be 0089 33bf 8e7a 8f3d bbcb 293f
00000130: 7301 373f e784 0abf f045 3c3f bd6e 713d
00000140: ece4 523e 4ddd 023d b9ea d3be 64f1 793f
00000150: d804 953e 0e0a dabd b9d7 373e 37f7 3b3d
00000160: 041f ee3d 6927 a9bd cd3b 76be c7c7 c1be
00000170: d121 17be 170b 6f3f d865 9e3e e85b 9cbd

bias f4 [6]
-0.008064801 -0.008098632 0.1087126 -0.050129402 0.037751112 -0.07370184
00000000: 3a22 04bc 20b0 04bc b6a4 de3d 7d54 4dbd
00000010: e9a0 1a3d fef0 96bd
