pretrained/saved_model_dim8.pt (torch, 17382 bytes, 20 tensors)

weight f4 [8, 8]
0.18484744 -0.19166347 0.36705413 -0.1853117 -0.24257728 -0.091589175 -0.04890553 0.03868391
0.116352625 -0.07560106 0.18218845 -0.15089495 -0.08867168 -0.05833157 -0.027741836 0.020986453
0.86118156 -0.7386167 1.538813 -0.99333817 -0.69322884 -0.3592507 -0.21056494 0.30947876
-0.08027095 -0.90221936 1.1745884 -1.2976704 0.4300021 0.09483821 -0.04616956 0.53067625
0.4262389 -0.8510638 1.3455907 -1.0109564 -0.06482877 -0.044115834 -0.10865131 0.5358542
0.0825719 -1.3572862 1.8424916 -1.8540246 0.5119834 0.112436 -0.09429898 0.82816696
0.11506906 -0.42714393 0.24561095 0.6787183 -0.8009477 0.722654 0.33140457 -0.26877204
1.5343056 0.25172883 0.060671236 0.42522806 -0.12804343 -0.39513296 0.12672208 0.7262204
00000000: a648 3d3e 6e43 44be 85ee bb3e 5ac2 3dbe
00000010: 2e66 78be 1b93 bbbd 2a51 48bd 0573 1e3d
00000020: 494a ee3d bbd4 9abd 9c8f 3a3e 3584 1abe
00000030: 7f99 b5bd 16ed 6ebd d942 e3bc c8eb ab3c
00000040: 6576 5c3f fc15 3dbf d3f7 c43f 694b 7ebf
00000050: 7277 31bf b5ef b7be 569e 57be 0074 9e3e
00000060: 1965 a4bd d9f7 66bf ea58 963f 101a a6bf
00000070: 3c29 dc3e 893a c23d 4b1c 3dbd 66da 073f
00000080: fc3b da3e 51df 59bf 513c ac3f 0567 81bf
00000090: f2c4 84bd ceb2 34bd 9484 debd be2d 093f
000000a0: 751b a93d 8ebb adbf c4d6 eb3f ae50 edbf
000000b0: 5811 033f d844 e63d d31f c1bd c002 543f
000000c0: 54a9 eb3d 9cb2 dabe 7081 7b3e 7cc0 2d3f
000000d0: e90a 4dbf daff 383f dcad a93e 7d9c 89be
000000e0: 2064 c43f 9ae2 803e 6782 783d 7eb7 d93e
000000f0: d11d 03be de4e cabe 6fc3 013e 95e9 393f

weight f4 [8, 8]
-0.15694238 0.19203003 0.07300339 0.28433266 0.14570424 0.09617181 0.060067717 9.07852e-05
0.00076679996 0.060338322 0.33659318 0.4022991 0.28035864 0.23459584 0.2663004 -9.705736e-07
-0.008751272 -0.19997692 -0.131658 -0.07893805 -0.19170631 -0.009616594 0.08708839 -1.3850329e-05
0.18566315 0.028232848 -0.14876492 -0.081946485 -0.098348245 -0.21495916 -0.39950776 0.00036676283
0.0030406697 0.17162666 0.048728805 0.27584022 0.18652256 0.16141683 0.14747171 -0.0004002002
0.007215807 0.18838343 0.082099736 0.12659866 0.05604174 -0.20033786 -0.45041156 -5.5008033e-05
-0.00093366817 0.19486779 -0.044743046 0.1481404 0.025473729 -0.14787802 -0.23368512 1.7617143e-05
0.013258215 -0.19578232 -0.10783159 0.029588832 -0.058969777 -0.013375703 0.17464101 4.550856e-05
00000000: 81b5 20be 85a3 443e cd82 953d 0d94 913e
00000010: 7e33 153e baf5 c43d 9109 763d ef63 be38
00000020: 1303 493a 5125 773d f155 ac3e 26fa cd3e
00000030: 2b8b 8f3e e439 703e 8758 883e a844 82b5
00000040: 7f61 0fbc c0c6 4cbe 5bd1 06be 46aa a1bd
00000050: a94e 44be eb8e 1dbc 665b b23d b65e 68b7
00000060: 7b1e 3e3e 9348 e73c d555 18be 8fd3 a7bd
00000070: ce6a c9bd 411e 5cbe 488c ccbe 134a c039
00000080: f945 473b e6be 2f3e db97 473d ee3a 8d3e
00000090: c5ff 3e3e 744a 253e d302 173e f6d1 d1b9
000000a0: 9472 ec3b 96e7 403e e823 a83d 14a3 013e
000000b0: 068c 653d 5e25 4dbe 589c e6be 6db8 66b8
000000c0: 69c1 74ba 6c8b 473e 7c44 37bd 1eb2 173e
000000d0: 48ae d03c 566d 17be 274b 6fbe 87c8 9337
000000e0: fc38 593c 297b 48be cfd6 dcbd 4764 f23c
000000f0: 4b8a 71bd c425 5bbc 18d5 323e 72e0 3e38

bias f4 [8]
-0.04295309 1.0035571 -0.16054648 -0.40122965 0.35004154 -0.0682088 0.015188379 0.02625584
00000000: 94ef 2fbd 8f74 803f 4c66 24be f96d cdbe
00000010: a538 b33e 0eb1 8bbd aed8 783c 7d16 d73c

weight f4 [8, 2]
0.00801381 -0.7548549 0.023821214 -0.41361132 0.002619426 0.47881413 0.008167037 0.19755244
-0.00024397761 -0.00039176372 0.0043364596 0.5933178 -4.7017013e-05 -0.0001291249 -0.015939346 -0.48171923
00000000: 5b4c 033c 2c3e 41bf b524 c33c ddc4 d3be
00000010: adaa 2b3b 2027 f53e 09cf 053c 304b 4a3e
00000020: 3ed4 7fb9 a365 cdb9 dc18 8e3b ade3 173f
00000030: 2234 45b8 b465 07b9 3b93 82bc e7a3 f6be

bias f4 [8]
-0.10339098 -0.12195393 -0.29479712 -0.1730629 -0.00033155622 0.108863465 -0.00014123808 0.23097856
00000000: a6be d3bd fbc2 f9bd a6ef 96be 6737 31be
00000010: b9d4 adb9 cff3 de3d 4f19 14b9 a585 6c3e

weight f4 [8, 32]
0.56419754 0.4481762 0.23342428 -0.28612962 -0.26465765 -0.36303797 -0.054667324 -0.08806722
0.5615438 -0.34494302 0.15845077 -0.6887285 -0.37281373 0.057706583 -0.017325256 -0.34922248
-0.020019956 0.058129217 0.08578789 0.08886575 -0.22390454 -0.08222153 -0.032411356 0.16242054
0.18955137 -0.1347695 -0.108875446 -0.077207126 -0.1681112 0.170749 0.07224898 -0.15760505
0.7267864 -0.081254974 0.29182038 0.44375524 -0.4882623 -0.03192937 0.19788577 0.20416285
0.19737287 0.113974 0.077713944 0.08829048 0.04609795 -0.21609364 -0.10615208 0.39150774
0.23406199 -0.14928491 0.23253447 0.17742649 -0.054644227 -0.11203238 0.03548043 0.23887548
0.19548734 0.062522024 0.023121964 0.14373007 0.06738365 -0.0751501 0.00527142 0.28987864
-0.16764277 -0.20596129 0.2099429 -0.18717195 -0.043551106 -0.3205164 -0.31463248 -0.045402538
-0.63003933 0.31775993 0.054578003 -0.58700186 0.9896556 -0.10626871 -0.037296876 0.37995633
-0.18840668 0.23755391 -0.001713304 -0.052010216 0.14525722 -0.24665213 -0.020763611 0.1950814
-0.2471902 -0.17707615 0.23063628 -0.40096834 0.1482404 0.043392736 0.01193784 0.18543634
0.11615636 -0.25258934 0.22070253 0.057285883 -0.057091556 -0.036911856 -0.019613054 0.17823644
0.2570591 -0.053326886 0.3295157 -0.026920531 0.0770039 -0.09573141 -0.0403605 0.19102049
0.19360484 0.024388885 0.15949495 0.09438251 0.029357051 -0.0721587 -0.015736278 0.28097194
0.16264081 0.03778739 0.087961264 0.18793152 0.045619573 -0.022710465 -0.012407484 0.31610295
-0.043379344 -0.5618784 0.3761323 -0.4157749 0.035589144 0.091182284 -0.010101966 0.14846377
0.17914899 -0.20304923 0.10626188 -0.29587165 -0.011770549 -0.04466864 -0.06660516 0.025679698
-0.040210444 -0.52582514 0.0625414 0.009043395 -0.18293634 -0.18637803 -0.082775995 0.1529218
0.11619066 -0.17364745 0.21318835 -0.3507426 0.10969138 0.045561846 0.009640421 -0.06405107
-0.8818453 -1.1576548 0.054623794 -0.9997099 1.5535859 0.8980239 0.31036153 0.383406
-0.20229205 0.12937202 -0.0031092423 -0.23096293 0.3209835 -0.13172296 -0.019265508 0.10150915
-0.3539373 0.08961983 -0.115906164 -0.3774069 1.2073069 0.40807047 0.18899412 0.12580386
-0.21716085 -0.18885198 0.14271533 -0.17439565 0.4324731 0.04608645 -0.014968801 0.2080373
0.017331976 -0.039413653 0.08964274 0.10840403 0.26235756 0.034885596 0.013979615 0.33463004
0.3026389 0.042616192 0.0003100857 0.17222999 0.024816616 -0.087622814 0.033113677 0.064517535
0.08540693 -0.085283004 -0.02558022 0.05294904 0.052782357 0.021720564 0.06297952 0.16837049
0.25600776 0.106143154 -0.075461484 0.16054043 0.061100177 -0.024667257 0.074805036 0.036060248
0.7466075 0.5279481 0.0077312742 -0.06756935 -0.048712563 -0.18216914 0.026707085 0.08601736
0.8124299 -0.08188344 -0.21970932 -0.42635828 0.08392258 -0.29151544 -0.06738245 -0.05568332
0.2300452 0.17799842 -0.1800573 0.07975869 0.02901881 -0.3479235 -0.11850833 0.1346655
0.19868064 0.13607968 -0.33898085 0.15561934 0.05542717 -0.1816877 -0.02614827 -0.08177655
00000000: 406f 103f 5a77 e53e c606 6f3e 957f 92be
00000010: 3581 87be 1de0 b9be d8ea 5fbd 965c b4bd
00000020: 56c1 0f3f 5f9c b0be eb40 223e 8350 30bf
00000030: 71e1 bebe bd5d 6c3d b2ed 8dbc 4acd b2be
00000040: e400 a4bc e718 6e3d 90b1 af3d 3fff b53d
00000050: 3b47 65be c363 a8bd c5c1 04bd 9251 263e
00000060: c119 423e 0401 0abe 17fa debd c51e 9ebd
00000070: 5825 2cbe d3d8 2e3e 46f7 933d 3863 21be
00000080: ac0e 3a3f 0269 a6bd 7b69 953e e333 e33e
00000090: 84fd f9be 5fc8 02bd 91a2 4a3e 1110 513e
000000a0: 1d1c 4a3e 336b e93d 7d28 9f3d a4d1 b43d
000000b0: 34d1 3c3d a747 5dbe 4366 d9bd b473 c83e
000000c0: f2ad 6f3e 25de 18be 841d 6e3e 4aaf 353e
000000d0: a0d2 5fbd 3c71 e5bd ed53 113d c69b 743e
000000e0: d52d 483e 8c0b 803d 466a bd3c fa2d 133e
000000f0: 7000 8a3d 4ce8 99bd e0bb ac3b f96a 943e
00000100: 8caa 2bbe 84e7 52be 46fb 563e 01aa 3fbe
00000110: a562 32bd ba1a a4be 8217 a1be 03f8 39bd
00000120: 424a 21bf 6eb1 a23e 2f8d 5f3d c145 16bf
00000130: 125a 7d3f 69a3 d9bd 9cc4 18bd a389 c23e
00000140: aeed 40be 5541 733e f190 e0ba aa08 55bd
00000150: 4fbe 143e 6092 7cbe 7318 aabc 6bc3 473e
00000160: 6e1f 7dbe 7353 35be eb2b 6c3e b94b cdbe
00000170: 55cc 173e 95bc 313d ee96 433c 06e3 3d3e
00000180: 63e3 ed3d 6453 81be d8ff 613e 9aa4 6a3d
00000190: d6d8 69bd e330 17bd 8eab a0bc 9d83 363e
000001a0: 409d 833e 4b6d 5abd 48b6 a83e 7288 dcbc
000001b0: 39b4 9d3d d40e c4bd 0d51 25bd e09a 433e
000001c0: 5940 463e 33cb c73c a552 233e 9e4b c13d
000001d0: 337e f03c f1c7 93bd 5ee9 80bc 8edb 8f3e
000001e0: 508b 263e f3c6 1a3d 0925 b43d 1f71 403e
000001f0: 97db 3a3d 4c0b babc c348 4bbc 3fd8 a13e
00000200: 8aae 31bd 43d7 0fbf 6a94 c03e 73e0 d4be
00000210: ecc5 113d c7bd ba3d b782 25bc e306 183e
00000220: d572 373e 23ec 4fbe d49f d93d 7d7c 97be
00000230: 43d9 40bc 77f6 36bd 4968 88bd 3b5e d23c
00000240: b5b3 24bd 7a9c 06bf b515 803d bf2a 143c
00000250: aa53 3bbe e2d9 3ebe 7686 a9bd 8897 1c3e
00000260: 5ef5 ed3d a3d0 31be 0c4e 5a3e 8994 b3be
00000270: e0a5 e03d 0f9f 3a3d dbf2 1d3c 352d 83bd
00000280: 9dc0 61bf 082e 94bf 33bd 5f3d fdec 7fbf
00000290: e7db c63f e5e4 653f b5e7 9e3e cb4d c43e
000002a0: a625 4fbe 197a 043e 6ec4 4bbb 8c81 6cbe
000002b0: f357 a43e 62e2 06be b3d2 9dbc 07e4 cf3d
000002c0: 4537 b5be 9a8a b73d 3660 edbd 7a3b c1be
000002d0: 0889 9a3f 9dee d03e ad87 413e bad2 003e
000002e0: 6a5f 5ebe 6a62 41be f823 123e c694 32be
000002f0: 1d6d dd3e 25c5 3c3d b43f 75bc bb07 553e
00000300: cafb 8d3c 3670 21bd 9d96 b73d ef02 de3d
00000310: bb53 863e 33e4 0e3d c10a 653c a154 ab3e
00000320: 7cf3 9a3e 518e 2e3d 0093 a239 0f5d 303e
00000330: 374c cb3c 9773 b3bd 35a2 073d c521 843d
00000340: d4e9 ae3d dba8 aebd 9c8d d1bc 18e1 583d
00000350: 5032 583d 53ef b13c 68fb 803d 5069 2c3e
00000360: 7313 833e 9561 d93d 8d8b 9abd b664 243e
00000370: 2e44 7a3d fd12 cabc 6233 993d e9b3 133d
00000380: ab21 3f3f 9b27 073f a156 fd3b cd61 8abd
00000390: d386 47bd 8c8a 3abe d1c8 da3c df29 b03d
000003a0: 68fb 4f3f 81b2 a7bd 7bfb 60be a24b dabe
000003b0: 9adf ab3d 8341 95be cfff 89bd 3114 64bd
000003c0: f890 6b3e 3845 363e f160 38be 8658 a33d
000003d0: dbb8 ed3c 0723 b2be 7fb4 f2bd c1e5 093e
000003e0: f072 4b3e 7958 0b3e e68e adbe ad5a 1f3e
000003f0: 9a07 633d 570c 3abe e634 d6bc 777a a7bd

bias f4 [8]
0.07504546 0.359763 -0.16429713 0.29241028 0.2102365 -0.2331115 -0.033555474 -0.041388087
00000000: 6fb1 993d db32 b83e 823d 28be cdb6 953e
00000010: 3d48 573e c8b4 6ebe 7771 09bd 8e86 29bd

weight f4 [8, 32]
0.12865435 0.43697822 0.094017684 0.19389634 0.04134451 -0.08726255 0.21220672 0.17586863
0.0352713 0.40106517 -0.06378957 0.22496969 -0.051756654 -0.2067749 0.10697004 0.27800044
0.080355756 0.45223865 -0.0006963168 0.30025792 0.019355461 -0.24276643 0.22878613 0.19883005
0.06281829 0.428694 -0.08209823 0.20563295 -0.062901534 -0.30959138 0.09996681 0.22281216
-0.20301493 0.33189788 -0.18233098 0.34452718 0.15892175 0.021697015 0.14568484 -0.11307278
-0.012112599 0.28174722 -0.09514004 0.3423235 0.11744309 -0.12271971 0.14624947 -0.02707545
-0.16240205 0.27910247 -0.15795176 0.22994478 0.097673275 -0.047570173 0.04492046 0.0015135474
-0.06698534 0.338481 -0.1146154 0.34586883 0.09012074 -0.12957026 0.17759518 -0.06892367
0.09081694 0.031060949 0.39785373 -0.11639591 -0.070876636 0.58121246 -0.07323041 -0.0732076
0.20452817 -0.10256737 0.40051025 -0.03824577 -0.013715395 0.69464535 -0.030161077 -0.16913928
0.22966951 -0.08194087 0.42915928 -0.055878922 -0.008897661 0.66854256 0.05726277 -0.086626306
0.17550053 0.046073962 0.45074552 0.057895347 -0.0045630536 0.7231195 0.06794307 -0.070086114
-0.018027592 -0.006281612 0.19929637 -0.06661455 0.0838899 0.33965054 -0.05728029 -0.12368085
-0.010593672 -0.13973303 0.10267517 0.042422462 0.04225514 0.4323715 -0.078985676 -0.099425584
-0.013251009 -0.09097338 0.1291791 0.053203773 0.06685191 0.38336653 -0.002480574 -0.12791678
0.015124952 -0.09343946 0.1121844 0.06516772 0.054698657 0.4343559 0.014019454 -0.09567047
0.09217743 -0.044254594 0.31784266 -0.011728926 -0.023861721 0.48632592 -0.03708726 -0.05692934
0.1625104 -0.10815207 0.30478972 -0.12914841 -0.039442986 0.63134784 -0.14179544 -0.17294128
0.18425065 0.087265864 0.33211666 0.03726623 0.003006799 0.5494152 -0.02535236 -0.013178392
0.11830112 -0.070005015 0.3455448 0.047623396 0.07916107 0.6466731 -0.07880934 -0.15282701
-0.014299768 -0.09799353 0.26627022 0.032645397 0.12498951 0.7830074 -0.105191916 -0.2468816
-0.022262521 -0.058678366 0.30433482 0.031935673 0.16049317 0.9101839 -0.037747163 -0.25529748
0.01243645 -0.053802088 0.2534869 -0.0029747393 0.16581315 0.9050412 0.00036303047 -0.25462928
0.06227606 -0.026080439 0.2835403 0.019409439 0.18044737 0.96493036 0.013845847 -0.22012593
0.09561141 0.30572206 -0.042768434 0.1832268 -0.038228743 -0.041995488 0.19417237 0.2655231
0.14189585 0.3524691 0.10338544 0.12175349 -0.044560347 -0.20280898 0.09717064 0.31052852
0.1271781 0.34556484 -0.04153393 0.17474769 -0.0852032 -0.23713641 0.16509593 0.30721036
0.11198555 0.25564852 0.033647098 0.06344144 -0.0447272 -0.308064 0.1666554 0.28188664
0.30210572 -0.10039196 0.1867955 -0.23327129 -0.5485157 -0.27429593 0.081604265 0.30367303
0.644724 0.10779684 0.20596793 -0.19189234 -0.31383806 -0.64360464 0.10513561 0.64158297
0.55530334 -0.1004547 -0.02489979 -0.25765496 -0.48023194 -0.57840145 -0.020781763 0.5271439
0.5458569 0.1019436 0.16801858 -0.092889376 -0.3909038 -0.72379863 0.015932798 0.54798514
00000000: f7bd 033e 9cbb df3e 588c c03d c38c 463e
00000010: dc58 293d b5b6 b2bd b84c 593e e816 343e
00000020: a378 103d 6a58 cd3e 1ba4 82bd 745e 663e
00000030: c9fe 53bd cdbc 53be 1c13 db3d 1356 8e3e
00000040: 8f91 a43d d38b e73e 0889 36ba 68bb 993e
00000050: 588f 9e3c c397 78be e946 6a3e 1b9a 4b3e
00000060: e0a6 803d c87d db3e 1e23 a8bd 7291 523e
00000070: 85d2 80bd c382 9ebe 66bb cc3d df28 643e
00000080: 25e3 4fbe 85ee a93e f9b4 3abe de65 b03e
00000090: 62bc 223e f0bd b13c 682e 153e b492 e7bd
000000a0: ec73 46bc 2c41 903e c8d8 c2bd 0745 af3e
000000b0: 0186 f03d 7954 fbbd 6cc2 153e 56cd ddbc
000000c0: b94c 26be 85e6 8e3e 1bbe 21be a576 6b3e
000000d0: ed08 c83d f1d8 42bd 84fe 373d 3962 c63a
000000e0: 9c2f 89bd 624d ad3e 7bbb eabd b815 b13e
000000f0: 3991 b83d 11ae 04be 83db 353e da27 8dbd
00000100: 3bfe b93d 8873 fe3c 7cb3 cb3e fb60 eebd
00000110: c527 91bd 57ca 143f d3f9 95bd deed 95bd
00000120: d56f 513e d70e d2bd ae0f cd3e 99a7 1cbd
00000130: 89b6 60bc 47d4 313f 5d14 f7bc d932 2dbe
00000140: 7c2e 6b3e 9dd0 a7bd c4ba db3e 4ce1 64bd
00000150: 7fc7 11bc 9b25 2b3f 5e8c 6a3d 2269 b1bd
00000160: 69b6 333e 0db8 3c3d 1ec8 e63e ac23 6d3d
00000170: ab85 95bb 5c1e 393f bc25 8b3d 4f89 8fbd
00000180: 9aae 93bc fbd5 cdbb 5914 4c3e 366d 88bd
00000190: 78ce ab3d ade6 ad3e bd9e 6abd 634c fdbd
000001a0: 1591 2dbc 2d16 0fbe 5c47 d23d 2dc3 2d3d
000001b0: ba13 2d3d cc5f dd3e 3ec3 a1bd a49f cbbd
000001c0: c31a 59bc 4050 babd 8747 043e 33ec 593d
000001d0: a7e9 883d 9e48 c43e 2091 22bb 9efc 02be
000001e0: a6ce 773c 305d bfbd efc0 e53d a776 853d
000001f0: b30b 603d e663 de3e dab1 653c e1ee c3bd
00000200: 85c7 bc3d 4e44 35bd 46bc a23e ae2a 40bc
00000210: a879 c3bc b6ff f83e d0e8 17bd bd2e 69bd
00000220: 2069 263e d57e ddbd 660d 9c3e 7b3f 04be
00000230: f88e 21bd 03a0 213f d332 11be 8517 31be
00000240: 34ac 3c3e 72b8 b23d 320b aa3e 79a4 183d
00000250: b70d 453b 79a6 0c3f c1af cfbc 2fea 57bc
00000260: dc47 f23d ca5e 8fbd 3feb b03e c010 433d
00000270: 331f a23d 5e8c 253f cb66 a1bd af7e 1cbe
00000280: 9349 6abc d5b0 c8bd 9254 883e 2eb7 053d
00000290: 80fa ff3d 2c73 483f dc6e d7bd 88ce 7cbe
000002a0: e45f b6bc ba58 70bd c6d1 9b3e fbce 023d
000002b0: 5258 243e d001 693f c59c 1abd 5ab6 82be
000002c0: 41c2 4b3c 945f 5cbd 09c9 813e d8f3 42bb
000002d0: ecca 293e c8b0 673f 2055 be39 c55e 82be
000002e0: 2f15 7f3d a5a6 d5bc 322c 913e 8b00 9f3c
000002f0: 32c7 383e ad05 773f b1d9 623c b168 61be
00000300: eacf c33d 9a87 9c3e f42d 2fbd ce9f 3b3e
00000310: be95 1cbd 7603 2cbd 1fd5 463e a5f2 873e
00000320: 254d 113e d476 b43e bfbb d33d e559 f93d
00000330: e984 36bd 28ad 4fbe 6701 c73d 98fd 9e3e
00000340: fa3a 023e e0ed b03e 7b1f 2abd 0ff1 323e
00000350: 047f aebd e3d3 72be e80e 293e ad4a 9d3e
00000360: ae58 e53d 5de4 823e 8ad1 093d 96ed 813d
00000370: de33 37bd 91ba 9dbe b7a7 2a3e 7253 903e
00000380: 9aad 9a3e 4d9a cdbd 5247 3f3e abde 6ebe
00000390: 866b 0cbf 8470 8cbe 2320 a73d 087b 9b3e
000003a0: a20c 253f 97c4 dc3d 42e9 523e 6d7f 44be
000003b0: 62af a0be 46c3 24bf 5751 d73d c83e 243f
000003c0: 5c28 0e3f 32bb cdbd a5fa cbbc 5aeb 83be
000003d0: f6e0 f5be 1e12 14bf 843e aabc e7f2 063f
000003e0: 47bd 0b3f cec7 d03d 100d 2c3e c93c bebd
000003f0: 8b24 c8be de4a 39bf 8085 823c c148 0c3f

bias f4 [8]
0.40925884 0.2634428 0.07920693 -0.077626765 0.08997739 -0.054048575 0.33388734 -0.17081456
00000000: 608a d13e fae1 863e 3e37 a23d c8fa 9ebd
00000010: 1146 b83d 0a62 5dbd 48f3 aa3e 03ea 2ebe

weight f4 [16, 32]
0.38450947 0.49049422 -0.3380942 -0.09319114 -0.33076498 -0.18501894 0.28468516 0.032624334
0.25668955 0.33758804 -0.36918065 -0.13067918 -0.24430844 -0.25344902 0.2864465 0.08087882
0.36647135 0.2764208 -0.3334571 -0.12514095 -0.2815776 -0.259636 0.17801328 0.09494368
0.31270912 0.290486 -0.35974732 -0.15215239 -0.33509886 -0.32040235 0.13808195 0.11801057
0.10825007 0.18111221 -0.0003458892 0.006296176 0.020811189 -0.0119789895 0.15344602 -0.1986892
0.18392521 0.14050384 -0.011373249 0.00027360654 0.0016507204 -0.03802611 0.09600867 -0.20344552
0.19229607 0.14601542 -0.0045994944 0.007506018 0.018979795 -0.039204936 0.09240025 -0.20271775
0.14834428 0.10251908 -0.018822145 -0.0031235823 0.00036618 -0.0462895 0.070673324 -0.2134962
0.0149601605 -0.1827202 0.062109195 -0.05792085 0.034572307 -0.22145587 0.2316568 0.80399334
-0.030866459 -0.16735105 -0.0010884431 -0.0642396 -0.065795526 -0.35101756 0.096482106 0.84632343
0.07441365 -0.19360435 -0.00872728 -0.09417085 -0.018439604 -0.35865384 0.16371466 0.87832785
0.09773976 -0.15169644 -0.0758517 -0.08221997 -0.1200978 -0.4364735 0.05107252 0.9097665
0.124654055 -0.023058826 0.3973242 0.12318209 0.28605178 0.29889196 0.051600873 0.24245675
0.0063359835 -0.03444768 0.3594606 0.15773316 0.29321134 0.38071418 -0.073710196 0.20824637
0.0146331135 -0.04434921 0.4263139 0.100312024 0.29837552 0.3419514 -0.051050004 0.25009826
-0.083059594 -0.07348066 0.40804747 0.14414768 0.357385 0.36891967 0.09958676 0.28148335
-0.00023379138 -2.1125954e-05 -0.00029115585 -5.463513e-05 -0.0002034364 -0.0002608466 -0.00013064087 -0.00023332483
-0.00021940685 -4.5198984e-05 -0.00030125544 -6.4306776e-05 -0.00020395553 -0.00029569413 -9.004355e-05 -0.00023834362
-0.00021264913 -2.6816193e-05 -0.00029321486 -5.621581e-05 -0.00020410705 -0.00026896282 -0.00011022507 -0.00024641005
-0.00020545763 -3.7334466e-05 -0.00029395954 -6.357924e-05 -0.0001999247 -0.0002829212 -8.9485846e-05 -0.00023810609
0.060167525 -0.01800397 -0.027975481 -0.022134006 -0.021518791 -0.064860985 0.044908267 0.162112
0.025067434 -0.035069376 -0.036248405 -0.027507091 -0.018333826 -0.101751275 0.009640944 0.18959157
-0.0031135043 -0.0636492 -0.042364974 -0.032726478 -0.03353459 -0.10571734 0.011663239 0.19710216
-0.028500276 -0.082099274 -0.05250496 -0.034166634 -0.037328456 -0.12565179 0.02453437 0.2189488
-0.72990507 -0.3270708 0.30144033 0.32006282 0.2630218 0.5471146 -0.6665267 0.042806096
-0.7712335 -0.39202732 0.36756387 0.32106164 0.32388267 0.6021107 -0.6448472 -0.001666813
-0.7532038 -0.37947917 0.38045403 0.34644833 0.32753813 0.6142331 -0.656129 0.06320018
-0.77122706 -0.42016983 0.40223414 0.32836953 0.3462308 0.61081725 -0.6400352 0.031256873
0.17934982 0.14626038 -0.028141564 0.00427618 -0.00568176 0.03719303 0.13259992 -0.14839694
0.17786402 0.14685456 -0.025103187 0.0020689443 0.0010134641 0.008173613 0.16629729 -0.11085969
0.10108867 0.11895007 -0.048989605 0.002525934 -0.0064433487 0.0030459077 0.08324763 -0.13449986
0.14946103 0.19206709 -0.061925445 -0.0005156159 -0.011983922 -0.011721097 0.071851365 -0.124827065
00000000: 6dde c43e 0f22 fb3e af1a adbe ffda bebd
00000010: 075a a9be 9b75 3dbe 41c2 913e 18a1 053d
00000020: d06c 833e 57d8 ac3e 3f05 bdbe c3d0 05be
00000030: fe2b 7abe 12c4 81be 1ea9 923e cba3 a53d
00000040: 22a2 bb3e 0787 8d3e e4ba aabe f324 00be
00000050: f02a 90be 03ef 84be 1d49 363e d571 c23d
00000060: 691b a03e 95ba 943e cd30 b8be d6cd 1bbe
00000070: 1492 abbe c70b a4be 5b65 0d3e 87af f13d
00000080: 36b2 dd3d 7b75 393e 7658 b5b9 2750 ce3b
00000090: 3a7c aa3c 8643 44bc f420 1d3e 2f75 4bbe
000000a0: e456 3c3e 3de0 0f3e dd56 3abc d972 8f39
000000b0: fc5c d83a 44c1 1bbd 32a0 c43d 0654 50be
000000c0: 43e9 443e 1185 153e 5bb7 96bb 0bf5 f53b
000000d0: 847b 9b3c 5b95 20bd 583c bd3d 3e95 4fbe
000000e0: 90e7 173e 86f5 d13d e630 9abc 04b5 4cbb
000000f0: d9fb bf39 0f9a 3dbd 2dbd 903d bf9e 5abe
00000100: 761b 753c 011b 3bbe 3666 7e3d 6a3e 6dbd
00000110: b19b 0d3d 54c5 62be 7137 6d3e 82d2 4d3f
00000120: a8db fcbc 135e 2bbe 17aa 8eba 0d90 83bd
00000130: cebf 86bd 93b8 b3be 6998 c53d a7a8 583f
00000140: 2f66 983d 3840 46be defc 0ebc a6dc c0bd
00000150: a70e 97bc 7aa1 b7be d1a4 273e 18da 603f
00000160: c92b c83d 5056 1bbe 2358 9bbd f262 a8bd
00000170: d6f5 f5bd 7479 dfbe 6b31 513d 75e6 683f
00000180: a04a ff3d dde5 bcbc 146e cb3e e446 fc3d
00000190: 6175 923e 5e08 993e 705b 533d 9546 783e
000001a0: 159e cf3b 0319 0dbd 380b b83e cd84 213e
000001b0: cc1f 963e f8ec c23e 5ff5 96bd 893e 553e
000001c0: babf 6f3c 84a7 35bd d145 da3e 6470 cd3d
000001d0: adc4 983e 4114 af3e cf19 51bd e10c 803e
000001e0: 261b aabd 077d 96bd 99eb d03e 739b 133e
000001f0: 2bfb b63e 0ae3 bc3e 25f4 cb3d 961e 903e
00000200: e525 75b9 a437 b1b7 47a6 98b9 0628 65b8
00000210: 8b51 55b9 3dc2 88b9 a4fc 08b9 a8a8 74b9
00000220: 9410 66b9 0a94 3db8 d2f1 9db9 70dc 86b8
00000230: e5dc 55b9 6507 9bb9 c3d5 bcb8 e1eb 79b9
00000240: 91fa 5eb9 56f3 e0b7 a2ba 99b9 44c9 6bb8
00000250: 9205 56b9 9403 8db9 a228 e7b8 9930 81b9
00000260: 1d70 57b9 9497 1cb8 951e 9ab9 d855 85b8
00000270: e1a2 51b9 0a55 94b9 59aa bbb8 1eac 79b9
00000280: 3972 763d 107d 93bc d62c e5bc 6052 b5bc
00000290: 2d48 b0bc d6d5 84bd bbf1 373d b000 263e
000002a0: 385a cd3c e8a4 0fbd 3579 14bd 8d56 e1bc
000002b0: d230 96bc f962 d0bd 0df5 1d3c 4b24 423e
000002c0: ef0b 4cbb 835a 82bd e586 2dbd 330c 06bd
000002d0: 915b 09bd 5582 d8bd 2c17 3f3c 26d5 493e
000002e0: 6979 e9bc aa23 a8bd 710f 57bd 50f2 0bbd
000002f0: b9e5 18bd ddaa 00be 4efc c83c 1d34 603e
00000300: 0fdb 3abf d375 a7be 6356 9a3e 46df a33e
00000310: cbaa 863e b40f 0c3f 7ea1 2abf 7255 2f3d
00000320: 8f6f 45bf ceb7 c8be 5531 bc3e 3162 a43e
00000330: f3d3 a53e ed23 1a3f b514 25bf f778 daba
00000340: f7d1 40bf 184b c2be dfca c23e ad61 b13e
00000350: 14b3 a73e 613e 1d3f 12f8 27bf 196f 813d
00000360: 236f 45bf 8020 d7be a2f1 cd3e 0d20 a83e
00000370: 2a45 b13e 855e 1c3f 59d9 23bf 3507 003d
00000380: 7ba7 373e 48c5 153e 2389 e6bc 331f 8c3b
00000390: 0f2e babb b857 183d 46c8 073e 5ef5 17be
000003a0: fc21 363e 0b61 163e 33a5 cdbc 2097 073b
000003b0: 36d6 843a 9eea 053c d649 2a3e 680a e3bd
000003c0: 9407 cf3d 189c f33d 53a9 48bd 248a 253b
000003d0: ba22 d3bb da9d 473b bc7d aa3d 55ba 09be
000003e0: 500c 193e 3cad 443e 89a5 7dbd 662a 07ba
000003f0: 3658 44bc d809 40bc cf26 933d 55a5 ffbd

bias f4 [16]
-0.024959214 0.07447305 0.00907533 0.046037618 -7.115391e-05 0.0076995636 -0.20725273 0.0983107
0.049534045 0.15975787 -0.016485121 0.1121345 -0.00015341469 0.051252637 -8.2128456e-05 0.028669547
00000000: 4477 ccbc 5485 983d b1b0 143c f191 3c3d
00000010: 7738 95b8 9f4c fc3b 0f3a 54be 1f57 c93d
00000020: 36e4 4a3d 9197 233e ce0b 87bc c6a6 e53d
00000030: f1dd 20b9 49ee 513d 613c acb8 66dc ea3c

weight f4 [8, 24]
-0.27983978 -0.05556421 -0.06379262 0.0525963 -5.872316e-06 -0.07561262 0.4402252 -0.0794139
0.0122076785 -0.14942506 0.0143251605 -0.0898189 -4.0046714e-05 -0.10335051 -1.15314236e-07 0.044999395
-0.13981684 -0.07058081 0.09270784 0.071882874 -0.0012892486 0.050612736 -0.00072970457 -0.12736966
0.14384584 0.216613 -0.30726993 0.2011805 -1.9303223e-05 0.013079732 -0.79044586 0.3038137
0.17964341 0.20543696 0.11437485 0.2385923 5.2939875e-05 -0.033172853 4.7985604e-06 0.2630187
-0.1360838 -0.04695184 0.018697765 -0.020775419 -0.00020977962 0.06278015 -0.00020097506 0.011467205
-0.0016269513 -0.00031591917 -0.000368687 -0.002886415 -1.0471125e-07 -0.00012791634 -3.9944403e-05 -0.00045926834
-0.00056406844 -0.0006172461 1.3249296e-05 -0.00033571513 1.2271784e-09 -0.00018849889 7.030174e-08 -0.00095898396
0.006127745 0.0013380109 -0.0017908904 -5.074858e-05 -2.004794e-06 -0.0036133975 -2.4294736e-06 0.0018585044
0.28925565 0.26890868 -0.4934097 0.54009104 1.5347836e-05 -0.036855873 -0.011287072 0.28077847
0.2993363 0.12916203 0.14540471 0.21641192 7.7936975e-06 -0.13076942 -1.1315935e-06 0.43587086
0.030696116 0.08112632 -0.10316547 -0.06085753 -0.0022812989 -0.07349375 -0.0013887776 0.11442332
0.2983183 0.31057826 -0.067295015 0.57832575 -1.2924254e-05 0.019624606 0.22143592 0.33270264
0.36832607 0.258634 0.15094063 0.23989542 -2.3198894e-05 0.035207048 -2.8860552e-07 0.45599106
-0.08584776 -0.07132119 0.041791417 0.021193577 -0.0015135446 0.08263766 -0.0008019164 -0.054497898
-0.0024489134 -0.000106985965 -5.3290474e-05 -7.091405e-05 1.1650236e-09 -1.9640134e-05 -8.383007e-05 -0.00016164934
-2.1475244e-05 -0.00013823026 -2.8786724e-05 -6.190488e-05 -1.6792587e-08 -2.7171318e-05 -2.7329065e-08 -2.1778369e-05
0.00018490512 2.237529e-05 -2.5831396e-05 -1.6109381e-05 5.7340562e-06 -7.537305e-05 -1.0099825e-06 2.6808164e-05
0.0017720469 0.13827851 0.672883 0.09135024 1.596715e-05 0.013479149 -0.21138565 0.013702904
0.080245055 0.3118365 -0.19126873 0.21237473 -1.8416567e-06 0.26350105 -6.1693454e-06 -0.06831033
0.40207955 0.24007845 -0.40518475 -0.17686608 -0.0005752801 -0.2760742 -0.00045589605 0.36679867
0.037189618 -0.014801856 0.81971323 -0.06481642 -8.057105e-06 0.18363686 -0.66753125 0.16810791
0.07356935 0.34551468 -0.10449565 0.19239984 -1.558498e-05 0.5027999 -3.749817e-05 -0.06612069
-0.16903384 -0.12741733 -0.01953851 0.0026028773 0.0021554984 0.12890565 0.0013495741 -0.0068372684
00000000: 2947 8fbe 4c97 63bd b5a5 82bd 386f 573d
00000010: cf0a c5b6 cada 9abd 3365 e13e c1a3 a2bd
00000020: b702 483c e202 19be 14b4 6a3c f9f2 b7bd
00000030: d5f7 27b8 6fa9 d3bd aca2 f7b3 4951 383d
00000040: 252c 0fbe ac8c 90bd 9cdd bd3d 5437 933d
00000050: 01fc a8ba 4d4f 4f3d a549 3fba 316d 02be
00000060: 534c 133e cccf 5d3e 7c52 9dbe 4302 4e3e
00000070: 5bed a1b7 5f4c 563c a95a 4abf 788d 9b3e
00000080: 71f4 373e 115e 523e 5d3d ea3d 8a51 743e
00000090: c20b 5e38 42e0 07bd 5203 a136 63aa 863e
000000a0: 8d59 0bbe 9350 40bd 0e2c 993c 3631 aabc
000000b0: 4af8 5bb9 e192 803d d5bc 52b9 f2e0 3b3c
000000c0: 6d3f d5ba f4a1 a5b9 554c c1b9 022a 3dbb
000000d0: 9edd e0b3 4821 06b9 fa89 27b8 f4c9 f0b9
000000e0: fedd 13ba afce 21ba 4b49 5e37 ec02 b0b9
000000f0: 80a9 a830 c9a7 45b9 caf8 9633 5364 7bba
00000100: 40cb c83b 3260 af3a 4fbc eaba dfda 54b8
00000110: 198a 06b6 c0ce 6cbb 0a0a 23b6 0f99 f33a
00000120: 5119 943e 66ae 893e 32a0 fcbe 6843 0a3f
00000130: 3abf 8037 2ff6 16bd 69ed 38bc 32c2 8f3e
00000140: 9c42 993e 0d43 043e f9e4 143e 169b 5d3e
00000150: adc1 0237 6be8 05be 42e1 97b5 772a df3e
00000160: 6c76 fb3c 8e25 a63d 6b48 d3bd bf45 79bd
00000170: d881 15bb e483 96bd a507 b6ba c656 ea3d
00000180: 2dbd 983e 1d04 9f3e f8d1 89bd 280d 143f
00000190: 40d5 58b7 c8c3 a03c 19c0 623e 0058 aa3e
000001a0: 3c95 bc3e ad6b 843e 2e90 1a3e 25a7 753e
000001b0: 3f9b c2b7 4435 103d a4f1 9ab4 a977 e93e
000001c0: f3d0 afbd d810 92bd 7a2d 2b3d 279e ad3c
000001d0: 2162 c6ba ef3d a93d b337 52ba 3039 5fbd
000001e0: f37d 20bb a75d e0b8 3684 5fb8 b1b7 94b8
000001f0: a01e a030 dec0 a4b7 edcd afb8 6a80 29b9
00000200: bc25 b4b7 e7f1 10b9 057b f1b7 eed2 81b8
00000210: 4a3f 90b2 f6ed e3b7 40c1 eab2 b1b0 b6b7
00000220: 17e3 4139 92b2 bb37 80b0 d8b7 a222 87b7
00000230: 2b67 c036 9911 9eb8 bc8e 87b5 18e2 e037
00000240: 0744 e83a e298 0d3e 0f42 2c3f d615 bb3d
00000250: 32f1 8537 a6d7 5c3c 7b75 58be 2582 603c
00000260: 8557 a43d 09a9 9f3e f3db 43be c378 593e
00000270: d82e f7b5 9ce9 863e 4602 cfb6 49e6 8bbd
00000280: 5fdd cd3e 20d7 753e 6074 cfbe 621c 35be
00000290: 65ce 16ba 9959 8dbe 5505 efb9 09cd bb3e
000002a0: 2454 183d 7c83 72bc bad8 513f 79be 84bd
000002b0: 012d 07b7 4d0b 3c3e 54e3 2abf 7b24 2c3e
000002c0: 87ab 963d 4de7 b03e d101 d6bd 7704 453e
000002d0: 7dbc 82b7 7fb7 003f 5a47 1db8 496a 87bd
000002e0: 3517 2dbe b079 02be 3a0f a0bc 0995 2a3b
000002f0: 4343 0d3b d8ff 033e 31e4 b03a 2a0b e0bb

bias f4 [8]
-0.0936189 0.16808975 -3.011882e-05 0.0798083 0.08969726 -4.6361038e-06 0.18131272 0.10247109
00000000: 44bb bfbd b81f 2c3e aca7 fcb7 8972 a33d
00000010: 32b3 b73d d48f 9bb6 0baa 393e 5ddc d13d

weight f4 [8, 8]
-0.11095624 0.48313764 -0.00022900003 0.12119834 -0.083007865 0.00186586 0.44065848 0.5643528
-0.16839203 -0.37104282 -3.375238e-05 -0.4283814 -0.48306686 -2.0977563e-05 0.017294627 -0.09090461
0.0483737 0.61984825 -4.719984e-05 0.51537323 0.7362468 -6.3372718e-06 0.35495093 0.46728286
-0.26013675 -0.13709569 2.6151785e-05 -0.58637303 -0.72144157 0.00012666387 -0.04584267 -0.19621557
0.41049907 -0.08379016 0.008348802 0.312769 -0.0090173185 -0.00026770882 -0.7624904 -0.54835254
0.17651115 0.060274303 0.0016259651 0.15048416 -0.106318146 0.0009708824 -0.36514974 -0.24803829
0.029118266 -0.060783945 -5.7275673e-05 -0.019746523 -0.041019518 6.880828e-06 -0.10738339 -0.11149979
0.10858891 0.403837 0.0042336765 0.30159938 0.23841588 0.0029266032 -0.22837311 -0.09494298
00000000: 063d e3bd d15d f73e ba1f 70b9 d636 f83d
00000010: 0700 aabd df8f f43a fd9d e13e 6d79 103f
00000020: f66e 2cbe 53f9 bdbe 5891 0db8 cf54 dbbe
00000030: 8a54 f7be f9f8 afb7 76ad 8d3c 322c babd
00000040: 8023 463d 60ae 1e3f 71f8 45b8 80ef 033f
00000050: ac7a 3c3f c0a4 d4b6 21bc b53e b33f ef3e
00000060: a530 85be d062 0cbe 8860 db37 8b1c 16bf
00000070: 65b0 38bf 13d1 0439 86c5 3bbd bcec 48be
00000080: ef2c d23e 2d9a abbd 6ac9 083c 4223 a03e
00000090: 60bd 13bc 455b 8cb9 9232 43bf d560 0cbf
000000a0: 57bf 343e 30e2 763d 561e d53a 8518 1a3e
000000b0: 54bd d9bd d182 7e3a e8f4 babe c0fd 7dbe
000000c0: 6e89 ee3c 96f8 78bd 493b 70b8 76c3 a1bc
000000d0: 1504 28bd dde1 e636 d3eb dbbd 005a e4bd
000000e0: dd63 de3d b9c3 ce3e a7ba 8a3b 3c6b 9a3e
000000f0: 4b23 743e 41cc 3f3b a4da 69be 7771 c2bd

bias f4 [8]
0.14412348 -0.059413895 0.12161663 0.006127682 -0.080000654 0.01878369 -0.018100005 0.057544276
00000000: 1b95 133e fc5b 73bd 2412 f93d b9ca c83b
00000010: 62d7 a3bd 41e0 993c 7646 94bc 8cb3 6b3d

weight f4 [6, 8]
-0.019424597 0.026788173 -0.04601183 0.03292757 0.009716246 0.0070835776 0.007839546 -0.016315859
-0.019693773 0.027036877 -0.04635266 0.033212893 0.010015889 0.007289969 0.0079023065 -0.016447335
0.38278207 0.18605138 0.3387585 0.11955762 -1.2438679 -0.5764252 -0.1198498 -0.7301403
-0.929636 -0.14267768 -0.09387633 -0.57149637 0.82696855 0.14252545 0.06648926 0.15604988
0.2943741 -0.11710404 0.2766768 0.093383804 0.5206614 0.31210494 -0.046164744 0.62637854
-0.019580362 0.026445568 -0.045192596 0.03236931 0.010203612 0.007246463 0.007729005 -0.016195111
00000000: 5520 9fbc df72 db3c e776 3cbd 0fdf 063d
00000010: e430 1f3c 5b1d e83b 7071 003c d6a8 85bc
00000020: d654 a1bc 717c dd3c 49dc 3dbd 3e0a 083d
00000030: af19 243c b1e0 ee3b ad78 013c 90bc 86bc
00000040: 03fc c33e 4184 3e3e c171 ad3e a0da f43d
00000050: 1037 9fbf 9a90 13bf d073 f5bd 7aea 3abf
00000060: a0fc 6dbf 191a 12be 3c42 c0bd 964d 12bf
00000070: 36b4 533f 31f2 113e 852b 883d 8acb 1f3e
00000080: 34b8 963e 3ed4 efbd 95a8 8d3e 0240 bf3d
00000090: 114a 053f 38cc 9f3e 3e17 3dbd 585a 203f
000000a0: ff66 a0bc 60a4 d83c df1b 39bd ae95 043d
000000b0: 0d2d 273c bd73 ed3b 9843 fd3b 9cab 84bc

bias f4 [6]
-0.006148337 -0.0061930656 0.02202952 -0.118748285 0.08980269 -0.0059872023
00000000: fd77 c9bb 33ef cabb 4077 b43c 4d32 f3bd
00000010: 79ea b73d 4b30 c4bb

weight f4 [8, 24]
-0.031739023 -0.027068917 -0.03588424 -0.023598818 3.0464402e-05 -0.026615951 0.030232102 -0.027707253
-0.023056233 -0.030460006 0.0074524656 -0.028715136 6.7715177e-06 -0.032811254 -1.7104321e-07 -0.018112382
0.040809866 0.03830511 -0.037926067 -0.031108668 -9.390716e-05 -0.039899904 0.000108758024 0.038161583
-0.2541552 -0.001569291 -0.23393352 -0.05785001 -6.783392e-06 -0.05908375 0.023079276 -0.038541734
-0.07859838 -0.031474892 -0.059510212 -0.036695443 3.0367966e-05 -0.12571701 3.1076186e-07 -0.07887547
0.14277802 0.0823242 -0.09567885 -0.04002762 -0.0013771447 -0.115736395 -0.0006464984 0.09536268
0.015940383 0.0034316003 0.027106212 -0.022601655 -0.0001321499 0.021620391 -0.017807858 0.004748
-0.020545136 0.00856372 -0.016239062 0.008084577 -5.0246454e-05 0.027134433 -8.686539e-05 -0.021189176
0.026192589 0.020744476 -0.021752566 -0.012784478 -0.00033326723 -0.024166932 -0.00010521932 0.021922547
0.276497 0.22081903 -0.36256337 -0.50330395 0.00044220526 -0.165637 0.0009995745 0.12055978
-0.37632066 0.098028146 -0.20523304 0.08030952 0.00023928189 -0.25391343 0.0030805971 -0.40463385
0.3687426 0.27441296 -0.33783698 -0.12532765 0.0010767883 -0.31168395 0.0005265941 0.24891001
-0.8376345 0.04723709 -0.58335054 -0.22313325 -0.00040481606 -0.17948239 -0.7345329 0.017128533
-0.1978841 0.071204565 -0.19345814 0.052438915 -0.0002506741 -0.1961662 0.0013417449 -0.3000386
-0.1548723 -0.098072454 0.209582 0.07867191 0.0003165137 0.24847753 0.00010216825 -0.24888517
-0.34225982 -0.006853461 -0.32745028 -0.112985685 -7.044199e-06 -0.0820452 0.0090064015 -0.05927668
-0.102838255 -0.047206484 -0.08549887 -0.0562647 3.4900677e-05 -0.17515083 3.4958125e-06 -0.110135235
0.22119203 0.122412376 -0.14104815 -0.061442386 -0.001477368 -0.16214846 -0.0007182804 0.14263001
-0.34811103 -0.007400929 -0.33442548 -0.11008636 -6.789075e-06 -0.083792605 0.0076007294 -0.060931344
-0.105486475 -0.048208755 -0.089342326 -0.057588715 3.515151e-05 -0.17887971 3.8945554e-06 -0.093247175
0.22446917 0.126453 -0.14158182 -0.06302858 -0.0014824561 -0.17527704 -0.0007220343 0.14387709
0.18876542 0.22766012 -0.44388118 -0.7509791 0.002654415 -0.1837653 -1.1863942 0.22902921
-0.3890222 0.26044777 -0.18081334 0.21019457 0.00013779802 -0.23542191 0.0025780674 -0.46227688
-0.33333996 -0.2964199 0.2526322 0.25246996 0.0003477838 0.44477883 0.00025277364 -0.31819537
00000000: c700 02bd a2bf ddbc 5afb 12bd 4f52 c1bc
00000010: ce8d ff37 b209 dabc 50a9 f73c 52fa e2bc
00000020: 6de0 bcbc 4387 f9bc d033 f43b 013c ebbc
00000030: e536 e336 1865 06bd 00a8 37b4 6b60 94bc
00000040: 3f28 273d d2e5 1c3d 5d58 1bbd 9bd7 febc
00000050: 06f0 c4b8 156e 23bd 0515 e438 524f 1c3d
00000060: a120 82be abb0 cdba 458c 6fbe 22f4 6cbd
00000070: e59c e3b6 cd01 72bd c010 bd3c f0dd 1dbd
00000080: 30f8 a0bd d1eb 00bd fbc0 73bd f64d 16bd
00000090: b6be fe37 f6bb 00be c9d6 a634 7689 a1bd
000000a0: 6734 123e 9799 a83d 46f3 c3bd 00f4 23bd
000000b0: 4f81 b4ba 3407 edbd c679 29ba 824d c33d
000000c0: 6895 823c b3e4 603b d90d de3c 1b27 b9bc
000000d0: b891 0ab9 3f1d b13c c9e1 91bc 1c95 9b3b
000000e0: 464e a8bc d84e 0c3c c807 85bc 2c75 043c
000000f0: b8bf 52b8 0849 de3c 802b b6b8 ec94 adbc
00000100: d791 d63c 52f0 a93c 7032 b2bc fd75 51bc
00000110: 5fba aeb9 bbf9 c5bc 31a9 dcb8 ea96 b33c
00000120: 0491 8d3e 621e 623e e8a1 b9be 87d8 00bf
00000130: c9d7 e739 bf9c 29be 2804 833a 0ce8 f63d
00000140: 1aad c0be fbc2 c83d 9c28 52be 5179 a43d
00000150: bee7 7a39 f100 82be d8e3 493b 2b2c cfbe
00000160: d4cb bc3e db7f 8c3e f8f8 acbe e455 00be
00000170: 0523 8d3a 0a95 9fbe 220b 0a3a 44e2 7e3e
00000180: 376f 56bf ae7b 413d 7656 15bf 0b7d 64be
00000190: 7e3d d4b9 3bca 37be 590a 3cbf 2351 8c3c
000001a0: 21a2 4abe b3d3 913d e419 46be 30ca 563d
000001b0: e86c 83b9 cbdf 48be 7ddd af3a a99e 99be
000001c0: d896 1ebe 36da c8bd aa9c 563e bd1e a13d
000001d0: c0f1 a539 e570 7e3e 2943 d638 c1db 7ebe
000001e0: ae3c afbe ff92 e0bb 90a7 a7be 0a65 e7bd
000001f0: 355d ecb6 5007 a8bd 968f 133c 1bcc 72bd
00000200: dd9c d2bd 965b 41bd 081a afbd d075 66bd
00000210: 5162 1238 bd5a 33be 9a99 6a36 958e e1bd
00000220: 2a80 623e 57b3 fa3d ed6e 10be 03ab 7bbd
00000230: 3ea4 c1ba 3f0a 26be fb4a 3cba 9a0d 123e
00000240: 9c3b b2be 7e83 f2bb d139 abbe f574 e1bd
00000250: b6cd e3b6 759b abbd 8a0f f93b 2593 79bd
00000260: 4b09 d8bd 8b76 45bd 1cf9 b6bd 25e2 6bbd
00000270: a56f 1338 3e2c 37be faad 8236 60f8 bebd
00000280: 3fdb 653e e57c 013e d3fa 10be 2115 81bd
00000290: f94e c2ba d37b 33be e746 3dba 8454 133e
000002a0: b94b 413e bc1f 693e 6544 e3be 2b40 40bf
000002b0: b2f5 2d3b f92c 3cbe c4db 97bf a286 6a3e
000002c0: eb2d c7be 6959 853e 2227 39be 3f3d 573e
000002d0: e07d 1039 7112 71be cbf4 283b 8eaf ecbe
000002e0: 89ab aabe 59c4 97be 0259 813e be43 813e
000002f0: c056 b639 0dba e33e b486 8439 81ea a2be

bias f4 [8]
-0.025950039 0.0017267585 0.0036533058 -0.010488209 0.01918122 0.0017252202 0.0017191651 0.09912091
00000000: 2d95 d4bc 6754 e23a 4d6c 6f3b bdd6 2bbc
00000010: ef21 9d3c c920 e23a 9c55 e13a e7ff ca3d

weight f4 [1, 8]
0.028548224 0.3540423 -0.012119578 -0.5810773 -0.7117652 0.5017875 0.51296335 0.49162772
00000000: f7dd e93c 0845 b53e 3291 46bc 7bc1 14bf
00000010: 3f36 36bf 2575 003f 9151 033f a1b6 fb3e
