pretrained/saved_model_dim32.pt (torch, 108966 bytes, 20 tensors)

weight f4 [8, 32]
000000 67 4e 02 be 2f 94 a4 3e ed 76 02 bc ab 90 26 bd
       -0.1272522 0.32144305 -0.007962924 -0.04066531
000010 73 be 2e 3b e5 21 8c 3e 50 e4 86 be 1e 4b 9c bd
       0.002666381 0.2736961 -0.26346064 -0.07631515
000020 a7 38 12 be 73 d3 05 3e 4a e0 7f 3c df 6c eb be
       -0.14279424 0.13068943 0.0156174395 -0.459815
000030 94 28 f9 bb f3 51 2e be f8 08 1c bc 03 46 00 be
       -0.0076037142 -0.17023449 -0.009523623 -0.12526707
000040 59 c9 cd 3d 7f 3b 7e bc 2f ea e8 bc f1 ef 9a 3d
       0.1004817 -0.015517115 -0.02843198 0.075652964
000050 43 18 a6 bc a9 f7 af 3c 8f 6f 6b bd 43 aa 3e 3e
       -0.02027524 0.021480398 -0.057479437 0.18619637
000060 a1 71 0e 3d 47 19 54 3e b8 12 c7 bd d7 05 a2 3e
       0.034776334 0.20712768 -0.09720367 0.3164508
000070 02 1c 6b 3d ba ef bc be d6 f6 98 be 8b 9b 7e be
       0.057399757 -0.36901647 -0.2987582 -0.24864022
000080 07 0c 4d bc 84 ed 5c 3d 35 20 c7 bb 84 b5 1c bc
       -0.012515075 0.05393745 -0.0060768374 -0.009564761
000090 97 85 14 3b c0 ba 38 3d fe 6d 39 bd fe 60 4c bc
       0.0022662634 0.045099974 -0.045270912 -0.012474297
0000a0 9e 1e df bc 1b 3b ed 3c aa db d9 ba 27 f1 a4 bd
       -0.02723628 0.028958848 -0.0016621251 -0.08053809
0000b0 18 ec c0 bb 28 22 0e bd b7 a1 8d 3b fe 3a a9 bc
       -0.0058875196 -0.034700543 0.0043222564 -0.020658012
0000c0 0f 51 a3 3c 8e d8 c4 bb d2 0b ae bb ac 8b 26 3c
       0.019936113 -0.0060072606 -0.0053114677 0.010165136
0000d0 c8 51 10 bb 91 14 ea 39 66 c4 3c bc 6c 62 0c 3d
       -0.0022021402 0.0004464728 -0.011521434 0.03427355
0000e0 1f 52 cf 3b 7a ca 57 bc b8 ef 84 bc 36 f0 08 3c
       0.0063269283 -0.013170833 -0.016227588 0.008358052
0000f0 25 c3 71 bd 66 8c 11 bd 7d 7e 3f bd c3 ae 4b bd
       -0.059023995 -0.035534285 -0.046751488 -0.049727213
000100 0e 19 83 be 0d ba 1e 3f f7 48 19 bc e9 21 be bd
       -0.25605053 0.6200264 -0.009355775 -0.092838116
000110 1e a3 2a 3d 3e 6c 12 3f 89 61 fc be 0c 94 39 be
       0.041659467 0.57196414 -0.49293163 -0.18122882
000120 5f 10 a6 be fe 14 90 3e e4 cb 23 3d cb 6b 5b bf
       -0.32434365 0.28141016 0.039989367 -0.85711354
000130 8a ae 9d bc 15 36 ca be fc f9 8a bc d0 f3 84 be
       -0.019248266 -0.39494386 -0.016964905 -0.25967264
000140 15 a9 5e 3e 93 a6 8f bd bd d2 08 bd 68 ca e8 3d
       0.21744187 -0.070141934 -0.0334041 0.11366731
000150 13 23 fd bc 9d 2e 15 3c a9 17 0b be 85 f1 be 3e
       -0.030900514 0.009105352 -0.13583244 0.3729364
000160 71 99 8b 3d 52 df 2d 3e 96 ec 2d be 01 b2 0a 3f
       0.06816376 0.16979721 -0.16984782 0.5417786
000170 a9 36 8e be c1 24 18 bf f9 8a 16 bf 4c 4a 05 bf
       -0.27776077 -0.5943108 -0.58805805 -0.52066493
000180 b5 ec b8 bd bd 52 03 3f f3 3d d6 bc 18 ea ad bd
       -0.09029523 0.51298124 -0.026152587 -0.084919155
000190 07 b1 8b bb de 99 e1 3e bf b8 f8 be 7d be 85 bd
       -0.0042630467 0.44062704 -0.4857845 -0.065304734
0001a0 5d 96 83 be 1c 5e a7 3e 41 4d e1 3b de 2d 4e bf
       -0.25700656 0.32688987 0.0068756645 -0.8053874
0001b0 74 fa 46 bd 46 dd 93 be 33 d4 ac bd e6 64 51 be
       -0.048578694 -0.28879756 -0.08438911 -0.20448646
0001c0 a4 98 38 3e 9b 6a 33 bd 39 74 56 bd 56 ce b6 3d
       0.18026978 -0.04380284 -0.052356932 0.08926074
0001d0 4d f1 03 bd c2 fc d4 3b da 32 d2 bd a5 28 b4 3e
       -0.032212544 0.0064998576 -0.102636054 0.3518726
0001e0 35 52 3e 3d 02 aa e1 be b4 9c 38 be 6f a7 3c bf
       0.046465117 -0.44075018 -0.18028527 -0.73692983
0001f0 01 69 7e bf bb c1 6a be da c8 e5 be 94 4c 05 bf
       -0.99378973 -0.22925465 -0.448798 -0.52069974
000200 a7 da 91 be 34 5b 43 3f 8d 30 8c 3b 8d e3 fe bd
       -0.2848713 0.7631104 0.0042782486 -0.124457456
000210 09 f1 03 3d d5 c8 32 3f d9 12 1a bf ea f6 61 be
       0.03221229 0.69837695 -0.6018501 -0.22066846
000220 30 b2 b9 be 07 70 d1 3e 33 94 6b 3d 7a da 8d bf
       -0.3626876 0.40905783 0.05751438 -1.1082299
000230 c2 79 de bc 5e c3 9f be 6d 85 0d bd c6 d8 a0 be
       -0.027157668 -0.3120374 -0.034551073 -0.31415385
000240 e9 29 81 3e 35 b0 c2 bd 09 93 47 bd 2b 2e f9 3d
       0.25227287 -0.09506265 -0.048724208 0.12167009
000250 29 24 ce bc 46 72 a6 bb c8 a2 26 be 27 b7 f0 3e
       -0.025163727 -0.0050795404 -0.16273034 0.47014734
000260 b0 d3 57 3d 79 61 ff be 7c d3 52 be e8 e7 ab 3d
       0.052692115 -0.49879053 -0.20588487 0.08393842
000270 ee 83 8d bf 7d 5d e0 be 8f ab 2f bf 11 84 36 bf
       -1.1055887 -0.43821326 -0.6862115 -0.7129527
000280 f5 5b 36 be d2 9f 52 3f 61 89 be bc f0 4a 11 be
       -0.17808516 0.82275116 -0.023258867 -0.14188743
000290 16 b3 49 bb de d6 31 3f 15 7e 33 bf 59 d2 4a be
       -0.003077691 0.69468486 -0.7011426 -0.19806804
0002a0 f3 ab c6 be 91 4e f6 3e e2 8e 9c 3c 3f 11 9d bf
       -0.38803062 0.48106816 0.0191111 -1.2270888
0002b0 43 e3 8e bd 84 39 bc be bb 58 58 3d 76 76 9e be
       -0.069769405 -0.3676263 0.052818995 -0.30949754
0002c0 7c f7 8c 3e 79 fb 96 bd 2e 9f a3 bd d0 56 11 3e
       0.27532566 -0.07372183 -0.079893455 0.14193273
0002d0 b1 0b 32 bd df a2 a6 3b 09 bf 27 be cc 44 06 3f
       -0.04346818 0.0050853337 -0.16381468 0.52448726
0002e0 5d e2 9e 3d 5d 5e 3a bf a6 39 84 be 66 fb 38 bf
       0.07758019 -0.72800237 -0.25825232 -0.72258604
0002f0 ae 6e c0 bf 24 04 ac be 13 5a 2e bf b0 a9 4c bf
       -1.5033777 -0.3359691 -0.6810619 -0.7994642
000300 15 02 80 bd 52 ab 76 bc 9f dc 27 bd 56 77 a5 3e
       -0.06250397 -0.015055494 -0.040981885 0.3231761
000310 f4 d2 6f 3e ba 49 1d be 1a fc 0f bf 5a ab b4 be
       0.23420316 -0.15360156 -0.5624405 -0.3528698
000320 87 f2 d0 bd 6d 03 bf be 4b 10 6c bd 75 96 b8 3e
       -0.102025084 -0.373073 -0.057632726 0.3605229
000330 2b 91 75 be 67 59 b3 3e 04 0c 57 3c 83 d8 13 be
       -0.23981158 0.35029146 0.013125423 -0.14438061
000340 2f 35 5f 3d 14 f3 00 3a 1e 56 84 3c 93 29 11 be
       0.05449408 0.0004919034 0.016154345 -0.14176016
000350 5d f3 ac be d6 bf 46 ba dd 9c be be 8f 81 ae 3e
       -0.3377942 -0.00075816864 -0.37229052 0.3408322
000360 4e 78 ea 3d 89 a8 52 3f d4 ff 23 3e 34 ae 1c 3f
       0.114487275 0.82288414 0.1601556 0.6120331
000370 6a 2f 6b 3e cc 94 89 bf c5 dd e2 be 02 04 16 3f
       0.22967306 -1.0748534 -0.44309822 0.58599865
000380 6d 9c ce bc c3 81 4c 3e b2 60 88 3d 11 c4 ac bd
       -0.025221074 0.19971375 0.06659068 -0.08435834
000390 ce 65 14 be 3a 2f 92 bd 68 05 a3 3e 9e 25 59 3e
       -0.1449196 -0.07137914 0.31840062 0.21205756
0003a0 27 5d bc 3e 51 34 ca bd f0 e9 a5 bb 73 30 0e bf
       0.3678982 -0.0987326 -0.005063288 -0.5554268
0003b0 13 6d a6 3e 10 4c ab 3d 77 f3 21 bc 0a 30 02 3e
       0.32505092 0.08364117 -0.009884707 0.12713638
0003c0 9f 53 4c be 53 50 09 3e 1e 08 02 bc 48 83 32 3e
       -0.19953774 0.13409548 -0.007936506 0.17432892
0003d0 b0 80 08 3e 96 1d a1 3a 36 61 e0 3d 43 dc c6 be
       0.1333034 0.0012292142 0.109560415 -0.3883992
0003e0 dd 0c 21 be ec ab 01 3f a3 bf 17 3d 9d 43 51 3f
       -0.15727563 0.50652957 0.037047993 0.81743795
0003f0 f5 c6 84 3f 1c 86 34 3e 69 d5 94 3e e1 70 3c bd
       1.0373217 0.17629284 0.2906907 -0.046006087

weight f4 [32, 8]
000000 74 c3 2c 3e 99 81 d2 bd d8 59 4d be 6d f5 0f bd
       0.16871434 -0.10278625 -0.20053804 -0.035146166
000010 49 a1 1c 3e 82 2a 8f be c2 20 10 3e 5d ec 72 3c
       0.152959 -0.27962118 0.14074996 0.014826861
000020 06 11 b4 39 13 34 07 be 25 25 cc bd c5 65 1d be
       0.0003434496 -0.13203458 -0.09968022 -0.15370853
000030 ed 3d 60 bd f6 b5 76 be db f4 73 3e dd a0 06 ba
       -0.054746557 -0.2409285 0.23823874 -0.0005135665
000040 80 77 ed 3b 6c 2d 37 be 13 8e e3 3e 88 7b c8 be
       0.0072469115 -0.17888421 0.44444332 -0.39156747
000050 0f 5f 6d be 11 30 23 3f 2b 09 b5 be b6 49 19 37
       -0.23180793 0.6374522 -0.35358557 9.136673e-06
000060 9e fb 79 ba 65 8c 97 3d 78 85 c6 bd af 3b 6b bd
       -0.000953609 0.07399825 -0.09693426 -0.057429966
000070 00 fc cc 3c 84 70 df 3c 80 9a a2 3d e2 8f 2b b9
       0.025022507 0.027275331 0.07939625 -0.00016361431
000080 4a ec 64 3b c0 1c 0a bf ac a8 47 3f 86 2e c3 be
       0.0034930878 -0.5395012 0.7799175 -0.38121432
000090 0d 21 e7 be fa 8a 07 3f 04 40 37 3f 51 b0 c6 3a
       -0.45142403 0.52946436 0.71582055 0.0015158748
0000a0 10 bd 58 be 9b 03 03 3e 4b 3e 83 3e a4 1c 9e 3d
       -0.21165872 0.12794344 0.25633463 0.077203065
0000b0 88 d5 2b be fe 2a 5d 3e 91 6e eb bd fa 5a 79 bc
       -0.16780674 0.21598431 -0.11495698 -0.015219444
0000c0 1c 74 a8 3a 82 b2 12 bd 88 85 00 bd 5a a2 55 bd
       0.0012851986 -0.03581477 -0.031377345 -0.052156784
0000d0 ab 4b 31 3e 2b 9f 6a 3e 34 0c ae 3e 04 48 1a bb
       0.17314021 0.2291228 0.33993685 -0.002354146
0000e0 39 23 43 bb 78 1f 00 3f 68 2f 0c bf 31 4d d3 3e
       -0.0029775633 0.5004802 -0.54759836 0.4126983
0000f0 5f 67 af 3e 4e 6c bc be e6 6c 06 bf 8a 5a f4 38
       0.34258553 -0.3680138 -0.52509916 0.00011651691
000100 45 5d 3a 3c da b6 21 3e 1c 37 bb bd 04 24 48 3d
       0.011374776 0.15792409 -0.09141371 0.048862472
000110 d8 9d b2 3c 7b 1c 82 3d f2 2b 1e 3d 15 3b 49 3b
       0.021803781 0.063530885 0.03861613 0.0030705382
000120 ef 96 b5 bb 09 f7 4c bd f3 f5 62 be cc 5b 97 bd
       -0.0055416743 -0.05004028 -0.22164135 -0.07390556
000130 ea 51 66 3d 19 f6 73 3c 75 1f bf 3c 73 53 8f ba
       0.056230463 0.014890217 0.02333043 -0.0010934904
000140 bc f8 a1 3b a2 b0 10 be c0 c0 94 3e 4b f4 b7 be
       0.0049429815 -0.1412988 0.29053307 -0.35928568
000150 a3 62 02 be aa a3 10 3f 97 a0 cb be 6a 9e 5d b7
       -0.1273294 0.5649973 -0.39770958 -1.320951e-05
000160 18 6a 3c bc 73 50 7e 3c c5 7c ba 3e 88 b1 9c 3e
       -0.011499904 0.01552211 0.36423317 0.30604196
000170 0d 60 08 3e 4e d9 da 3e 5b 89 af 3d 69 2c dd 38
       0.1331789 0.42743915 0.0857112 0.00010546373
000180 a6 36 39 b9 b7 94 7d bd 0a 57 d0 3e 4e bb 17 3e
       -0.00017663333 -0.061909404 0.40691406 0.14817545
000190 55 e1 da bd ed 66 ad 3d 69 65 30 bf 21 0c e6 3a
       -0.1068751 0.08466897 -0.6890474 0.0017551222
0001a0 d5 ca 03 3d fd 80 20 3e 8e c7 5b be ad ad 0b be
       0.032175858 0.15674205 -0.21462843 -0.13640471
0001b0 fa d4 f8 bd 8d 10 92 bc 42 98 7e be f6 17 5e 3c
       -0.12149997 -0.017830158 -0.24862769 0.013555517
0001c0 98 2c d4 bb 63 3e 19 3e 52 ca e9 be f8 d6 c4 3e
       -0.0064750426 0.14965205 -0.4566217 0.38445258
0001d0 96 e7 a8 3e b3 be 0d bf d1 9a e8 3e 86 9e 22 bb
       0.32989186 -0.5536911 0.45430616 -0.0024813726
0001e0 3a 68 63 bb 4e ea 74 3e 16 e1 b7 be c5 3c 7c 3e
       -0.0034699575 0.23917505 -0.35913914 0.24632557
0001f0 3d 2b 76 3e 74 e8 7d be d9 5f a6 bc cd 63 2f b8
       0.24039932 -0.24795705 -0.020309376 -4.1816198e-05
000200 10 d7 cd b8 ef e3 f4 bd 1f b5 0d 3e fb 97 bd 3c
       -9.81522e-05 -0.119575374 0.13838623 0.023143759
000210 f8 3f a7 bc c3 82 0b be 12 4b d2 3d 32 06 46 b7
       -0.020416245 -0.136241 0.10268225 -1.1803162e-05
000220 70 98 62 3b 7f 51 a3 3d 77 1b 20 be f8 02 02 be
       0.0034575723 0.079745285 -0.15635477 -0.12696445
000230 6a d5 b5 bd 4e 5c 9e bc 04 c4 9c 3e d3 a0 8b 37
       -0.08878596 -0.019331124 0.30618298 1.664498e-05
000240 ec 35 5a 3b 11 f3 ba be 83 34 1a 3f 9c b1 d3 be
       0.00332963 -0.3651357 0.60236377 -0.41346443
000250 cf 9d c7 be 76 6d 0b 3f 6a 8b c5 3e 69 c5 86 37
       -0.38987586 0.544639 0.38582927 1.6065971e-05
000260 b4 06 df 3b 54 ec 02 3c b5 f8 91 bd be cb f6 bc
       0.006806219 0.007990915 -0.07127515 -0.030126449
000270 7c 75 fc bd c5 f9 1c be bb df c3 3e 71 86 0d 38
       -0.12327096 -0.15329655 0.3825663 3.3742228e-05
000280 61 77 c1 ba 52 c9 5f be 6f 1b 57 3e b2 b6 ab bd
       -0.0014760309 -0.21854141 0.21006559 -0.08384456
000290 77 10 ae bc b8 3e ed 3d 33 87 cc bd 35 e9 0c b7
       -0.021248085 0.11584228 -0.09986725 -8.398948e-06
0002a0 69 93 a9 3b 6c aa da bd bd 7e d6 bd bc 25 44 be
       0.0051750434 -0.10677037 -0.10473392 -0.1915502
0002b0 db c4 ff bd 53 0d ab bd 23 b8 17 3f ed 93 d9 b6
       -0.12488719 -0.08352151 0.59265345 -6.484325e-06
0002c0 3f 77 93 3a c7 cc 08 3d 9a e3 ad bd 04 e0 21 be
       0.0011250748 0.033398416 -0.08490677 -0.15808111
0002d0 62 0a 4b bd 66 1d 8f 3d 58 4f f4 3d ae 5c b3 b6
       -0.04957045 0.06988029 0.11929196 -5.345405e-06
0002e0 a7 78 79 b9 85 b8 23 be e2 1a 3b be ad e3 11 be
       -0.00023791437 -0.15988357 -0.18271974 -0.14247008
0002f0 6e ab 1b 3b 6d eb 6e bd 36 35 de 3e 4c 44 00 b8
       0.0023753303 -0.05832999 0.43399972 -3.0581185e-05
000300 5c aa 6d 3b e3 98 aa 3c 4f 95 55 3d bc dc 03 3d
       0.0036264872 0.020824855 0.052144345 0.03219293
000310 e1 79 e0 bc f1 85 af bd 73 ea 01 3e 1f 64 9f b7
       -0.027401866 -0.08570469 0.12687092 -1.90009e-05
000320 74 e1 cf b9 c6 06 af 3d 36 2d 65 be 54 ce 2a bd
       -0.00039650092 0.08546214 -0.22380528 -0.041700676
000330 8f 06 b0 bc 95 75 47 be 43 df 88 bd 4c b7 47 bd
       -0.021487502 -0.19478448 -0.06683209 -0.04875879
000340 16 e0 99 bb dc 93 dc bc 45 47 5d 3e af 48 83 3c
       -0.0046959026 -0.026925974 0.21609218 0.01602587
000350 69 c7 86 3d 1c 46 10 3d ac ad 48 be 1e 99 1e b8
       0.06581003 0.03522311 -0.195975 -3.7812737e-05
000360 0e 4f 0c bb b8 e1 bd bd 16 b8 1a be 3b 72 e2 bd
       -0.0021409425 -0.09271568 -0.15109286 -0.11056944
000370 61 21 b0 bd ca 5d 05 be 84 c9 61 be 51 f1 49 be
       -0.086001165 -0.13024059 -0.22049528 -0.19720961
000380 d1 ae 08 bc 43 4c 22 3c a7 11 19 3e a9 b0 80 3a
       -0.008342461 0.0099058775 0.1494814 0.0009818274
000390 c8 93 5f 3d f4 1d 27 bd 57 ef f2 bb c9 5c 59 bd
       0.054584295 -0.04080005 -0.0074137854 -0.053067002
0003a0 c0 8d 3c ba 5d e9 33 3e ce 04 3a 3e 48 bb 68 3e
       -0.0007192753 0.1756949 0.18165895 0.22727692
0003b0 42 02 3e 3d 69 4a a5 ba 4b c9 37 3e 43 d6 bf 3c
       0.046388872 -0.0012610677 0.17947881 0.023417598
0003c0 41 0d 3c 3c 88 47 8c bd 45 1b 83 bc 8d b5 76 bd
       0.011477769 -0.06849581 -0.016004214 -0.060231734
0003d0 8e a6 a6 3d e5 0e 7c 3e 97 f0 af 3e af 9d a3 3b
       0.081372365 0.24615057 0.34363243 0.0049931626
0003e0 a8 ab 60 38 d4 9f 0a 3e 97 a7 06 3e 78 c3 7b 3d
       5.356563e-05 0.13537532 0.13149868 0.06146571
0003f0 22 9e ef bd 7b 5d 56 3d ef 3e c9 3d ac 2d 50 b8
       -0.11700083 0.052335244 0.09826457 -4.96336e-05

bias f4 [32]
000000 cd f4 54 be 65 e8 c8 be b5 7d b7 bd 8c f4 9e 3d
       -0.20796509 -0.39239803 -0.089595236 0.07761487
000010 25 32 a4 bc 32 a6 9f 3e 0e 5b e3 3e 61 40 b8 3d
       -0.020043442 0.31181484 0.44405407 0.08996654
000020 19 fe 0d 3d 08 2f f8 37 d8 13 87 bd 30 6b 2a 3f
       0.034666155 2.9585804e-05 -0.06595582 0.66569805
000030 1e ca fc bd 23 22 b4 be 60 9d b6 3d 3b 08 4d 3e
       -0.12343238 -0.35182294 0.08916736 0.20022671
000040 9e 9e e1 bd cf 31 73 3d f6 b5 c2 3c b9 7c d1 bd
       -0.11016582 0.059373673 0.023768406 -0.10228867
000050 2f b6 42 3d 80 13 98 3d a1 14 34 3e e1 8f 0f be
       0.047537025 0.07425594 0.17585994 -0.14019729
000060 ee 83 98 bc c5 79 56 3b 96 ce 84 3d 05 8f 62 bc
       -0.018617596 0.003272639 0.06484716 -0.013828044
000070 de af f2 bd 00 37 db 3e d7 60 b7 3e 37 35 3f 3e
       -0.1184995 0.428154 0.3581607 0.18672644

weight f4 [32, 2]
000000 69 a6 95 3c 21 9a 80 be eb ab 74 3d 32 91 41 be
       0.018267827 -0.2511759 0.059734266 -0.18903044
000010 01 f6 35 3b 8f 4a bd 3e ac d4 84 bd fa 2b 51 3e
       0.0027765038 0.36970946 -0.064858764 0.20426932
000020 eb c9 61 bb ba 58 55 3a 57 14 3c bd 15 25 08 bf
       -0.0034452628 0.00081385265 -0.045917835 -0.5318158
000030 db 3e 4b bc 96 a4 b5 be 45 97 f6 3c 90 fa 91 be
       -0.012405123 -0.35477132 0.030101428 -0.28511477
000040 3d 89 df 3b 40 31 d6 36 22 8a 30 bc da a0 93 3e
       0.00682178 6.3834304e-06 -0.010775121 0.28833658
000050 51 61 b0 bb 20 6b 84 3b c9 2f 35 bb 19 95 2d 38
       -0.005382695 0.0040410906 -0.002764689 4.1385272e-05
000060 98 81 2a bb 60 10 b3 36 30 4f 77 3b da 3a 9e 3a
       -0.0026017185 5.336522e-06 0.0037736408 0.0012071982
000070 98 b2 14 3b 65 a5 67 b9 f6 10 9b bb 64 56 0e bb
       0.0022689458 -0.00022091491 -0.0047322465 -0.0021718973
000080 64 e7 1d bb a6 7d 88 b7 cb fe e6 3b 04 86 a2 be
       -0.0024094218 -1.6270973e-05 0.0070494167 -0.3174287
000090 43 a6 56 3b 49 1b 00 3a 5d 4a 31 bb 64 47 ea 39
       0.0032752908 0.00048868783 -0.002705238 0.00044685148
0000a0 32 d6 21 bb 80 01 09 b9 04 a7 18 bb 8a 02 39 39
       -0.002469432 -0.00013065897 -0.0023292908 0.00017643921
0000b0 38 87 c3 3b fc d9 0c bb 79 a8 1e 3b 37 b8 57 b9
       0.005967047 -0.0021492233 0.0024209304 -0.00020572623
0000c0 63 c3 ab 3c 3f bd 97 be 94 7a a3 3c 27 93 02 bf
       0.020967191 -0.2963657 0.01995591 -0.51005787
0000d0 7e 8e 18 bb ef 87 93 39 d2 02 0d 3b 6a d9 79 3a
       -0.0023278291 0.00028139303 0.0021516574 0.00095309934
0000e0 13 54 30 bb 23 c1 b8 3a 83 6d 55 3d d3 78 1b be
       -0.002690558 0.0014095645 0.05210639 -0.1518281
0000f0 01 3e 6e bd cc dd 17 3d 6c 44 5c 3b 34 58 7e 39
       -0.0581646 0.037076756 0.0033610119 0.00024256186

bias f4 [32]
000000 16 19 61 3e 32 18 9c 3e 87 4e 01 be 4c dc c7 be
       0.21982226 0.3048721 -0.12627612 -0.3903526
000010 f9 40 2f 3a 5a 63 1f bb a7 4b 4b 3d 57 6c 69 3e
       0.0006685402 -0.0024320693 0.049632695 0.22795235
000020 46 0b cc 39 08 44 10 be 5d b5 6c bd a6 2f 00 b9
       0.00038918311 -0.14088452 -0.05779015 -0.00012224782
000030 28 07 01 b8 4a f9 df 39 e5 4f 1d b9 04 37 7f 3a
       -3.076266e-05 0.0004271961 -0.0001500245 0.0009735676
000040 d4 09 b3 b7 c8 cc 2a 3e 62 57 a3 39 2c e2 b0 39
       -2.134304e-05 0.1667968 0.00031154888 0.00033737847
000050 96 59 45 b9 40 e6 e2 38 ca bd 9d 39 38 ae fc b8
       -0.00018820757 0.00010819407 0.00030086777 -0.00012048747
000060 c0 39 40 3e 72 4f 8b 3e ec 8d 4a 39 d4 7b 4b 39
       0.1877203 0.2720905 0.00019317091 0.00019405718
000070 90 33 82 bc 33 e1 a1 3e 01 42 8f be 93 00 59 39
       -0.015893728 0.31617126 -0.27980044 0.00020694947

weight f4 [32, 128]
000000 19 a7 b9 bb 4f c6 dd bb cf 87 ad b9 56 d0 6a 3a
       -0.0056656715 -0.006768025 -0.00033098317 0.0008957436
000010 3e 01 b4 39 09 9d 04 3b 2a 77 69 3b 7c ba c6 3a
       0.000343332 0.0020235202 0.0035624006 0.0015161778
000020 a6 24 4b 3b e0 3d 84 bb 81 e2 57 ba e4 0f ec 3b
       0.0030997186 -0.0040356964 -0.0008235351 0.0072040427
000030 c6 14 86 ba b4 a0 d2 3b f6 12 3e 3a 86 ee 2f 3b
       -0.001022958 0.0064278487 0.000725075 0.0026845052
000040 ed fd f7 ba 12 95 d9 39 42 f3 d7 39 7c ba 84 ba
       -0.001892028 0.0004150053 0.00041189237 -0.0010126377
000050 69 c2 1e ba 9c 01 e1 39 bb be b4 38 a6 68 63 bb
       -0.0006056191 0.00042916543 8.618595e-05 -0.0034699827
000060 4f 84 15 b9 4a d5 96 3b 3c 39 9d 3a df ed 18 bb
       -0.00014259036 0.0046030628 0.0011995207 -0.0023335142
000070 78 64 95 3c 0a d5 4a 3a dd 14 a7 3b 85 ed ee 3b
       0.018236384 0.0007737434 0.0050989226 0.007291498
000080 b6 e0 81 bc aa e5 91 bb 08 c1 06 3c 1e 7f 0f 3b
       -0.01585422 -0.004452427 0.008224733 0.0021895836
000090 78 19 26 3b b0 b2 3b 3c a5 15 79 3b 3c bc e4 ba
       0.002534477 0.011456177 0.0038007286 -0.0017451118
0000a0 a6 cb 67 3b ae 06 47 b8 ed ad e4 3b a3 92 34 3b
       0.0035369187 -4.745152e-05 0.0069787414 0.0027553223
0000b0 62 1d ce bb a9 b2 82 3c 4f d3 e9 bb de 73 c8 b9
       -0.006290124 0.015954332 -0.0071357857 -0.000382333
0000c0 98 07 92 bb f4 4a 1a 3b 5a 90 d1 3b e1 3c b1 b9
       -0.0044564717 0.002354321 0.006395382 -0.0003380543
0000d0 3d b3 18 bb 84 67 b9 3a 75 74 71 3b 73 db 33 3a
       -0.0023300194 0.001414523 0.0036843095 0.00068610086
0000e0 e8 53 6a ba 4d b9 55 3b 43 33 68 ba 01 ed 6f bb
       -0.00089388946 0.0032611669 -0.0008857736 -0.0036609771
0000f0 cc 97 cd 3b d6 72 f0 ba a5 66 c2 3b 25 7d 8b 3b
       0.006274199 -0.0018344771 0.0059326463 0.0042568618
000100 69 30 39 bc d0 7c 90 bb 9b 1b 53 3a 26 96 1a 3a
       -0.011303046 -0.00440941 0.0008053125 0.00058970076
000110 e5 f3 7f ba e6 19 14 3c 89 8e 28 3b 6e 55 a2 3a
       -0.0009763821 0.009039378 0.0025719723 0.0012385079
000120 fb 72 30 3b 6a d3 7c ba a5 0c 54 3a 79 40 88 3b
       0.0026924002 -0.000964454 0.00080890424 0.0041580764
000130 50 ed fb ba 2f 34 01 3c 87 12 fe b9 ac 28 c7 3a
       -0.0019220505 0.007885977 -0.0004846046 0.0015194616
000140 69 d5 fc ba 23 89 23 3a 2c 99 3b 39 3b 2f 7e b9
       -0.0019289675 0.00062383915 0.0001789077 -0.00024240922
000150 34 89 93 b9 82 6a 27 3a 77 7e 49 3a b4 98 64 ba
       -0.0002814025 0.00063864153 0.0007686386 -0.00087202643
000160 7e 35 5c b9 49 bc 2f 3b 38 66 83 b9 2a bb 50 bb
       -0.00021000762 0.0026815108 -0.00025062426 -0.003184984
000170 ea 4c 44 3c 19 ce 67 ba 6c 51 80 3b ee 93 83 3b
       0.011981228 -0.00088426616 0.0039159562 0.0040154373
000180 fd d6 5e bc 5f 08 b8 bb 96 0d d5 3b f3 fd 9c 3a
       -0.013601062 -0.0056162323 0.0065018637 0.0011977538
000190 68 33 f7 3a cb 00 12 3c a0 79 9a 3b 27 ae 40 ba
       0.0018859925 0.008911322 0.004714206 -0.00073501695
0001a0 e8 8e 3a 3b ca 1f 8e b9 f6 82 b1 3b 09 1a 8c 3b
       0.0028466526 -0.00027108035 0.005417223 0.0042755646
0001b0 04 69 90 bb 30 80 65 3c 34 7c b7 bb 4c 13 2a 3a
       -0.00440705 0.014007613 -0.005599523 0.0006487861
0001c0 8a 75 7b bb 9a 3e bd 3a f9 e7 a5 3b ae d6 23 ba
       -0.003836962 0.0014438212 0.0050630537 -0.00062499463
0001d0 0f 3d b2 ba cb 26 48 3a 79 67 52 3b 71 7c 63 ba
       -0.0013598519 0.0007635175 0.0032105132 -0.0008677906
0001e0 9d ac 2f ba 29 7c 26 3b a0 57 61 b9 d0 d4 86 bb
       -0.00067014416 0.0025403595 -0.00021490315 -0.0041147247
0001f0 3e dd f1 3b 18 74 c5 b9 17 14 da 3b 54 13 95 3b
       0.0073811105 -0.00037661265 0.006655227 0.004549423
000200 52 b8 bf bd 65 3b b9 3d c8 da 02 3d 46 e7 b2 bc
       -0.09361328 0.09044532 0.031946927 -0.021838795
000210 94 7a 7a 3c 9e bc 17 3d 1f a8 69 3d 02 29 fc bb
       0.015288014 0.037045114 0.0570451 -0.007695318
000220 fb 31 38 3d 26 05 08 3d b4 e0 a4 3c b9 8d c4 bd
       0.04496954 0.033208035 0.020126678 -0.09597344
000230 48 ed d8 39 6d 2e bc 3d 05 c6 40 3a 54 85 6e 39
       0.0004137552 0.091885425 0.0007353726 0.00022747117
000240 f3 9f f3 bc 7f 88 08 3d 23 d3 18 3d cf e8 6e 3d
       -0.029739356 0.033333298 0.03731073 0.058327492
000250 15 f5 23 3c 69 c8 e5 3c e2 c9 15 3b b2 1c da 3b
       0.010007163 0.028049665 0.0022855927 0.006656253
000260 2e 58 01 bd 3b 4c b1 be 6c 0d b1 bc c5 1c dc be
       -0.031578235 -0.34628472 -0.021612845 -0.429907
000270 a0 04 85 be 59 78 45 3e 1a ff cc 3d 9c 83 81 bc
       -0.2598009 0.1928419 0.10009594 -0.015809827
000280 39 6f 76 3d d5 35 16 bd 2a 7f 43 3c fe bb cc bb
       0.060164664 -0.036672432 0.011932174 -0.0062479964
000290 27 4c 9d bd 90 99 ad 38 95 8d 70 3d 0e 6f 89 3d
       -0.076805405 8.277886e-05 0.058728773 0.06710635
0002a0 7f 15 5c 3d fe 42 15 3d 1c d5 91 3c 84 c1 28 bc
       0.053731438 0.03644084 0.017801814 -0.010300044
0002b0 12 32 21 bd c5 60 58 3d d4 b8 0a 3b ec fb 09 3d
       -0.03935439 0.05282666 0.0021167295 0.033687517
0002c0 28 42 76 bc 9f 80 ba 3c 0a 36 09 bd d8 cc ff 3c
       -0.015030421 0.02276641 -0.0334988 0.031225607
0002d0 49 88 5b bc 73 82 89 3c 4f 1b c0 3c df ad f1 3b
       -0.013399192 0.016785836 0.023450522 0.0073754634
0002e0 bb 5c d0 ba b4 e5 c7 be ce d3 36 bd 55 bb 07 bf
       -0.0015896776 -0.39042437 -0.044635586 -0.5302022
0002f0 f0 f9 ea be 84 b6 51 3e 43 75 bf 3d c2 de e5 bc
       -0.45893812 0.2047978 0.09348538 -0.02806032
000300 36 e7 bd 3d 24 10 c0 bd 73 0a 4e 3d bf 69 2f 3c
       0.092726156 -0.093780786 0.050302934 0.010706364
000310 51 be 22 bd c7 db cd bd 4e 02 2d 3e 48 ab 72 3d
       -0.03973228 -0.10051685 0.1689541 0.059245378
000320 7f 43 a0 3d 91 fb 09 3c 39 d4 58 3d 65 45 12 3b
       0.07825374 0.0084217945 0.052936766 0.0022319194
000330 cb 11 f3 bc 8e 23 08 3d a0 1f 05 bd 24 fc 28 3d
       -0.02967157 0.033237033 -0.032500863 0.041256085
000340 7e 0f 59 bd 36 2f da 3c c4 a4 86 3c 9a 1c bf bc
       -0.05299329 0.02663384 0.016435988 -0.023329068
000350 a8 ee b0 3c a6 5a a6 3c 22 28 9e 3d ec ac 84 bd
       0.021598175 0.020306896 0.077224985 -0.06478295
000360 0b 9e c7 bb 24 ad b5 be ed 22 98 3b 3d ca 02 bf
       -0.0060918382 -0.35483658 0.0046428354 -0.5108984
000370 ba 9a 9b be 11 54 87 3e a6 fa 2d 3e 0e 53 4f bd
       -0.30391484 0.26431325 0.16990146 -0.050616316
000380 fe 30 42 3c e9 1f c2 bd 51 12 da 3c 97 84 eb 3c
       0.011852501 -0.09478743 0.026620062 0.028749747
000390 b4 7e 07 be 20 12 ac bc 06 73 bb 3d e1 12 00 3e
       -0.13231927 -0.021004736 0.09152798 0.12507202
0003a0 15 dd 45 3d 9f 3b e2 3c db 25 02 3d 8f 13 88 3d
       0.048306543 0.02761632 0.031774383 0.066443555
0003b0 03 26 34 bc 81 88 2c 3d 81 51 cb bc 62 3c 95 3d
       -0.010995391 0.042122368 -0.024819138 0.07286908
0003c0 d0 0e 90 bd 5a 8a d5 3c 1b 67 4f bd 6f 88 e0 bc
       -0.07034075 0.026066948 -0.05063544 -0.027408807
0003d0 9b c4 cc bc c7 d3 20 bd a2 bb 36 3d d7 aa a2 bd
       -0.024996093 -0.039264467 0.044612534 -0.07942741
0003e0 ce 90 9c bc 77 60 86 be fa 8e de 39 da 5b ef be
       -0.019112017 -0.26245472 0.00042449665 -0.46749765
0003f0 8b 48 b1 be c8 08 50 3e 18 5e ac 3d 03 f1 98 3c
       -0.34625658 0.2031585 0.084163845 0.01866961

bias f4 [32]
000000 23 d6 31 bd 64 38 14 3c 0f 73 69 bd ae f0 c9 3c
       -0.043417107 0.009046648 -0.056994494 0.024650898
000010 09 e0 7a bc 28 57 20 be 38 d5 70 3e 7b 77 2d bc
       -0.015312203 -0.15658247 0.23518836 -0.010587568
000020 ff d1 7f 3d be 30 14 3d e0 b2 eb bb 83 04 83 3e
       0.062456127 0.036179297 -0.0071929544 0.2558938
000030 ec 06 d2 bc 0b 1d eb 3d c0 36 d4 bd dc a5 94 bc
       -0.025638066 0.11480149 -0.10362005 -0.018145494
000040 35 38 b6 bd 79 9b 21 3e 35 77 da b9 17 a6 21 3c
       -0.088974394 0.15781964 -0.00041669016 0.009866259
000050 45 45 6b be 86 cd ff bc 43 79 30 bc c1 c8 57 be
       -0.22975643 -0.03122593 -0.010771099 -0.21072675
000060 bc d9 03 be e6 4f 1a bd 2e 59 0b bc 24 0c e1 bb
       -0.12876028 -0.037673853 -0.008505149 -0.0068679024
000070 04 76 3b 3d a6 b0 e1 bb b4 9b 49 bd 15 28 d9 bc
       0.045766845 -0.006887513 -0.049220756 -0.02650837

weight f4 [32, 128]
000000 f1 25 62 3b a7 f7 c6 3d 52 0d a1 3d 4e 14 01 bf
       0.0034507478 0.09715205 0.07863869 -0.5042161
000010 f6 03 2c b9 f8 ad d3 3e 23 30 94 be 63 fa 64 3a
       -0.00016404674 0.41343665 -0.28942975 0.00087348203
000020 00 e8 9c 3e 4a 2a 0c 3e 5a ea 3d ba b0 ac 90 3a
       0.30645752 0.13688007 -0.0007244699 0.0011037793
000030 49 d2 ab b9 c9 9d c5 bd 8e b2 03 3e 06 c3 4c be
       -0.00032772336 -0.09649236 0.12861082 -0.1999627
000040 40 e0 e8 be c5 17 8b 3d 50 5b 29 36 47 41 40 3d
       -0.4548359 0.06791643 2.5236113e-06 0.046937253
000050 45 9f 1d 3e aa 88 c7 3b de 53 9e 3d ac 25 e1 3d
       0.15392788 0.0060892897 0.0773084 0.109935135
000060 05 b5 83 be cb cf 45 3b de 0b 88 38 aa 68 82 37
       -0.25724044 0.0030183669 6.487196e-05 1.5545946e-05
000070 a0 e1 fe 3d 17 b1 de b8 3a 76 08 be 4e e4 92 3a
       0.12445378 -0.000106187705 -0.1332635 0.0011206956
000080 a3 ca 22 3b 7f ef 3e 3d e4 12 57 3e c3 64 75 be
       0.002484002 0.04661512 0.210033 -0.23964219
000090 60 e4 f9 b8 20 b6 b4 3e b5 0c 19 be f0 11 7e 39
       -0.000119157834 0.352952 -0.14946254 0.0002423001
0000a0 e1 85 a4 3e a0 bc f6 3d b7 15 9c b9 50 4e 13 bd
       0.32133391 0.12047696 -0.00029770817 -0.035963356
0000b0 b0 2c 8c b9 ca 97 b9 39 8c ba 01 3e c7 18 0f be
       -0.00026736176 0.0003539904 0.12668818 -0.13974296
0000c0 a0 66 87 be e9 d5 11 3d 98 46 bf 34 3b 27 ba bc
       -0.26445484 0.03560439 3.5627886e-07 -0.022723785
0000d0 63 52 a7 3e 53 e8 65 3b 07 ed 66 3d 81 e4 e9 3d
       0.32680044 0.0035081103 0.05637839 0.11420537
0000e0 9a e2 2f be 24 62 0c 3a 04 0a 5e b7 f4 07 5c 37
       -0.17176285 0.00053552 -1.3234563e-05 1.3114874e-05
0000f0 92 19 84 3d 80 20 06 b8 2f 4b c0 3c f8 07 42 3a
       0.0645019 -3.1978358e-05 0.02347335 0.00074017
000100 4c 03 61 3b 9f ec a2 3c 36 9a 41 3e 72 fa 99 be
       0.003433424 0.01988822 0.18906483 -0.30073887
000110 a5 62 17 b9 8f cf bb 3e dd 00 0b be 1f 30 84 3a
       -0.0001443723 0.36681792 -0.13574548 0.0010085142
000120 10 22 81 3e b9 bf d5 3d 90 56 09 ba d0 41 c3 3c
       0.252213 0.10436959 -0.0005239034 0.023835093
000130 d2 78 55 b9 12 a6 2e 3d ec 14 eb 3d 56 18 fb bd
       -0.00020358272 0.042638846 0.114786 -0.12260501
000140 8d b8 60 be e2 2c b9 3d e7 0a 38 36 83 f3 24 bd
       -0.219454 0.09041764 2.7424483e-06 -0.040271293
000150 98 63 b9 3e 61 78 af 3b 4f 93 03 3d 75 e1 e0 3d
       0.36208797 0.0053549265 0.032122906 0.109805025
000160 18 6f 1d be b0 d3 1e 3b 1c 20 ed 37 02 5a cd 37
       -0.1537441 0.0024235062 2.8267554e-05 2.4479818e-05
000170 2a b7 3d bc 78 1b 89 b8 19 9d 00 3d f2 82 70 3a
       -0.011579314 -6.5377855e-05 0.03139982 0.0009174786
000180 b4 8f 29 3b b7 21 d8 3b 0c b7 65 3e 1f 45 46 be
       0.0025873007 0.006595816 0.22433108 -0.19362305
000190 14 89 9b b8 a8 5f 90 3e 24 62 d1 bd e6 b5 cf 39
       -7.416509e-05 0.2819798 -0.10223797 0.00039617642
0001a0 ef 11 81 3e 0c a9 14 3d e3 66 9b b9 70 02 92 3d
       0.25208995 0.03629403 -0.0002964056 0.07129371
0001b0 0c d1 07 ba 30 25 3b 3d b6 66 e9 3d 3c 06 b7 bd
       -0.0005180992 0.04568976 0.11396544 -0.08936736
0001c0 ab 36 7b be 0f 22 ea 3d 1d 9b 8d 35 de 81 51 bd
       -0.24532573 0.114322774 1.0550463e-06 -0.05114924
0001d0 1c fe b3 3e 20 70 7a 3b e9 07 52 3d fb a6 e7 3d
       0.35154808 0.0038213804 0.051277075 0.11311146
0001e0 d8 da 29 be 5c b2 c2 3a 0d 2e 25 b8 02 42 6c 37
       -0.16587389 0.0014854181 -3.9381954e-05 1.4082065e-05
0001f0 66 c2 02 3c 5c 08 11 b8 e4 08 f8 3c ec 4d 4b 3a
       0.0079809185 -3.457848e-05 0.030277677 0.0007755447
000200 cb 84 9f ba f0 55 ef bd 90 45 ef bd 74 e9 af bd
       -0.0012170313 -0.11686313 -0.1168319 -0.085894495
000210 a5 b7 cb 39 44 84 4a 3e 26 c9 e5 bd 5c 4c da b8
       0.00038856003 0.19777018 -0.11220007 -0.00010409273
000220 22 ea 69 3c 28 55 4e bd 72 49 92 38 14 81 9b bb
       0.014277013 -0.05037418 6.975503e-05 -0.004745612
000230 9f 6d d0 3a f3 ac 56 3d ef fe 05 3f ce 51 40 bd
       0.001590181 0.05241103 0.5234212 -0.046953015
000240 d6 98 08 be ac 5d 58 bd 46 83 c4 b6 4b 3c 58 3c
       -0.13339552 -0.052823707 -5.8565374e-06 0.013197969
000250 38 6a c6 3d 20 0e a2 3b 9d b6 10 3d 22 34 85 3e
       0.09688228 0.0049455315 0.035330404 0.26016337
000260 64 92 dc bd 6b 28 1c 3c df d7 21 38 f8 0d e0 b8
       -0.10770109 0.009531121 3.8586437e-05 -0.00010683754
000270 48 87 b3 bd b8 d9 a1 b7 27 f3 5d bd cd 57 27 38
       -0.08766037 -1.9294079e-05 -0.054186966 3.9897674e-05
000280 61 1a bc ba 18 a7 d5 bd eb 8d 9d bd 59 7e d9 bd
       -0.0014351123 -0.10432261 -0.07693084 -0.10619802
000290 3f 3f aa 39 00 8f 60 3e fc e4 22 bc b8 3c f3 b8
       0.0003247205 0.2192955 -0.009942289 -0.00011598453
0002a0 b8 92 94 3d d3 fa f8 3c 9c 9d 09 3a 7c e7 0d be
       0.07254547 0.03039304 0.0005249621 -0.13857836
0002b0 04 96 c8 3a 57 a2 e7 3c 1f 62 11 3f 73 d3 e3 bd
       0.0015303497 0.028275652 0.56790346 -0.11124315
0002c0 d2 2f e9 bd 28 15 17 be 2e 15 0e b7 76 11 be 3b
       -0.11386074 -0.14754164 -8.468791e-06 0.0058004213
0002d0 80 08 d8 3d 89 9e cc 3b b8 fd b4 3c b5 df 88 3e
       0.10548496 0.006244485 0.022093639 0.26733175
0002e0 6a 44 02 be b4 cd eb 3b a7 cd 7f 38 6f c4 10 b9
       -0.1272141 0.0071961526 6.0988266e-05 -0.00013806087
0002f0 4b 66 f3 bd 00 d3 dc b3 ae 89 28 3d d4 6e 46 b7
       -0.11884745 -1.0282929e-07 0.041146927 -1.1827524e-05
000300 18 c2 de ba 3e a5 9d bd 7b e3 5f bd 83 57 6c bd
       -0.00169951 -0.07697533 -0.0546603 -0.057700645
000310 55 68 7b 39 6b 8c 22 3e 32 4b de 3b bc 8e 48 b9
       0.00023976092 0.15873878 0.0067838663 -0.00019126659
000320 e4 74 ef 3c 0a f1 27 bd 1c 25 85 39 d9 6b 11 be
       0.029230542 -0.041001357 0.00025395385 -0.14201297
000330 93 c2 15 3b af ab 8b 3d 81 f6 10 3f 50 a4 0a be
       0.002285157 0.068198554 0.56626135 -0.13539243
000340 bf 1d 1d bd 83 23 1a be a4 79 c7 b6 98 f6 2f 3c
       -0.038358446 -0.15052609 -5.944823e-06 0.010739945
000350 4c e0 ce 3d f6 47 9c 3b f5 0f 91 3c 54 dd 89 3e
       0.10101375 0.0047693206 0.017707804 0.26926672
000360 60 37 bd bd df 8f e3 3b 40 fa 53 38 5c e2 d7 b8
       -0.092390776 0.006944641 5.0539384e-05 -0.000102941616
000370 89 ad d1 bd 8a 5d 36 b7 4b 4b db 3d b5 79 08 38
       -0.10238177 -1.0869824e-05 0.1070772 3.2538275e-05
000380 51 60 02 bb 31 5d 69 bd 78 09 c6 bc 15 ad 62 bd
       -0.0019893835 -0.05697364 -0.024174437 -0.055340845
000390 2a 47 75 39 46 19 20 3e 1b 00 d0 3c 5b de 4b b9
       0.00023391531 0.15634641 0.025390675 -0.00019442422
0003a0 3a 99 59 bb ba b3 59 bd 96 52 f8 39 41 e7 0d be
       -0.0033202902 -0.053149916 0.00047363777 -0.13857748
0003b0 1b 47 fa 3a 92 e4 79 3d a9 39 11 3f 6d c7 06 be
       0.0019094677 0.061008997 0.5672861 -0.13162012
0003c0 c7 e1 45 bc 6d 7a 28 be 22 61 07 b7 92 cb a6 3c
       -0.012077755 -0.16452952 -8.0692425e-06 0.020360742
0003d0 15 28 ef 3d 23 3c b9 3b 9f 23 b0 3c 50 92 8c 3e
       0.11677567 0.005652921 0.02150136 0.27455378
0003e0 d3 a0 79 bd b2 a0 e6 3b 7c 8b 30 38 04 bd 03 b9
       -0.06094439 0.0070381993 4.2091575e-05 -0.00012563547
0003f0 a3 e9 c6 bd 9d 9a 37 36 ff 11 c6 3d 2c 90 1f b8
       -0.097125314 2.7359122e-06 0.09671401 -3.8042825e-05

bias f4 [32]
000000 89 5c c7 3d 50 89 96 bd 51 39 ae 3d 98 19 dd b7
       0.097344466 -0.07350409 0.08507026 -2.6357171e-05
000010 c3 db 01 bb ef eb 5c bb e4 f3 1a 3e 98 dd 98 b9
       -0.0019814826 -0.0033709963 0.151321 -0.000291568
000020 7c 14 40 3d 78 ca d7 b1 bc 3f 98 3e 76 70 6e 3e
       0.046894535 -6.2803416e-09 0.29736125 0.23285088
000030 d9 3a 84 ba c3 1d 1b bd ee 30 7b 3e d0 2f cd b7
       -0.0010088339 -0.03787018 0.24530384 -2.4460169e-05
000040 4f 30 01 35 cd ca 4e bc 41 7a 91 3d b4 16 ad b9
       4.8126543e-07 -0.012621594 0.07103396 -0.00033014046
000050 05 82 a1 ba 14 ec 37 bd 36 08 95 3e 73 f8 02 b9
       -0.0012322074 -0.044902876 0.29107827 -0.0001249032
000060 11 22 bd b4 27 b8 6e b9 7b af 82 3e f1 e1 5b bc
       -3.522878e-07 -0.00022766051 0.25524506 -0.013420568
000070 34 c7 c6 bd 7f a5 24 b9 00 8e 02 b7 f7 71 50 bd
       -0.09705964 -0.00015701911 -7.781666e-06 -0.050889935

weight f4 [64, 128]
000000 5e da 4d bb 4d 4c a9 bb 54 ac 98 b8 98 01 3a b5
       -0.0031410675 -0.0051665665 -7.2800234e-05 -6.929272e-07
000010 f6 75 e1 b6 37 1e 44 b7 1a b0 97 bb 7c cc e0 b4
       -6.719255e-06 -1.1689545e-05 -0.0046291472 -4.1872033e-07
000020 89 a8 73 ba 38 c3 5d 2f 1f e8 49 bb 06 e6 f0 bc
       -0.0009294828 2.0169189e-10 -0.003080852 -0.029406559
000030 c2 91 6d b5 6c b7 5b ba 5a 03 ec bb cb 08 53 b6
       -8.8501486e-07 -0.0008381519 -0.007202548 -3.1446568e-06
000040 7b 89 ce b4 42 43 48 b9 ea ee 07 bc b2 8f 8b b6
       -3.847052e-07 -0.00019098542 -0.008296708 -4.159251e-06
000050 c0 d9 eb b2 55 6a 12 3c ea d1 42 39 8b ea ce b5
       -2.7456622e-08 0.008936484 0.00018579481 -1.5416457e-06
000060 60 d1 6d af 8b cb 6e b5 33 16 32 bc 7f 91 69 3a
       -2.162941e-10 -8.8958103e-07 -0.0108695505 0.0008909925
000070 e8 d6 b2 3b ea 00 85 35 6b 41 7c b3 13 10 74 bb
       0.0054577477 9.909538e-07 -5.873282e-08 -0.0037241026
000080 71 7b 8c bb 03 3d ac bb 95 d7 0e b9 77 a7 5c b5
       -0.0042871763 -0.0052562966 -0.00013622486 -8.220008e-07
000090 78 a4 d0 b6 b2 0e 3f b7 d9 d4 bd ba 33 cf ab b4
       -6.2180297e-06 -1.1387909e-05 -0.0014482989 -3.200199e-07
0000a0 2f 62 91 ba fa f1 55 2f d7 4c 96 bb c0 c4 f1 bc
       -0.0011091883 1.9458204e-10 -0.0045867967 -0.029512763
0000b0 d7 b8 21 b5 1b f2 43 ba 45 e3 ba bb 04 c8 58 b6
       -6.024615e-07 -0.0007474736 -0.005703362 -3.2302933e-06
0000c0 a7 5a 62 b4 d0 18 0f b9 c3 cd a4 bb 18 f3 83 b6
       -2.108087e-07 -0.00013646786 -0.0050294115 -3.932404e-06
0000d0 fc a2 4f b3 0b 5a 2c 3c f3 d9 05 3b 22 94 c9 b5
       -4.8344177e-08 0.010519515 0.0020424097 -1.5018779e-06
0000e0 1c 99 f3 b0 a3 22 14 b5 5a e8 2a bc cb d1 af 3b
       -1.7724093e-09 -5.51847e-07 -0.0104313735 0.0053655854
0000f0 03 5c 1d 3b 46 c6 96 35 4e 50 15 33 5a 37 b8 bb
       0.0024011142 1.1233576e-06 3.4764803e-08 -0.005621833
000100 01 54 85 bb 15 9d af bb bf fa c3 b8 37 0e 6e b5
       -0.004068852 -0.005359302 -9.34503e-05 -8.8682594e-07
000110 7d 26 e1 b6 96 66 42 b7 41 32 5b bb 5d 54 c4 b4
       -6.710003e-06 -1.1587186e-05 -0.0033446702 -3.6569227e-07
000120 5e a9 9e ba 2b b4 28 ae d3 6d 79 bb 31 a1 f1 bc
       -0.0012104919 -3.83588e-11 -0.0038059845 -0.029495807
000130 4c 8b 56 b5 f1 09 79 ba b6 4f d0 bb d6 0c 57 b6
       -7.9923916e-07 -0.00095000776 -0.0063571585 -3.2044968e-06
000140 52 88 b6 b4 05 a0 38 b9 ac f7 dc bb af 7c 86 b6
       -3.3999328e-07 -0.0001760722 -0.006743392 -4.0080263e-06
000150 8d e7 19 b3 b9 2c 1e 3c f5 a9 34 3a 8e 33 ce b5
       -3.5833683e-08 0.009654217 0.00068917806 -1.53632e-06
000160 f8 ac 6d b0 20 9a 5c b5 4b ba 3b bc f4 00 56 3b
       -8.64659e-10 -8.218067e-07 -0.01145799 0.0032654377
000170 88 c8 67 3b f0 6d 86 35 0a 20 24 33 45 22 b1 bb
       0.0035367329 1.0015774e-06 3.8213365e-08 -0.0054056966
000180 fb a3 90 bb 22 3a af bb a5 a9 06 b9 90 eb 18 b5
       -0.0044140792 -0.005347506 -0.00012842433 -5.69672e-07
000190 44 c7 d2 b6 78 23 3f b7 bb 46 e0 ba 78 72 af b4
       -6.2816853e-06 -1.1392745e-05 -0.0017110923 -3.2679577e-07
0001a0 4c 91 9c ba 14 ef 77 2f af c8 96 bb b6 f9 f2 bc
       -0.0011945157 2.2549457e-10 -0.00460156 -0.029660087
0001b0 33 67 2f b5 9e 68 69 ba a7 70 c3 bb be a7 59 b6
       -6.5342755e-07 -0.0008903834 -0.005964357 -3.2433159e-06
0001c0 00 a6 84 b4 24 67 19 b9 85 61 ac bb bb d3 80 b6
       -2.4707697e-07 -0.0001462964 -0.0052606487 -3.839346e-06
0001d0 d9 71 38 b3 69 f1 20 3c 5e f6 7e 3a 41 12 cc b5
       -4.2944382e-08 0.009823182 0.00097260426 -1.5204497e-06
0001e0 f4 a1 e1 b0 6e a8 63 b5 20 65 39 bc 54 0d 96 3b
       -1.6416934e-09 -8.480919e-07 -0.011315614 0.0045792256
0001f0 f5 2d 11 3b b8 e4 92 35 cf c4 17 33 10 73 b9 bb
       0.0022152637 1.0944414e-06 3.5336424e-08 -0.0056594685
000200 e4 70 e3 bd ab 4b 90 bd 14 67 c0 bb b2 b6 8f 36
       -0.111055166 -0.070456825 -0.005871663 4.2830006e-06
000210 78 41 fd b8 b6 c6 7d b8 a1 48 eb bc 49 c9 53 b7
       -0.000120761746 -6.0504964e-05 -0.028721156 -1.2623445e-05
000220 b5 4b 81 bd a9 d3 c0 af 85 1a 9a 3d cf a3 a8 3d
       -0.06313268 -3.507499e-10 0.075245894 0.08234369
000230 2e 45 28 b7 b3 6a 82 bd c2 21 1d 3e ec 7b 62 b7
       -1.00296875e-05 -0.063680075 0.15344909 -1.34995025e-05
000240 ff aa 86 b7 32 a2 26 bc f7 46 6d bd 89 cd 76 b7
       -1.6053671e-05 -0.010170506 -0.057929005 -1.47105975e-05
000250 bf e4 cf b7 8d 0e a2 bd 5c e4 34 3d cc 82 2f b7
       -2.4782841e-05 -0.079129316 0.044163093 -1.0461266e-05
000260 6a 6c c3 b3 ec f7 6f b7 15 dc 9d 3b 70 27 28 be
       -9.1001155e-08 -1.4303234e-05 0.0048174956 -0.16421294
000270 a9 f0 ec bd 33 21 23 b7 13 83 5e b5 61 e3 da bc
       -0.1156934 -9.723287e-06 -8.289218e-07 -0.02671975
000280 67 f5 a5 bd ab a5 9e bd a6 20 03 bc 37 19 ae 36
       -0.081034474 -0.077464424 -0.008003389 5.1885395e-06
000290 05 2b f0 b8 29 64 6e b8 e2 fb e0 bc c8 2c 31 b7
       -0.00011452105 -5.6836903e-05 -0.027463857 -1.0560449e-05
0002a0 84 f7 64 bd 85 69 9d af db ca dc 3d 44 5a 91 3d
       -0.05590011 -2.863311e-10 0.10780879 0.07097295
0002b0 30 a6 01 b7 ed 4f 7b bd ac 21 16 3e ee 3c 39 b7
       -7.727693e-06 -0.06135552 0.14661282 -1.1041046e-05
0002c0 7d 02 2a b7 5f 12 13 bc 8c d1 54 bd 81 13 39 b7
       -1.0133369e-05 -0.008976548 -0.051957652 -1.10314e-05
0002d0 70 4d b4 b7 b1 a6 b7 bd 90 38 48 3d 29 bb 11 b7
       -2.1493732e-05 -0.08967341 0.048882067 -8.68625e-06
0002e0 1b 2c ca b3 64 19 66 b7 d0 58 86 3c 4b 4b 14 be
       -9.414381e-08 -1.371498e-05 0.016399771 -0.14481847
0002f0 fe 17 ce bd d5 9a ff b6 9a 7a a0 b5 74 96 c1 bc
       -0.1006317 -7.617617e-06 -1.1956611e-06 -0.023631312
000300 db 23 d1 bd 9c 70 92 bd 7d 2a 12 bc b0 b5 a9 36
       -0.10211917 -0.07150385 -0.008921263 5.0577437e-06
000310 1a 4d ef b8 7c 04 64 b8 97 ce 0f bd 02 1a 41 b7
       -0.000114107694 -5.4363612e-05 -0.03510913 -1.1509752e-05
000320 36 42 75 bd ed 05 96 af ce b1 a2 3d 6c b7 a7 3d
       -0.059877597 -2.7289052e-10 0.0794407 0.08189282
000330 bc 86 14 b7 7f c3 82 bd c3 51 15 3e c0 2e 06 b7
       -8.852858e-06 -0.06384944 0.14581971 -7.997907e-06
000340 e8 f1 15 b7 2d e1 20 bc cb 04 88 bd 8f f2 02 b7
       -8.937415e-06 -0.009819311 -0.06641539 -7.805079e-06
000350 7f a1 c1 b7 73 55 a7 bd e4 55 22 3d c0 b1 f5 b6
       -2.3082595e-05 -0.08170595 0.039632693 -7.322262e-06
000360 b6 35 b9 b3 62 5a 8d b7 7a af e0 39 92 73 23 be
       -8.624504e-08 -1.6850598e-05 0.0004285535 -0.15962055
000370 89 b1 ec bd 6d 0d df b6 6b 85 9e b5 26 1f ac bc
       -0.115573 -6.647481e-06 -1.1810747e-06 -0.021010946
000380 d0 87 b2 bd 99 37 98 bd 4b f1 06 bc b2 e3 be 36
       -0.087173104 -0.074324794 -0.00823624 5.6889485e-06
000390 a9 09 e5 b8 35 ec 5a b8 b7 a8 ba bc b7 a5 2e b7
       -0.0001092137 -5.2195235e-05 -0.022785528 -1.0409792e-05
0003a0 c2 c8 63 bd 59 20 8e af a6 d1 bb 3d 82 8a 9c 3d
       -0.05561138 -2.5852634e-10 0.09170847 0.07643606
0003b0 3f 7a 02 b7 83 92 74 bd cb 84 16 3e 83 d2 cd b6
       -7.7770665e-06 -0.059710037 0.14699094 -6.133983e-06
0003c0 56 b9 26 b7 b3 11 16 bc d8 30 62 bd 15 3e ae b6
       -9.937523e-06 -0.009159493 -0.055222362 -5.1928314e-06
0003d0 d2 94 af b7 e7 bb ae bd e7 37 30 3d 5f de cc b6
       -2.0930926e-05 -0.08531933 0.043022063 -6.105561e-06
0003e0 75 d2 ba b3 74 37 64 b7 b6 7e 1e 3c 44 d0 11 be
       -8.699582e-08 -1.360277e-05 0.009673765 -0.14239603
0003f0 00 fc c3 bd ca 8b b6 b6 ba b6 b0 b5 3e 52 b6 bc
       -0.095695496 -5.4402963e-06 -1.3166202e-06 -0.022256013

bias f4 [64]
000000 af 38 96 bc e7 4b a4 3d b0 32 27 b9 2f ee 53 38
       -0.018337576 0.0802229 -0.00015945244 5.0528146e-05
000010 1b 1c 31 3e 07 a5 2c ba 87 56 16 39 e4 0d eb bb
       0.17295878 -0.000658587 0.00014337349 -0.0071732868
000020 c4 98 a6 bb 4b ca 68 bc 0e e8 1b bc 5f 6c 21 3e
       -0.005084129 -0.014208387 -0.009515775 0.15763997
000030 80 79 05 b8 c2 7c 53 38 0b 09 97 3e 83 44 bb ba
       -3.1822827e-05 5.042251e-05 0.29499087 -0.0014287386
000040 38 19 26 bc d3 72 bc 38 9f 93 28 37 20 93 91 34
       -0.010137849 8.985926e-05 1.0047951e-05 2.7115402e-07
000050 c2 fe 3c bc a9 cf d3 38 4b 8b 91 3d f1 26 8d 3d
       -0.011535348 0.00010099944 0.07106646 0.06892193
000060 4a 81 a9 b6 b4 01 5b bc 9c 7a 18 ba 4b 97 8b 39
       -5.0516437e-06 -0.013367105 -0.000581661 0.00026624868
000070 98 4b d6 38 25 0f 43 bd 02 85 ba bb 03 e1 9f bc
       0.000102183956 -0.047621865 -0.0056921253 -0.019516474
000080 dd 52 fd b3 40 e2 f3 bd b9 6d 01 bc fe 65 a3 bc
       -1.1796303e-07 -0.11908388 -0.007899695 -0.019946095
000090 d8 2d a8 3c d7 e8 11 ba 21 09 44 37 36 92 8d ba
       0.020529673 -0.0005566007 1.1684636e-05 -0.001080102
0000a0 77 fd 94 38 e1 f6 f4 bc bd 73 ef 3c af 9c 06 ba
       7.1044014e-05 -0.029902877 0.029229993 -0.0005135042
0000b0 83 2c 16 bd 83 c3 ad 3d 16 e1 87 bd 32 6e fb bd
       -0.036663543 0.084845565 -0.066347286 -0.122768775
0000c0 08 5e 33 37 1d 5f 9b 3d 51 5d 27 ba 7b 5d cd 36
       1.0691125e-05 0.07586501 -0.00063844497 6.1203586e-06
0000d0 49 c4 e4 33 8c 70 65 3d 77 b8 12 3d 03 fa ff bb
       1.06527814e-07 0.056015536 0.03582045 -0.007811786
0000e0 c2 37 c2 3c e7 5d 73 39 5d 5d 48 bb 92 51 52 3e
       0.023708228 0.00023209267 -0.0030573227 0.20538929
0000f0 94 ad 29 3d 87 74 a4 3c 8e 20 bb b9 d5 d2 85 3c
       0.041425303 0.020075096 -0.00035691675 0.016335884
